{"Layers": [{
  "Name": "onnx::Slice_3201",
  "LayerType": "Constant",
  "Inputs": [],
  "Outputs": [
  {
    "Name": "(Unnamed Layer* 0) [Constant]_output",
    "Location": "Device",
    "Dimensions": [4,4],
    "Format/Datatype": "Row major linear FP32"
  }],
  "ParameterType": "Constant",
  "weights": {"Type": "Float", "Count": 16},
  "dimensions": [4,4],
  "TacticValue": "0x0000000000000000"
},{
  "Name": "onnx::Slice_3201_clone_1",
  "LayerType": "Constant",
  "Inputs": [],
  "Outputs": [
  {
    "Name": "(Unnamed Layer* 0) [Constant]_output_clone_1",
    "Location": "Device",
    "Dimensions": [4,4],
    "Format/Datatype": "Row major linear FP16 format"
  }],
  "ParameterType": "Constant",
  "weights": {"Type": "Float", "Count": 16},
  "dimensions": [4,4],
  "TacticValue": "0x0000000000000000"
},{
  "Name": "onnx::Slice_3201_clone_2",
  "LayerType": "Constant",
  "Inputs": [],
  "Outputs": [
  {
    "Name": "(Unnamed Layer* 0) [Constant]_output_clone_2",
    "Location": "Device",
    "Dimensions": [4,4],
    "Format/Datatype": "Row major linear FP32"
  }],
  "ParameterType": "Constant",
  "weights": {"Type": "Float", "Count": 16},
  "dimensions": [4,4],
  "TacticValue": "0x0000000000000000"
},{
  "Name": "onnx::Slice_3201_clone_3",
  "LayerType": "Constant",
  "Inputs": [],
  "Outputs": [
  {
    "Name": "(Unnamed Layer* 0) [Constant]_output_clone_3",
    "Location": "Device",
    "Dimensions": [4,4],
    "Format/Datatype": "Row major linear FP16 format"
  }],
  "ParameterType": "Constant",
  "weights": {"Type": "Float", "Count": 16},
  "dimensions": [4,4],
  "TacticValue": "0x0000000000000000"
},{
  "Name": "onnx::Slice_3201_clone_4",
  "LayerType": "Constant",
  "Inputs": [],
  "Outputs": [
  {
    "Name": "(Unnamed Layer* 0) [Constant]_output_clone_4",
    "Location": "Device",
    "Dimensions": [4,4],
    "Format/Datatype": "Row major linear FP32"
  }],
  "ParameterType": "Constant",
  "weights": {"Type": "Float", "Count": 16},
  "dimensions": [4,4],
  "TacticValue": "0x0000000000000000"
},{
  "Name": "onnx::Slice_3201_clone_5",
  "LayerType": "Constant",
  "Inputs": [],
  "Outputs": [
  {
    "Name": "(Unnamed Layer* 0) [Constant]_output_clone_5",
    "Location": "Device",
    "Dimensions": [4,4],
    "Format/Datatype": "Row major linear FP16 format"
  }],
  "ParameterType": "Constant",
  "weights": {"Type": "Float", "Count": 16},
  "dimensions": [4,4],
  "TacticValue": "0x0000000000000000"
},{
  "Name": "onnx::Slice_3201_clone_6",
  "LayerType": "Constant",
  "Inputs": [],
  "Outputs": [
  {
    "Name": "(Unnamed Layer* 0) [Constant]_output_clone_6",
    "Location": "Device",
    "Dimensions": [4,4],
    "Format/Datatype": "Row major linear FP32"
  }],
  "ParameterType": "Constant",
  "weights": {"Type": "Float", "Count": 16},
  "dimensions": [4,4],
  "TacticValue": "0x0000000000000000"
},{
  "Name": "onnx::Slice_3201_clone_7",
  "LayerType": "Constant",
  "Inputs": [],
  "Outputs": [
  {
    "Name": "(Unnamed Layer* 0) [Constant]_output_clone_7",
    "Location": "Device",
    "Dimensions": [4,4],
    "Format/Datatype": "Row major linear FP16 format"
  }],
  "ParameterType": "Constant",
  "weights": {"Type": "Float", "Count": 16},
  "dimensions": [4,4],
  "TacticValue": "0x0000000000000000"
},{
  "Name": "onnx::Slice_3201_clone_8",
  "LayerType": "Constant",
  "Inputs": [],
  "Outputs": [
  {
    "Name": "(Unnamed Layer* 0) [Constant]_output_clone_8",
    "Location": "Device",
    "Dimensions": [4,4],
    "Format/Datatype": "Row major linear FP32"
  }],
  "ParameterType": "Constant",
  "weights": {"Type": "Float", "Count": 16},
  "dimensions": [4,4],
  "TacticValue": "0x0000000000000000"
},{
  "Name": "onnx::Slice_3201_clone_9",
  "LayerType": "Constant",
  "Inputs": [],
  "Outputs": [
  {
    "Name": "(Unnamed Layer* 0) [Constant]_output_clone_9",
    "Location": "Device",
    "Dimensions": [4,4],
    "Format/Datatype": "Row major linear FP16 format"
  }],
  "ParameterType": "Constant",
  "weights": {"Type": "Float", "Count": 16},
  "dimensions": [4,4],
  "TacticValue": "0x0000000000000000"
},{
  "Name": "onnx::Slice_3201_clone_10",
  "LayerType": "Constant",
  "Inputs": [],
  "Outputs": [
  {
    "Name": "(Unnamed Layer* 0) [Constant]_output_clone_10",
    "Location": "Device",
    "Dimensions": [4,4],
    "Format/Datatype": "Row major linear FP32"
  }],
  "ParameterType": "Constant",
  "weights": {"Type": "Float", "Count": 16},
  "dimensions": [4,4],
  "TacticValue": "0x0000000000000000"
},{
  "Name": "onnx::Slice_3201_clone_11",
  "LayerType": "Constant",
  "Inputs": [],
  "Outputs": [
  {
    "Name": "(Unnamed Layer* 0) [Constant]_output_clone_11",
    "Location": "Device",
    "Dimensions": [4,4],
    "Format/Datatype": "Row major linear FP32"
  }],
  "ParameterType": "Constant",
  "weights": {"Type": "Float", "Count": 16},
  "dimensions": [4,4],
  "TacticValue": "0x0000000000000000"
},{
  "Name": "onnx::Slice_3201_clone_12",
  "LayerType": "Constant",
  "Inputs": [],
  "Outputs": [
  {
    "Name": "(Unnamed Layer* 0) [Constant]_output_clone_12",
    "Location": "Device",
    "Dimensions": [4,4],
    "Format/Datatype": "Row major linear FP32"
  }],
  "ParameterType": "Constant",
  "weights": {"Type": "Float", "Count": 16},
  "dimensions": [4,4],
  "TacticValue": "0x0000000000000000"
},{
  "Name": "onnx::Slice_3201_clone_13",
  "LayerType": "Constant",
  "Inputs": [],
  "Outputs": [
  {
    "Name": "(Unnamed Layer* 0) [Constant]_output_clone_13",
    "Location": "Device",
    "Dimensions": [4,4],
    "Format/Datatype": "Row major linear FP32"
  }],
  "ParameterType": "Constant",
  "weights": {"Type": "Float", "Count": 16},
  "dimensions": [4,4],
  "TacticValue": "0x0000000000000000"
},{
  "Name": "onnx::Slice_3201_clone_14",
  "LayerType": "Constant",
  "Inputs": [],
  "Outputs": [
  {
    "Name": "(Unnamed Layer* 0) [Constant]_output_clone_14",
    "Location": "Device",
    "Dimensions": [4,4],
    "Format/Datatype": "Row major linear FP32"
  }],
  "ParameterType": "Constant",
  "weights": {"Type": "Float", "Count": 16},
  "dimensions": [4,4],
  "TacticValue": "0x0000000000000000"
},{
  "Name": "onnx::Slice_3201_clone_15",
  "LayerType": "Constant",
  "Inputs": [],
  "Outputs": [
  {
    "Name": "(Unnamed Layer* 0) [Constant]_output_clone_15",
    "Location": "Device",
    "Dimensions": [4,4],
    "Format/Datatype": "Row major linear FP32"
  }],
  "ParameterType": "Constant",
  "weights": {"Type": "Float", "Count": 16},
  "dimensions": [4,4],
  "TacticValue": "0x0000000000000000"
},{
  "Name": "onnx::Expand_3077",
  "LayerType": "Constant",
  "Inputs": [],
  "Outputs": [
  {
    "Name": "(Unnamed Layer* 124) [Constant]_output",
    "Location": "Device",
    "Dimensions": [1,512,4,4],
    "Format/Datatype": "Row major linear FP32"
  }],
  "ParameterType": "Constant",
  "weights": {"Type": "Float", "Count": 8192},
  "dimensions": [1,512,4,4],
  "TacticValue": "0x0000000000000000"
},{
  "Name": "/synthesis/b4/conv1/RandomNormalLike",
  "LayerType": "Fill",
  "Inputs": [],
  "Outputs": [
  {
    "Name": "/synthesis/b4/conv1/RandomNormalLike_output_0",
    "Location": "Device",
    "Dimensions": [1,1,4,4],
    "Format/Datatype": "Row major linear FP32"
  }],
  "ParameterType": "Fill",
  "Op": "RANDOM_NORMAL",
  "dimension": [1,1,4,4],
  "alpha": 0,
  "beta": 1,
  "TacticValue": "0x0000000000000000"
},{
  "Name": "onnx::Mul_3098",
  "LayerType": "Constant",
  "Inputs": [],
  "Outputs": [
  {
    "Name": "(Unnamed Layer* 147) [Constant]_output",
    "Location": "Device",
    "Dimensions": [1,512,512,3,3],
    "Format/Datatype": "Row major linear FP16 format"
  }],
  "ParameterType": "Constant",
  "weights": {"Type": "Float", "Count": 2359296},
  "dimensions": [1,512,512,3,3],
  "TacticValue": "0x0000000000000000"
},{
  "Name": "onnx::Mul_3132",
  "LayerType": "Constant",
  "Inputs": [],
  "Outputs": [
  {
    "Name": "(Unnamed Layer* 180) [Constant]_output",
    "Location": "Device",
    "Dimensions": [1,3,512,1,1],
    "Format/Datatype": "Row major linear FP16 format"
  }],
  "ParameterType": "Constant",
  "weights": {"Type": "Float", "Count": 1536},
  "dimensions": [1,3,512,1,1],
  "TacticValue": "0x0000000000000000"
},{
  "Name": "/synthesis/b8/conv0/RandomNormalLike",
  "LayerType": "Fill",
  "Inputs": [],
  "Outputs": [
  {
    "Name": "/synthesis/b8/conv0/RandomNormalLike_output_0",
    "Location": "Device",
    "Dimensions": [1,1,8,8],
    "Format/Datatype": "Row major linear FP32"
  }],
  "ParameterType": "Fill",
  "Op": "RANDOM_NORMAL",
  "dimension": [1,1,8,8],
  "alpha": 0,
  "beta": 1,
  "TacticValue": "0x0000000000000000"
},{
  "Name": "onnx::Mul_3165",
  "LayerType": "Constant",
  "Inputs": [],
  "Outputs": [
  {
    "Name": "(Unnamed Layer* 211) [Constant]_output",
    "Location": "Device",
    "Dimensions": [1,512,512,3,3],
    "Format/Datatype": "Row major linear FP16 format"
  }],
  "ParameterType": "Constant",
  "weights": {"Type": "Float", "Count": 2359296},
  "dimensions": [1,512,512,3,3],
  "TacticValue": "0x0000000000000000"
},{
  "Name": "/synthesis/b8/conv1/RandomNormalLike",
  "LayerType": "Fill",
  "Inputs": [],
  "Outputs": [
  {
    "Name": "/synthesis/b8/conv1/RandomNormalLike_output_0",
    "Location": "Device",
    "Dimensions": [1,1,8,8],
    "Format/Datatype": "Row major linear FP32"
  }],
  "ParameterType": "Fill",
  "Op": "RANDOM_NORMAL",
  "dimension": [1,1,8,8],
  "alpha": 0,
  "beta": 1,
  "TacticValue": "0x0000000000000000"
},{
  "Name": "onnx::Mul_3229",
  "LayerType": "Constant",
  "Inputs": [],
  "Outputs": [
  {
    "Name": "(Unnamed Layer* 278) [Constant]_output",
    "Location": "Device",
    "Dimensions": [1,512,512,3,3],
    "Format/Datatype": "Row major linear FP16 format"
  }],
  "ParameterType": "Constant",
  "weights": {"Type": "Float", "Count": 2359296},
  "dimensions": [1,512,512,3,3],
  "TacticValue": "0x0000000000000000"
},{
  "Name": "onnx::Mul_3288",
  "LayerType": "Constant",
  "Inputs": [],
  "Outputs": [
  {
    "Name": "(Unnamed Layer* 342) [Constant]_output",
    "Location": "Device",
    "Dimensions": [1,3,512,1,1],
    "Format/Datatype": "Row major linear FP16 format"
  }],
  "ParameterType": "Constant",
  "weights": {"Type": "Float", "Count": 1536},
  "dimensions": [1,3,512,1,1],
  "TacticValue": "0x0000000000000000"
},{
  "Name": "/synthesis/b16/conv0/RandomNormalLike",
  "LayerType": "Fill",
  "Inputs": [],
  "Outputs": [
  {
    "Name": "/synthesis/b16/conv0/RandomNormalLike_output_0",
    "Location": "Device",
    "Dimensions": [1,1,16,16],
    "Format/Datatype": "Row major linear FP32"
  }],
  "ParameterType": "Fill",
  "Op": "RANDOM_NORMAL",
  "dimension": [1,1,16,16],
  "alpha": 0,
  "beta": 1,
  "TacticValue": "0x0000000000000000"
},{
  "Name": "onnx::Mul_3321",
  "LayerType": "Constant",
  "Inputs": [],
  "Outputs": [
  {
    "Name": "(Unnamed Layer* 374) [Constant]_output",
    "Location": "Device",
    "Dimensions": [1,512,512,3,3],
    "Format/Datatype": "Row major linear FP16 format"
  }],
  "ParameterType": "Constant",
  "weights": {"Type": "Float", "Count": 2359296},
  "dimensions": [1,512,512,3,3],
  "TacticValue": "0x0000000000000000"
},{
  "Name": "/synthesis/b16/conv1/RandomNormalLike",
  "LayerType": "Fill",
  "Inputs": [],
  "Outputs": [
  {
    "Name": "/synthesis/b16/conv1/RandomNormalLike_output_0",
    "Location": "Device",
    "Dimensions": [1,1,16,16],
    "Format/Datatype": "Row major linear FP32"
  }],
  "ParameterType": "Fill",
  "Op": "RANDOM_NORMAL",
  "dimension": [1,1,16,16],
  "alpha": 0,
  "beta": 1,
  "TacticValue": "0x0000000000000000"
},{
  "Name": "onnx::Mul_3385",
  "LayerType": "Constant",
  "Inputs": [],
  "Outputs": [
  {
    "Name": "(Unnamed Layer* 441) [Constant]_output",
    "Location": "Device",
    "Dimensions": [1,512,512,3,3],
    "Format/Datatype": "Row major linear FP16 format"
  }],
  "ParameterType": "Constant",
  "weights": {"Type": "Float", "Count": 2359296},
  "dimensions": [1,512,512,3,3],
  "TacticValue": "0x0000000000000000"
},{
  "Name": "onnx::Mul_3444",
  "LayerType": "Constant",
  "Inputs": [],
  "Outputs": [
  {
    "Name": "(Unnamed Layer* 505) [Constant]_output",
    "Location": "Device",
    "Dimensions": [1,3,512,1,1],
    "Format/Datatype": "Row major linear FP16 format"
  }],
  "ParameterType": "Constant",
  "weights": {"Type": "Float", "Count": 1536},
  "dimensions": [1,3,512,1,1],
  "TacticValue": "0x0000000000000000"
},{
  "Name": "/synthesis/b32/conv0/RandomNormalLike",
  "LayerType": "Fill",
  "Inputs": [],
  "Outputs": [
  {
    "Name": "/synthesis/b32/conv0/RandomNormalLike_output_0",
    "Location": "Device",
    "Dimensions": [1,1,32,32],
    "Format/Datatype": "Row major linear FP32"
  }],
  "ParameterType": "Fill",
  "Op": "RANDOM_NORMAL",
  "dimension": [1,1,32,32],
  "alpha": 0,
  "beta": 1,
  "TacticValue": "0x0000000000000000"
},{
  "Name": "onnx::Mul_3477",
  "LayerType": "Constant",
  "Inputs": [],
  "Outputs": [
  {
    "Name": "(Unnamed Layer* 537) [Constant]_output",
    "Location": "Device",
    "Dimensions": [1,512,512,3,3],
    "Format/Datatype": "Row major linear FP16 format"
  }],
  "ParameterType": "Constant",
  "weights": {"Type": "Float", "Count": 2359296},
  "dimensions": [1,512,512,3,3],
  "TacticValue": "0x0000000000000000"
},{
  "Name": "/synthesis/b32/conv1/RandomNormalLike",
  "LayerType": "Fill",
  "Inputs": [],
  "Outputs": [
  {
    "Name": "/synthesis/b32/conv1/RandomNormalLike_output_0",
    "Location": "Device",
    "Dimensions": [1,1,32,32],
    "Format/Datatype": "Row major linear FP32"
  }],
  "ParameterType": "Fill",
  "Op": "RANDOM_NORMAL",
  "dimension": [1,1,32,32],
  "alpha": 0,
  "beta": 1,
  "TacticValue": "0x0000000000000000"
},{
  "Name": "onnx::Mul_3541",
  "LayerType": "Constant",
  "Inputs": [],
  "Outputs": [
  {
    "Name": "(Unnamed Layer* 604) [Constant]_output",
    "Location": "Device",
    "Dimensions": [1,512,512,3,3],
    "Format/Datatype": "Row major linear FP16 format"
  }],
  "ParameterType": "Constant",
  "weights": {"Type": "Float", "Count": 2359296},
  "dimensions": [1,512,512,3,3],
  "TacticValue": "0x0000000000000000"
},{
  "Name": "onnx::Mul_3600",
  "LayerType": "Constant",
  "Inputs": [],
  "Outputs": [
  {
    "Name": "(Unnamed Layer* 668) [Constant]_output",
    "Location": "Device",
    "Dimensions": [1,3,512,1,1],
    "Format/Datatype": "Row major linear FP16 format"
  }],
  "ParameterType": "Constant",
  "weights": {"Type": "Float", "Count": 1536},
  "dimensions": [1,3,512,1,1],
  "TacticValue": "0x0000000000000000"
},{
  "Name": "/synthesis/b64/conv0/RandomNormalLike",
  "LayerType": "Fill",
  "Inputs": [],
  "Outputs": [
  {
    "Name": "/synthesis/b64/conv0/RandomNormalLike_output_0",
    "Location": "Device",
    "Dimensions": [1,1,64,64],
    "Format/Datatype": "Row major linear FP32"
  }],
  "ParameterType": "Fill",
  "Op": "RANDOM_NORMAL",
  "dimension": [1,1,64,64],
  "alpha": 0,
  "beta": 1,
  "TacticValue": "0x0000000000000000"
},{
  "Name": "onnx::Mul_3633",
  "LayerType": "Constant",
  "Inputs": [],
  "Outputs": [
  {
    "Name": "(Unnamed Layer* 700) [Constant]_output",
    "Location": "Device",
    "Dimensions": [1,512,512,3,3],
    "Format/Datatype": "Row major linear FP16 format"
  }],
  "ParameterType": "Constant",
  "weights": {"Type": "Float", "Count": 2359296},
  "dimensions": [1,512,512,3,3],
  "TacticValue": "0x0000000000000000"
},{
  "Name": "/synthesis/b64/conv1/RandomNormalLike",
  "LayerType": "Fill",
  "Inputs": [],
  "Outputs": [
  {
    "Name": "Reformatted Output Tensor 0 to /synthesis/b64/conv1/RandomNormalLike",
    "Location": "Device",
    "Dimensions": [1,1,64,64],
    "Format/Datatype": "Row major linear FP32"
  }],
  "ParameterType": "Fill",
  "Op": "RANDOM_NORMAL",
  "dimension": [1,1,64,64],
  "alpha": 0,
  "beta": 1,
  "TacticValue": "0x0000000000000000"
},{
  "Name": "Reformatting CopyNode for Output Tensor 0 to /synthesis/b64/conv1/RandomNormalLike",
  "LayerType": "Reformat",
  "Inputs": [
  {
    "Name": "Reformatted Output Tensor 0 to /synthesis/b64/conv1/RandomNormalLike",
    "Location": "Device",
    "Dimensions": [1,1,64,64],
    "Format/Datatype": "Row major linear FP32"
  }],
  "Outputs": [
  {
    "Name": "/synthesis/b64/conv1/RandomNormalLike_output_0",
    "Location": "Device",
    "Dimensions": [1,1,64,64],
    "Format/Datatype": "Channel major FP16 format where channel % 8 == 0"
  }],
  "ParameterType": "Reformat",
  "Origin": "REFORMAT",
  "TacticValue": "0x0000000000000000"
},{
  "Name": "onnx::Mul_3697",
  "LayerType": "Constant",
  "Inputs": [],
  "Outputs": [
  {
    "Name": "(Unnamed Layer* 767) [Constant]_output",
    "Location": "Device",
    "Dimensions": [1,512,512,3,3],
    "Format/Datatype": "Row major linear FP16 format"
  }],
  "ParameterType": "Constant",
  "weights": {"Type": "Float", "Count": 2359296},
  "dimensions": [1,512,512,3,3],
  "TacticValue": "0x0000000000000000"
},{
  "Name": "onnx::Mul_3756",
  "LayerType": "Constant",
  "Inputs": [],
  "Outputs": [
  {
    "Name": "(Unnamed Layer* 831) [Constant]_output",
    "Location": "Device",
    "Dimensions": [1,3,512,1,1],
    "Format/Datatype": "Row major linear FP16 format"
  }],
  "ParameterType": "Constant",
  "weights": {"Type": "Float", "Count": 1536},
  "dimensions": [1,3,512,1,1],
  "TacticValue": "0x0000000000000000"
},{
  "Name": "/synthesis/b128/conv0/RandomNormalLike",
  "LayerType": "Fill",
  "Inputs": [],
  "Outputs": [
  {
    "Name": "/synthesis/b128/conv0/RandomNormalLike_output_0",
    "Location": "Device",
    "Dimensions": [1,1,128,128],
    "Format/Datatype": "Row major linear FP32"
  }],
  "ParameterType": "Fill",
  "Op": "RANDOM_NORMAL",
  "dimension": [1,1,128,128],
  "alpha": 0,
  "beta": 1,
  "TacticValue": "0x0000000000000000"
},{
  "Name": "onnx::Mul_3789",
  "LayerType": "Constant",
  "Inputs": [],
  "Outputs": [
  {
    "Name": "(Unnamed Layer* 863) [Constant]_output",
    "Location": "Device",
    "Dimensions": [1,256,512,3,3],
    "Format/Datatype": "Row major linear FP16 format"
  }],
  "ParameterType": "Constant",
  "weights": {"Type": "Float", "Count": 1179648},
  "dimensions": [1,256,512,3,3],
  "TacticValue": "0x0000000000000000"
},{
  "Name": "/synthesis/b128/conv1/RandomNormalLike",
  "LayerType": "Fill",
  "Inputs": [],
  "Outputs": [
  {
    "Name": "/synthesis/b128/conv1/RandomNormalLike_output_0",
    "Location": "Device",
    "Dimensions": [1,1,128,128],
    "Format/Datatype": "Row major linear FP32"
  }],
  "ParameterType": "Fill",
  "Op": "RANDOM_NORMAL",
  "dimension": [1,1,128,128],
  "alpha": 0,
  "beta": 1,
  "TacticValue": "0x0000000000000000"
},{
  "Name": "onnx::Mul_3853",
  "LayerType": "Constant",
  "Inputs": [],
  "Outputs": [
  {
    "Name": "(Unnamed Layer* 930) [Constant]_output",
    "Location": "Device",
    "Dimensions": [1,256,256,3,3],
    "Format/Datatype": "Row major linear FP16 format"
  }],
  "ParameterType": "Constant",
  "weights": {"Type": "Float", "Count": 589824},
  "dimensions": [1,256,256,3,3],
  "TacticValue": "0x0000000000000000"
},{
  "Name": "onnx::Mul_3912",
  "LayerType": "Constant",
  "Inputs": [],
  "Outputs": [
  {
    "Name": "(Unnamed Layer* 994) [Constant]_output",
    "Location": "Device",
    "Dimensions": [1,3,256,1,1],
    "Format/Datatype": "Row major linear FP16 format"
  }],
  "ParameterType": "Constant",
  "weights": {"Type": "Float", "Count": 768},
  "dimensions": [1,3,256,1,1],
  "TacticValue": "0x0000000000000000"
},{
  "Name": "/synthesis/b256/conv0/RandomNormalLike",
  "LayerType": "Fill",
  "Inputs": [],
  "Outputs": [
  {
    "Name": "Reformatted Output Tensor 0 to /synthesis/b256/conv0/RandomNormalLike",
    "Location": "Device",
    "Dimensions": [1,1,256,256],
    "Format/Datatype": "Row major linear FP32"
  }],
  "ParameterType": "Fill",
  "Op": "RANDOM_NORMAL",
  "dimension": [1,1,256,256],
  "alpha": 0,
  "beta": 1,
  "TacticValue": "0x0000000000000000"
},{
  "Name": "Reformatting CopyNode for Output Tensor 0 to /synthesis/b256/conv0/RandomNormalLike",
  "LayerType": "Reformat",
  "Inputs": [
  {
    "Name": "Reformatted Output Tensor 0 to /synthesis/b256/conv0/RandomNormalLike",
    "Location": "Device",
    "Dimensions": [1,1,256,256],
    "Format/Datatype": "Row major linear FP32"
  }],
  "Outputs": [
  {
    "Name": "/synthesis/b256/conv0/RandomNormalLike_output_0",
    "Location": "Device",
    "Dimensions": [1,1,256,256],
    "Format/Datatype": "Row major linear FP16 format"
  }],
  "ParameterType": "Reformat",
  "Origin": "REFORMAT",
  "TacticValue": "0x00000000000003e8"
},{
  "Name": "onnx::Mul_3945",
  "LayerType": "Constant",
  "Inputs": [],
  "Outputs": [
  {
    "Name": "(Unnamed Layer* 1026) [Constant]_output",
    "Location": "Device",
    "Dimensions": [1,128,256,3,3],
    "Format/Datatype": "Row major linear FP16 format"
  }],
  "ParameterType": "Constant",
  "weights": {"Type": "Float", "Count": 294912},
  "dimensions": [1,128,256,3,3],
  "TacticValue": "0x0000000000000000"
},{
  "Name": "/synthesis/b256/conv1/RandomNormalLike",
  "LayerType": "Fill",
  "Inputs": [],
  "Outputs": [
  {
    "Name": "Reformatted Output Tensor 0 to /synthesis/b256/conv1/RandomNormalLike",
    "Location": "Device",
    "Dimensions": [1,1,256,256],
    "Format/Datatype": "Row major linear FP32"
  }],
  "ParameterType": "Fill",
  "Op": "RANDOM_NORMAL",
  "dimension": [1,1,256,256],
  "alpha": 0,
  "beta": 1,
  "TacticValue": "0x0000000000000000"
},{
  "Name": "Reformatting CopyNode for Output Tensor 0 to /synthesis/b256/conv1/RandomNormalLike",
  "LayerType": "Reformat",
  "Inputs": [
  {
    "Name": "Reformatted Output Tensor 0 to /synthesis/b256/conv1/RandomNormalLike",
    "Location": "Device",
    "Dimensions": [1,1,256,256],
    "Format/Datatype": "Row major linear FP32"
  }],
  "Outputs": [
  {
    "Name": "/synthesis/b256/conv1/RandomNormalLike_output_0",
    "Location": "Device",
    "Dimensions": [1,1,256,256],
    "Format/Datatype": "Channel major FP16 format where channel % 8 == 0"
  }],
  "ParameterType": "Reformat",
  "Origin": "REFORMAT",
  "TacticValue": "0x0000000000000000"
},{
  "Name": "onnx::Mul_4009",
  "LayerType": "Constant",
  "Inputs": [],
  "Outputs": [
  {
    "Name": "(Unnamed Layer* 1093) [Constant]_output",
    "Location": "Device",
    "Dimensions": [1,128,128,3,3],
    "Format/Datatype": "Row major linear FP16 format"
  }],
  "ParameterType": "Constant",
  "weights": {"Type": "Float", "Count": 147456},
  "dimensions": [1,128,128,3,3],
  "TacticValue": "0x0000000000000000"
},{
  "Name": "onnx::Mul_4068",
  "LayerType": "Constant",
  "Inputs": [],
  "Outputs": [
  {
    "Name": "(Unnamed Layer* 1157) [Constant]_output",
    "Location": "Device",
    "Dimensions": [1,3,128,1,1],
    "Format/Datatype": "Row major linear FP16 format"
  }],
  "ParameterType": "Constant",
  "weights": {"Type": "Float", "Count": 384},
  "dimensions": [1,3,128,1,1],
  "TacticValue": "0x0000000000000000"
},{
  "Name": "/synthesis/b512/conv0/RandomNormalLike",
  "LayerType": "Fill",
  "Inputs": [],
  "Outputs": [
  {
    "Name": "Reformatted Output Tensor 0 to /synthesis/b512/conv0/RandomNormalLike",
    "Location": "Device",
    "Dimensions": [1,1,512,512],
    "Format/Datatype": "Row major linear FP32"
  }],
  "ParameterType": "Fill",
  "Op": "RANDOM_NORMAL",
  "dimension": [1,1,512,512],
  "alpha": 0,
  "beta": 1,
  "TacticValue": "0x0000000000000000"
},{
  "Name": "Reformatting CopyNode for Output Tensor 0 to /synthesis/b512/conv0/RandomNormalLike",
  "LayerType": "Reformat",
  "Inputs": [
  {
    "Name": "Reformatted Output Tensor 0 to /synthesis/b512/conv0/RandomNormalLike",
    "Location": "Device",
    "Dimensions": [1,1,512,512],
    "Format/Datatype": "Row major linear FP32"
  }],
  "Outputs": [
  {
    "Name": "/synthesis/b512/conv0/RandomNormalLike_output_0",
    "Location": "Device",
    "Dimensions": [1,1,512,512],
    "Format/Datatype": "Row major linear FP16 format"
  }],
  "ParameterType": "Reformat",
  "Origin": "REFORMAT",
  "TacticValue": "0x00000000000003e8"
},{
  "Name": "onnx::Mul_4101",
  "LayerType": "Constant",
  "Inputs": [],
  "Outputs": [
  {
    "Name": "(Unnamed Layer* 1189) [Constant]_output",
    "Location": "Device",
    "Dimensions": [1,64,128,3,3],
    "Format/Datatype": "Row major linear FP16 format"
  }],
  "ParameterType": "Constant",
  "weights": {"Type": "Float", "Count": 73728},
  "dimensions": [1,64,128,3,3],
  "TacticValue": "0x0000000000000000"
},{
  "Name": "/synthesis/b512/conv1/RandomNormalLike",
  "LayerType": "Fill",
  "Inputs": [],
  "Outputs": [
  {
    "Name": "Reformatted Output Tensor 0 to /synthesis/b512/conv1/RandomNormalLike",
    "Location": "Device",
    "Dimensions": [1,1,512,512],
    "Format/Datatype": "Row major linear FP32"
  }],
  "ParameterType": "Fill",
  "Op": "RANDOM_NORMAL",
  "dimension": [1,1,512,512],
  "alpha": 0,
  "beta": 1,
  "TacticValue": "0x0000000000000000"
},{
  "Name": "Reformatting CopyNode for Output Tensor 0 to /synthesis/b512/conv1/RandomNormalLike",
  "LayerType": "Reformat",
  "Inputs": [
  {
    "Name": "Reformatted Output Tensor 0 to /synthesis/b512/conv1/RandomNormalLike",
    "Location": "Device",
    "Dimensions": [1,1,512,512],
    "Format/Datatype": "Row major linear FP32"
  }],
  "Outputs": [
  {
    "Name": "/synthesis/b512/conv1/RandomNormalLike_output_0",
    "Location": "Device",
    "Dimensions": [1,1,512,512],
    "Format/Datatype": "Channel major FP16 format where channel % 8 == 0"
  }],
  "ParameterType": "Reformat",
  "Origin": "REFORMAT",
  "TacticValue": "0x0000000000000000"
},{
  "Name": "onnx::Mul_4165",
  "LayerType": "Constant",
  "Inputs": [],
  "Outputs": [
  {
    "Name": "(Unnamed Layer* 1256) [Constant]_output",
    "Location": "Device",
    "Dimensions": [1,64,64,3,3],
    "Format/Datatype": "Row major linear FP16 format"
  }],
  "ParameterType": "Constant",
  "weights": {"Type": "Float", "Count": 36864},
  "dimensions": [1,64,64,3,3],
  "TacticValue": "0x0000000000000000"
},{
  "Name": "onnx::Mul_4224",
  "LayerType": "Constant",
  "Inputs": [],
  "Outputs": [
  {
    "Name": "(Unnamed Layer* 1320) [Constant]_output",
    "Location": "Device",
    "Dimensions": [1,3,64,1,1],
    "Format/Datatype": "Row major linear FP16 format"
  }],
  "ParameterType": "Constant",
  "weights": {"Type": "Float", "Count": 192},
  "dimensions": [1,3,64,1,1],
  "TacticValue": "0x0000000000000000"
},{
  "Name": "/synthesis/b1024/conv0/RandomNormalLike",
  "LayerType": "Fill",
  "Inputs": [],
  "Outputs": [
  {
    "Name": "/synthesis/b1024/conv0/RandomNormalLike_output_0",
    "Location": "Device",
    "Dimensions": [1,1,1024,1024],
    "Format/Datatype": "Row major linear FP32"
  }],
  "ParameterType": "Fill",
  "Op": "RANDOM_NORMAL",
  "dimension": [1,1,1024,1024],
  "alpha": 0,
  "beta": 1,
  "TacticValue": "0x0000000000000000"
},{
  "Name": "onnx::Mul_4257",
  "LayerType": "Constant",
  "Inputs": [],
  "Outputs": [
  {
    "Name": "(Unnamed Layer* 1352) [Constant]_output",
    "Location": "Device",
    "Dimensions": [1,32,64,3,3],
    "Format/Datatype": "Row major linear FP16 format"
  }],
  "ParameterType": "Constant",
  "weights": {"Type": "Float", "Count": 18432},
  "dimensions": [1,32,64,3,3],
  "TacticValue": "0x0000000000000000"
},{
  "Name": "/synthesis/b1024/conv1/RandomNormalLike",
  "LayerType": "Fill",
  "Inputs": [],
  "Outputs": [
  {
    "Name": "/synthesis/b1024/conv1/RandomNormalLike_output_0",
    "Location": "Device",
    "Dimensions": [1,1,1024,1024],
    "Format/Datatype": "Row major linear FP32"
  }],
  "ParameterType": "Fill",
  "Op": "RANDOM_NORMAL",
  "dimension": [1,1,1024,1024],
  "alpha": 0,
  "beta": 1,
  "TacticValue": "0x0000000000000000"
},{
  "Name": "onnx::Mul_4321",
  "LayerType": "Constant",
  "Inputs": [],
  "Outputs": [
  {
    "Name": "(Unnamed Layer* 1419) [Constant]_output",
    "Location": "Device",
    "Dimensions": [1,32,32,3,3],
    "Format/Datatype": "Row major linear FP16 format"
  }],
  "ParameterType": "Constant",
  "weights": {"Type": "Float", "Count": 9216},
  "dimensions": [1,32,32,3,3],
  "TacticValue": "0x0000000000000000"
},{
  "Name": "onnx::Mul_4380",
  "LayerType": "Constant",
  "Inputs": [],
  "Outputs": [
  {
    "Name": "(Unnamed Layer* 1483) [Constant]_output",
    "Location": "Device",
    "Dimensions": [1,3,32,1,1],
    "Format/Datatype": "Row major linear FP16 format"
  }],
  "ParameterType": "Constant",
  "weights": {"Type": "Float", "Count": 96},
  "dimensions": [1,3,32,1,1],
  "TacticValue": "0x0000000000000000"
},{
  "Name": "/mapping/Cast",
  "LayerType": "NoOp",
  "Inputs": [
  {
    "Name": "input0",
    "Location": "Device",
    "Dimensions": [1,512],
    "Format/Datatype": "Row major linear FP32"
  }],
  "Outputs": [
  {
    "Name": "/mapping/Cast_output_0",
    "Location": "Device",
    "Dimensions": [1,512],
    "Format/Datatype": "Row major linear FP32"
  }],
  "TacticValue": "0x0000000000000000"
},{
  "Name": "Identity_0",
  "LayerType": "Reformat",
  "Inputs": [
  {
    "Name": "(Unnamed Layer* 0) [Constant]_output",
    "Location": "Device",
    "Dimensions": [4,4],
    "Format/Datatype": "Row major linear FP32"
  }],
  "Outputs": [
  {
    "Name": "onnx::Slice_4364",
    "Location": "Device",
    "Dimensions": [4,4],
    "Format/Datatype": "Row major linear FP32"
  }],
  "ParameterType": "Reformat",
  "Origin": "IDENTITY",
  "TacticValue": "0x00000000000003e8"
},{
  "Name": "Identity_1",
  "LayerType": "Reformat",
  "Inputs": [
  {
    "Name": "(Unnamed Layer* 0) [Constant]_output_clone_1",
    "Location": "Device",
    "Dimensions": [4,4],
    "Format/Datatype": "Row major linear FP16 format"
  }],
  "Outputs": [
  {
    "Name": "onnx::Slice_4293",
    "Location": "Device",
    "Dimensions": [4,4],
    "Format/Datatype": "Row major linear FP16 format"
  }],
  "ParameterType": "Reformat",
  "Origin": "IDENTITY",
  "TacticValue": "0x00000000000003e8"
},{
  "Name": "Identity_2",
  "LayerType": "Reformat",
  "Inputs": [
  {
    "Name": "(Unnamed Layer* 0) [Constant]_output_clone_2",
    "Location": "Device",
    "Dimensions": [4,4],
    "Format/Datatype": "Row major linear FP32"
  }],
  "Outputs": [
  {
    "Name": "onnx::Slice_4208",
    "Location": "Device",
    "Dimensions": [4,4],
    "Format/Datatype": "Row major linear FP32"
  }],
  "ParameterType": "Reformat",
  "Origin": "IDENTITY",
  "TacticValue": "0x00000000000003e8"
},{
  "Name": "Identity_3",
  "LayerType": "Reformat",
  "Inputs": [
  {
    "Name": "(Unnamed Layer* 0) [Constant]_output_clone_3",
    "Location": "Device",
    "Dimensions": [4,4],
    "Format/Datatype": "Row major linear FP16 format"
  }],
  "Outputs": [
  {
    "Name": "onnx::Slice_4137",
    "Location": "Device",
    "Dimensions": [4,4],
    "Format/Datatype": "Row major linear FP16 format"
  }],
  "ParameterType": "Reformat",
  "Origin": "IDENTITY",
  "TacticValue": "0x00000000000003e8"
},{
  "Name": "Identity_4",
  "LayerType": "Reformat",
  "Inputs": [
  {
    "Name": "(Unnamed Layer* 0) [Constant]_output_clone_4",
    "Location": "Device",
    "Dimensions": [4,4],
    "Format/Datatype": "Row major linear FP32"
  }],
  "Outputs": [
  {
    "Name": "onnx::Slice_4052",
    "Location": "Device",
    "Dimensions": [4,4],
    "Format/Datatype": "Row major linear FP32"
  }],
  "ParameterType": "Reformat",
  "Origin": "IDENTITY",
  "TacticValue": "0x00000000000003e8"
},{
  "Name": "Identity_5",
  "LayerType": "Reformat",
  "Inputs": [
  {
    "Name": "(Unnamed Layer* 0) [Constant]_output_clone_5",
    "Location": "Device",
    "Dimensions": [4,4],
    "Format/Datatype": "Row major linear FP16 format"
  }],
  "Outputs": [
  {
    "Name": "onnx::Slice_3981",
    "Location": "Device",
    "Dimensions": [4,4],
    "Format/Datatype": "Row major linear FP16 format"
  }],
  "ParameterType": "Reformat",
  "Origin": "IDENTITY",
  "TacticValue": "0x00000000000003e8"
},{
  "Name": "Identity_6",
  "LayerType": "Reformat",
  "Inputs": [
  {
    "Name": "(Unnamed Layer* 0) [Constant]_output_clone_6",
    "Location": "Device",
    "Dimensions": [4,4],
    "Format/Datatype": "Row major linear FP32"
  }],
  "Outputs": [
  {
    "Name": "onnx::Slice_3896",
    "Location": "Device",
    "Dimensions": [4,4],
    "Format/Datatype": "Row major linear FP32"
  }],
  "ParameterType": "Reformat",
  "Origin": "IDENTITY",
  "TacticValue": "0x00000000000003e8"
},{
  "Name": "Identity_7",
  "LayerType": "Reformat",
  "Inputs": [
  {
    "Name": "(Unnamed Layer* 0) [Constant]_output_clone_7",
    "Location": "Device",
    "Dimensions": [4,4],
    "Format/Datatype": "Row major linear FP16 format"
  }],
  "Outputs": [
  {
    "Name": "onnx::Slice_3825",
    "Location": "Device",
    "Dimensions": [4,4],
    "Format/Datatype": "Row major linear FP16 format"
  }],
  "ParameterType": "Reformat",
  "Origin": "IDENTITY",
  "TacticValue": "0x00000000000003e8"
},{
  "Name": "Identity_8",
  "LayerType": "Reformat",
  "Inputs": [
  {
    "Name": "(Unnamed Layer* 0) [Constant]_output_clone_8",
    "Location": "Device",
    "Dimensions": [4,4],
    "Format/Datatype": "Row major linear FP32"
  }],
  "Outputs": [
  {
    "Name": "onnx::Slice_3740",
    "Location": "Device",
    "Dimensions": [4,4],
    "Format/Datatype": "Row major linear FP32"
  }],
  "ParameterType": "Reformat",
  "Origin": "IDENTITY",
  "TacticValue": "0x00000000000003e8"
},{
  "Name": "Identity_9",
  "LayerType": "Reformat",
  "Inputs": [
  {
    "Name": "(Unnamed Layer* 0) [Constant]_output_clone_9",
    "Location": "Device",
    "Dimensions": [4,4],
    "Format/Datatype": "Row major linear FP16 format"
  }],
  "Outputs": [
  {
    "Name": "onnx::Slice_3669",
    "Location": "Device",
    "Dimensions": [4,4],
    "Format/Datatype": "Row major linear FP16 format"
  }],
  "ParameterType": "Reformat",
  "Origin": "IDENTITY",
  "TacticValue": "0x00000000000003e8"
},{
  "Name": "Identity_10",
  "LayerType": "Reformat",
  "Inputs": [
  {
    "Name": "(Unnamed Layer* 0) [Constant]_output_clone_10",
    "Location": "Device",
    "Dimensions": [4,4],
    "Format/Datatype": "Row major linear FP32"
  }],
  "Outputs": [
  {
    "Name": "onnx::Slice_3584",
    "Location": "Device",
    "Dimensions": [4,4],
    "Format/Datatype": "Row major linear FP32"
  }],
  "ParameterType": "Reformat",
  "Origin": "IDENTITY",
  "TacticValue": "0x00000000000003e8"
},{
  "Name": "Identity_11",
  "LayerType": "Reformat",
  "Inputs": [
  {
    "Name": "(Unnamed Layer* 0) [Constant]_output_clone_11",
    "Location": "Device",
    "Dimensions": [4,4],
    "Format/Datatype": "Row major linear FP32"
  }],
  "Outputs": [
  {
    "Name": "onnx::Slice_3513",
    "Location": "Device",
    "Dimensions": [4,4],
    "Format/Datatype": "Row major linear FP32"
  }],
  "ParameterType": "Reformat",
  "Origin": "IDENTITY",
  "TacticValue": "0x00000000000003e8"
},{
  "Name": "Identity_12",
  "LayerType": "Reformat",
  "Inputs": [
  {
    "Name": "(Unnamed Layer* 0) [Constant]_output_clone_12",
    "Location": "Device",
    "Dimensions": [4,4],
    "Format/Datatype": "Row major linear FP32"
  }],
  "Outputs": [
  {
    "Name": "onnx::Slice_3428",
    "Location": "Device",
    "Dimensions": [4,4],
    "Format/Datatype": "Row major linear FP32"
  }],
  "ParameterType": "Reformat",
  "Origin": "IDENTITY",
  "TacticValue": "0x00000000000003e8"
},{
  "Name": "Identity_13",
  "LayerType": "Reformat",
  "Inputs": [
  {
    "Name": "(Unnamed Layer* 0) [Constant]_output_clone_13",
    "Location": "Device",
    "Dimensions": [4,4],
    "Format/Datatype": "Row major linear FP32"
  }],
  "Outputs": [
  {
    "Name": "onnx::Slice_3357",
    "Location": "Device",
    "Dimensions": [4,4],
    "Format/Datatype": "Row major linear FP32"
  }],
  "ParameterType": "Reformat",
  "Origin": "IDENTITY",
  "TacticValue": "0x00000000000003e8"
},{
  "Name": "Identity_14",
  "LayerType": "Reformat",
  "Inputs": [
  {
    "Name": "(Unnamed Layer* 0) [Constant]_output_clone_14",
    "Location": "Device",
    "Dimensions": [4,4],
    "Format/Datatype": "Row major linear FP32"
  }],
  "Outputs": [
  {
    "Name": "onnx::Slice_3272",
    "Location": "Device",
    "Dimensions": [4,4],
    "Format/Datatype": "Row major linear FP32"
  }],
  "ParameterType": "Reformat",
  "Origin": "IDENTITY",
  "TacticValue": "0x00000000000003e8"
},{
  "Name": "/synthesis/b8/conv0/Slice_2",
  "LayerType": "Slice",
  "Inputs": [
  {
    "Name": "(Unnamed Layer* 0) [Constant]_output_clone_15",
    "Location": "Device",
    "Dimensions": [4,4],
    "Format/Datatype": "Row major linear FP32"
  }],
  "Outputs": [
  {
    "Name": "/synthesis/b8/conv0/Slice_2_output_0",
    "Location": "Device",
    "Dimensions": [4,4],
    "Format/Datatype": "Row major linear FP32"
  }],
  "ParameterType": "Slice",
  "Start": [3,3],
  "Size": [4,4],
  "Stride": [-1,-1],
  "Mode": "kSTRICT_BOUNDS",
  "negativeInfinityPadding": 0,
  "TacticValue": "0x0000000000000000"
},{
  "Name": "/mapping/Mul",
  "LayerType": "ElementWise",
  "Inputs": [
  {
    "Name": "/mapping/Cast_output_0",
    "Location": "Device",
    "Dimensions": [1,512],
    "Format/Datatype": "Row major linear FP32"
  },
  {
    "Name": "/mapping/Cast_output_0",
    "Location": "Device",
    "Dimensions": [1,512],
    "Format/Datatype": "Row major linear FP32"
  }],
  "Outputs": [
  {
    "Name": "/mapping/Mul_output_0",
    "Location": "Device",
    "Dimensions": [1,512],
    "Format/Datatype": "Row major linear FP32"
  }],
  "ParameterType": "ElementWise",
  "ElementWiseOperation": "PROD",
  "Activation": "NONE",
  "TacticValue": "0x0000000000000001"
},{
  "Name": "/synthesis/b1024/Slice_2",
  "LayerType": "Slice",
  "Inputs": [
  {
    "Name": "onnx::Slice_4364",
    "Location": "Device",
    "Dimensions": [4,4],
    "Format/Datatype": "Row major linear FP32"
  }],
  "Outputs": [
  {
    "Name": "/synthesis/b1024/Slice_2_output_0",
    "Location": "Device",
    "Dimensions": [4,4],
    "Format/Datatype": "Row major linear FP32"
  }],
  "ParameterType": "Slice",
  "Start": [3,3],
  "Size": [4,4],
  "Stride": [-1,-1],
  "Mode": "kSTRICT_BOUNDS",
  "negativeInfinityPadding": 0,
  "TacticValue": "0x0000000000000000"
},{
  "Name": "/synthesis/b1024/conv0/Slice_2",
  "LayerType": "Slice",
  "Inputs": [
  {
    "Name": "onnx::Slice_4293",
    "Location": "Device",
    "Dimensions": [4,4],
    "Format/Datatype": "Row major linear FP16 format"
  }],
  "Outputs": [
  {
    "Name": "/synthesis/b1024/conv0/Slice_2_output_0",
    "Location": "Device",
    "Dimensions": [4,4],
    "Format/Datatype": "Row major linear FP16 format"
  }],
  "ParameterType": "Slice",
  "Start": [3,3],
  "Size": [4,4],
  "Stride": [-1,-1],
  "Mode": "kSTRICT_BOUNDS",
  "negativeInfinityPadding": 0,
  "TacticValue": "0x0000000000000000"
},{
  "Name": "/synthesis/b512/Slice_2",
  "LayerType": "Slice",
  "Inputs": [
  {
    "Name": "onnx::Slice_4208",
    "Location": "Device",
    "Dimensions": [4,4],
    "Format/Datatype": "Row major linear FP32"
  }],
  "Outputs": [
  {
    "Name": "/synthesis/b512/Slice_2_output_0",
    "Location": "Device",
    "Dimensions": [4,4],
    "Format/Datatype": "Row major linear FP32"
  }],
  "ParameterType": "Slice",
  "Start": [3,3],
  "Size": [4,4],
  "Stride": [-1,-1],
  "Mode": "kSTRICT_BOUNDS",
  "negativeInfinityPadding": 0,
  "TacticValue": "0x0000000000000000"
},{
  "Name": "/synthesis/b512/conv0/Slice_2",
  "LayerType": "Slice",
  "Inputs": [
  {
    "Name": "onnx::Slice_4137",
    "Location": "Device",
    "Dimensions": [4,4],
    "Format/Datatype": "Row major linear FP16 format"
  }],
  "Outputs": [
  {
    "Name": "/synthesis/b512/conv0/Slice_2_output_0",
    "Location": "Device",
    "Dimensions": [4,4],
    "Format/Datatype": "Row major linear FP16 format"
  }],
  "ParameterType": "Slice",
  "Start": [3,3],
  "Size": [4,4],
  "Stride": [-1,-1],
  "Mode": "kSTRICT_BOUNDS",
  "negativeInfinityPadding": 0,
  "TacticValue": "0x0000000000000000"
},{
  "Name": "/synthesis/b256/Slice_2",
  "LayerType": "Slice",
  "Inputs": [
  {
    "Name": "onnx::Slice_4052",
    "Location": "Device",
    "Dimensions": [4,4],
    "Format/Datatype": "Row major linear FP32"
  }],
  "Outputs": [
  {
    "Name": "/synthesis/b256/Slice_2_output_0",
    "Location": "Device",
    "Dimensions": [4,4],
    "Format/Datatype": "Row major linear FP32"
  }],
  "ParameterType": "Slice",
  "Start": [3,3],
  "Size": [4,4],
  "Stride": [-1,-1],
  "Mode": "kSTRICT_BOUNDS",
  "negativeInfinityPadding": 0,
  "TacticValue": "0x0000000000000000"
},{
  "Name": "/synthesis/b256/conv0/Slice_2",
  "LayerType": "Slice",
  "Inputs": [
  {
    "Name": "onnx::Slice_3981",
    "Location": "Device",
    "Dimensions": [4,4],
    "Format/Datatype": "Row major linear FP16 format"
  }],
  "Outputs": [
  {
    "Name": "/synthesis/b256/conv0/Slice_2_output_0",
    "Location": "Device",
    "Dimensions": [4,4],
    "Format/Datatype": "Row major linear FP16 format"
  }],
  "ParameterType": "Slice",
  "Start": [3,3],
  "Size": [4,4],
  "Stride": [-1,-1],
  "Mode": "kSTRICT_BOUNDS",
  "negativeInfinityPadding": 0,
  "TacticValue": "0x0000000000000000"
},{
  "Name": "/synthesis/b128/Slice_2",
  "LayerType": "Slice",
  "Inputs": [
  {
    "Name": "onnx::Slice_3896",
    "Location": "Device",
    "Dimensions": [4,4],
    "Format/Datatype": "Row major linear FP32"
  }],
  "Outputs": [
  {
    "Name": "/synthesis/b128/Slice_2_output_0",
    "Location": "Device",
    "Dimensions": [4,4],
    "Format/Datatype": "Row major linear FP32"
  }],
  "ParameterType": "Slice",
  "Start": [3,3],
  "Size": [4,4],
  "Stride": [-1,-1],
  "Mode": "kSTRICT_BOUNDS",
  "negativeInfinityPadding": 0,
  "TacticValue": "0x0000000000000000"
},{
  "Name": "/synthesis/b128/conv0/Slice_2",
  "LayerType": "Slice",
  "Inputs": [
  {
    "Name": "onnx::Slice_3825",
    "Location": "Device",
    "Dimensions": [4,4],
    "Format/Datatype": "Row major linear FP16 format"
  }],
  "Outputs": [
  {
    "Name": "/synthesis/b128/conv0/Slice_2_output_0",
    "Location": "Device",
    "Dimensions": [4,4],
    "Format/Datatype": "Row major linear FP16 format"
  }],
  "ParameterType": "Slice",
  "Start": [3,3],
  "Size": [4,4],
  "Stride": [-1,-1],
  "Mode": "kSTRICT_BOUNDS",
  "negativeInfinityPadding": 0,
  "TacticValue": "0x0000000000000000"
},{
  "Name": "/synthesis/b64/Slice_2",
  "LayerType": "Slice",
  "Inputs": [
  {
    "Name": "onnx::Slice_3740",
    "Location": "Device",
    "Dimensions": [4,4],
    "Format/Datatype": "Row major linear FP32"
  }],
  "Outputs": [
  {
    "Name": "/synthesis/b64/Slice_2_output_0",
    "Location": "Device",
    "Dimensions": [4,4],
    "Format/Datatype": "Row major linear FP32"
  }],
  "ParameterType": "Slice",
  "Start": [3,3],
  "Size": [4,4],
  "Stride": [-1,-1],
  "Mode": "kSTRICT_BOUNDS",
  "negativeInfinityPadding": 0,
  "TacticValue": "0x0000000000000000"
},{
  "Name": "/synthesis/b64/conv0/Slice_2",
  "LayerType": "Slice",
  "Inputs": [
  {
    "Name": "onnx::Slice_3669",
    "Location": "Device",
    "Dimensions": [4,4],
    "Format/Datatype": "Row major linear FP16 format"
  }],
  "Outputs": [
  {
    "Name": "/synthesis/b64/conv0/Slice_2_output_0",
    "Location": "Device",
    "Dimensions": [4,4],
    "Format/Datatype": "Row major linear FP16 format"
  }],
  "ParameterType": "Slice",
  "Start": [3,3],
  "Size": [4,4],
  "Stride": [-1,-1],
  "Mode": "kSTRICT_BOUNDS",
  "negativeInfinityPadding": 0,
  "TacticValue": "0x0000000000000000"
},{
  "Name": "/synthesis/b32/Slice_2",
  "LayerType": "Slice",
  "Inputs": [
  {
    "Name": "onnx::Slice_3584",
    "Location": "Device",
    "Dimensions": [4,4],
    "Format/Datatype": "Row major linear FP32"
  }],
  "Outputs": [
  {
    "Name": "/synthesis/b32/Slice_2_output_0",
    "Location": "Device",
    "Dimensions": [4,4],
    "Format/Datatype": "Row major linear FP32"
  }],
  "ParameterType": "Slice",
  "Start": [3,3],
  "Size": [4,4],
  "Stride": [-1,-1],
  "Mode": "kSTRICT_BOUNDS",
  "negativeInfinityPadding": 0,
  "TacticValue": "0x0000000000000000"
},{
  "Name": "/synthesis/b32/conv0/Slice_2",
  "LayerType": "Slice",
  "Inputs": [
  {
    "Name": "onnx::Slice_3513",
    "Location": "Device",
    "Dimensions": [4,4],
    "Format/Datatype": "Row major linear FP32"
  }],
  "Outputs": [
  {
    "Name": "/synthesis/b32/conv0/Slice_2_output_0",
    "Location": "Device",
    "Dimensions": [4,4],
    "Format/Datatype": "Row major linear FP32"
  }],
  "ParameterType": "Slice",
  "Start": [3,3],
  "Size": [4,4],
  "Stride": [-1,-1],
  "Mode": "kSTRICT_BOUNDS",
  "negativeInfinityPadding": 0,
  "TacticValue": "0x0000000000000000"
},{
  "Name": "/synthesis/b16/Slice_2",
  "LayerType": "Slice",
  "Inputs": [
  {
    "Name": "onnx::Slice_3428",
    "Location": "Device",
    "Dimensions": [4,4],
    "Format/Datatype": "Row major linear FP32"
  }],
  "Outputs": [
  {
    "Name": "/synthesis/b16/Slice_2_output_0",
    "Location": "Device",
    "Dimensions": [4,4],
    "Format/Datatype": "Row major linear FP32"
  }],
  "ParameterType": "Slice",
  "Start": [3,3],
  "Size": [4,4],
  "Stride": [-1,-1],
  "Mode": "kSTRICT_BOUNDS",
  "negativeInfinityPadding": 0,
  "TacticValue": "0x0000000000000000"
},{
  "Name": "/synthesis/b16/conv0/Slice_2",
  "LayerType": "Slice",
  "Inputs": [
  {
    "Name": "onnx::Slice_3357",
    "Location": "Device",
    "Dimensions": [4,4],
    "Format/Datatype": "Row major linear FP32"
  }],
  "Outputs": [
  {
    "Name": "/synthesis/b16/conv0/Slice_2_output_0",
    "Location": "Device",
    "Dimensions": [4,4],
    "Format/Datatype": "Row major linear FP32"
  }],
  "ParameterType": "Slice",
  "Start": [3,3],
  "Size": [4,4],
  "Stride": [-1,-1],
  "Mode": "kSTRICT_BOUNDS",
  "negativeInfinityPadding": 0,
  "TacticValue": "0x0000000000000000"
},{
  "Name": "/synthesis/b8/Slice_2",
  "LayerType": "Slice",
  "Inputs": [
  {
    "Name": "onnx::Slice_3272",
    "Location": "Device",
    "Dimensions": [4,4],
    "Format/Datatype": "Row major linear FP32"
  }],
  "Outputs": [
  {
    "Name": "/synthesis/b8/Slice_2_output_0",
    "Location": "Device",
    "Dimensions": [4,4],
    "Format/Datatype": "Row major linear FP32"
  }],
  "ParameterType": "Slice",
  "Start": [3,3],
  "Size": [4,4],
  "Stride": [-1,-1],
  "Mode": "kSTRICT_BOUNDS",
  "negativeInfinityPadding": 0,
  "TacticValue": "0x0000000000000000"
},{
  "Name": "/mapping/ReduceMean",
  "LayerType": "Reduce",
  "Inputs": [
  {
    "Name": "/mapping/Mul_output_0",
    "Location": "Device",
    "Dimensions": [1,512],
    "Format/Datatype": "Row major linear FP32"
  }],
  "Outputs": [
  {
    "Name": "/mapping/ReduceMean_output_0",
    "Location": "Device",
    "Dimensions": [1,1],
    "Format/Datatype": "Row major linear FP32"
  }],
  "ParameterType": "Reduce",
  "Operation": "AVG",
  "ReduceAxes": [0,1],
  "KeepDimensions": 1,
  "TacticValue": "0x0000000000000001"
},{
  "Name": "/synthesis/b8/conv0/Unsqueeze + /synthesis/b8/conv0/Unsqueeze_1",
  "LayerType": "NoOp",
  "Inputs": [
  {
    "Name": "/synthesis/b8/conv0/Slice_2_output_0",
    "Location": "Device",
    "Dimensions": [4,4],
    "Format/Datatype": "Row major linear FP32"
  }],
  "Outputs": [
  {
    "Name": "/synthesis/b8/conv0/Unsqueeze_1_output_0",
    "Location": "Device",
    "Dimensions": [1,1,4,4],
    "Format/Datatype": "Row major linear FP32"
  }],
  "TacticValue": "0x0000000000000000"
},{
  "Name": "/synthesis/b1024/Unsqueeze + /synthesis/b1024/Unsqueeze_1",
  "LayerType": "NoOp",
  "Inputs": [
  {
    "Name": "/synthesis/b1024/Slice_2_output_0",
    "Location": "Device",
    "Dimensions": [4,4],
    "Format/Datatype": "Row major linear FP32"
  }],
  "Outputs": [
  {
    "Name": "/synthesis/b1024/Unsqueeze_1_output_0",
    "Location": "Device",
    "Dimensions": [1,1,4,4],
    "Format/Datatype": "Row major linear FP32"
  }],
  "TacticValue": "0x0000000000000000"
},{
  "Name": "/synthesis/b1024/conv0/Unsqueeze + /synthesis/b1024/conv0/Unsqueeze_1",
  "LayerType": "NoOp",
  "Inputs": [
  {
    "Name": "/synthesis/b1024/conv0/Slice_2_output_0",
    "Location": "Device",
    "Dimensions": [4,4],
    "Format/Datatype": "Row major linear FP16 format"
  }],
  "Outputs": [
  {
    "Name": "/synthesis/b1024/conv0/Unsqueeze_1_output_0",
    "Location": "Device",
    "Dimensions": [1,1,4,4],
    "Format/Datatype": "Row major linear FP16 format"
  }],
  "TacticValue": "0x0000000000000000"
},{
  "Name": "/synthesis/b512/Unsqueeze + /synthesis/b512/Unsqueeze_1",
  "LayerType": "NoOp",
  "Inputs": [
  {
    "Name": "/synthesis/b512/Slice_2_output_0",
    "Location": "Device",
    "Dimensions": [4,4],
    "Format/Datatype": "Row major linear FP32"
  }],
  "Outputs": [
  {
    "Name": "/synthesis/b512/Unsqueeze_1_output_0",
    "Location": "Device",
    "Dimensions": [1,1,4,4],
    "Format/Datatype": "Row major linear FP32"
  }],
  "TacticValue": "0x0000000000000000"
},{
  "Name": "/synthesis/b512/conv0/Unsqueeze + /synthesis/b512/conv0/Unsqueeze_1",
  "LayerType": "NoOp",
  "Inputs": [
  {
    "Name": "/synthesis/b512/conv0/Slice_2_output_0",
    "Location": "Device",
    "Dimensions": [4,4],
    "Format/Datatype": "Row major linear FP16 format"
  }],
  "Outputs": [
  {
    "Name": "/synthesis/b512/conv0/Unsqueeze_1_output_0",
    "Location": "Device",
    "Dimensions": [1,1,4,4],
    "Format/Datatype": "Row major linear FP16 format"
  }],
  "TacticValue": "0x0000000000000000"
},{
  "Name": "/synthesis/b256/Unsqueeze + /synthesis/b256/Unsqueeze_1",
  "LayerType": "NoOp",
  "Inputs": [
  {
    "Name": "/synthesis/b256/Slice_2_output_0",
    "Location": "Device",
    "Dimensions": [4,4],
    "Format/Datatype": "Row major linear FP32"
  }],
  "Outputs": [
  {
    "Name": "/synthesis/b256/Unsqueeze_1_output_0",
    "Location": "Device",
    "Dimensions": [1,1,4,4],
    "Format/Datatype": "Row major linear FP32"
  }],
  "TacticValue": "0x0000000000000000"
},{
  "Name": "/synthesis/b256/conv0/Unsqueeze + /synthesis/b256/conv0/Unsqueeze_1",
  "LayerType": "NoOp",
  "Inputs": [
  {
    "Name": "/synthesis/b256/conv0/Slice_2_output_0",
    "Location": "Device",
    "Dimensions": [4,4],
    "Format/Datatype": "Row major linear FP16 format"
  }],
  "Outputs": [
  {
    "Name": "/synthesis/b256/conv0/Unsqueeze_1_output_0",
    "Location": "Device",
    "Dimensions": [1,1,4,4],
    "Format/Datatype": "Row major linear FP16 format"
  }],
  "TacticValue": "0x0000000000000000"
},{
  "Name": "/synthesis/b128/Unsqueeze + /synthesis/b128/Unsqueeze_1",
  "LayerType": "NoOp",
  "Inputs": [
  {
    "Name": "/synthesis/b128/Slice_2_output_0",
    "Location": "Device",
    "Dimensions": [4,4],
    "Format/Datatype": "Row major linear FP32"
  }],
  "Outputs": [
  {
    "Name": "/synthesis/b128/Unsqueeze_1_output_0",
    "Location": "Device",
    "Dimensions": [1,1,4,4],
    "Format/Datatype": "Row major linear FP32"
  }],
  "TacticValue": "0x0000000000000000"
},{
  "Name": "/synthesis/b128/conv0/Unsqueeze + /synthesis/b128/conv0/Unsqueeze_1",
  "LayerType": "NoOp",
  "Inputs": [
  {
    "Name": "/synthesis/b128/conv0/Slice_2_output_0",
    "Location": "Device",
    "Dimensions": [4,4],
    "Format/Datatype": "Row major linear FP16 format"
  }],
  "Outputs": [
  {
    "Name": "/synthesis/b128/conv0/Unsqueeze_1_output_0",
    "Location": "Device",
    "Dimensions": [1,1,4,4],
    "Format/Datatype": "Row major linear FP16 format"
  }],
  "TacticValue": "0x0000000000000000"
},{
  "Name": "/synthesis/b64/Unsqueeze + /synthesis/b64/Unsqueeze_1",
  "LayerType": "NoOp",
  "Inputs": [
  {
    "Name": "/synthesis/b64/Slice_2_output_0",
    "Location": "Device",
    "Dimensions": [4,4],
    "Format/Datatype": "Row major linear FP32"
  }],
  "Outputs": [
  {
    "Name": "/synthesis/b64/Unsqueeze_1_output_0",
    "Location": "Device",
    "Dimensions": [1,1,4,4],
    "Format/Datatype": "Row major linear FP32"
  }],
  "TacticValue": "0x0000000000000000"
},{
  "Name": "/synthesis/b64/conv0/Unsqueeze + /synthesis/b64/conv0/Unsqueeze_1",
  "LayerType": "NoOp",
  "Inputs": [
  {
    "Name": "/synthesis/b64/conv0/Slice_2_output_0",
    "Location": "Device",
    "Dimensions": [4,4],
    "Format/Datatype": "Row major linear FP16 format"
  }],
  "Outputs": [
  {
    "Name": "/synthesis/b64/conv0/Unsqueeze_1_output_0",
    "Location": "Device",
    "Dimensions": [1,1,4,4],
    "Format/Datatype": "Row major linear FP16 format"
  }],
  "TacticValue": "0x0000000000000000"
},{
  "Name": "/synthesis/b32/Unsqueeze + /synthesis/b32/Unsqueeze_1",
  "LayerType": "NoOp",
  "Inputs": [
  {
    "Name": "/synthesis/b32/Slice_2_output_0",
    "Location": "Device",
    "Dimensions": [4,4],
    "Format/Datatype": "Row major linear FP32"
  }],
  "Outputs": [
  {
    "Name": "/synthesis/b32/Unsqueeze_1_output_0",
    "Location": "Device",
    "Dimensions": [1,1,4,4],
    "Format/Datatype": "Row major linear FP32"
  }],
  "TacticValue": "0x0000000000000000"
},{
  "Name": "/synthesis/b32/conv0/Unsqueeze + /synthesis/b32/conv0/Unsqueeze_1",
  "LayerType": "NoOp",
  "Inputs": [
  {
    "Name": "/synthesis/b32/conv0/Slice_2_output_0",
    "Location": "Device",
    "Dimensions": [4,4],
    "Format/Datatype": "Row major linear FP32"
  }],
  "Outputs": [
  {
    "Name": "/synthesis/b32/conv0/Unsqueeze_1_output_0",
    "Location": "Device",
    "Dimensions": [1,1,4,4],
    "Format/Datatype": "Row major linear FP32"
  }],
  "TacticValue": "0x0000000000000000"
},{
  "Name": "/synthesis/b16/Unsqueeze + /synthesis/b16/Unsqueeze_1",
  "LayerType": "NoOp",
  "Inputs": [
  {
    "Name": "/synthesis/b16/Slice_2_output_0",
    "Location": "Device",
    "Dimensions": [4,4],
    "Format/Datatype": "Row major linear FP32"
  }],
  "Outputs": [
  {
    "Name": "/synthesis/b16/Unsqueeze_1_output_0",
    "Location": "Device",
    "Dimensions": [1,1,4,4],
    "Format/Datatype": "Row major linear FP32"
  }],
  "TacticValue": "0x0000000000000000"
},{
  "Name": "/synthesis/b16/conv0/Unsqueeze + /synthesis/b16/conv0/Unsqueeze_1",
  "LayerType": "NoOp",
  "Inputs": [
  {
    "Name": "/synthesis/b16/conv0/Slice_2_output_0",
    "Location": "Device",
    "Dimensions": [4,4],
    "Format/Datatype": "Row major linear FP32"
  }],
  "Outputs": [
  {
    "Name": "/synthesis/b16/conv0/Unsqueeze_1_output_0",
    "Location": "Device",
    "Dimensions": [1,1,4,4],
    "Format/Datatype": "Row major linear FP32"
  }],
  "TacticValue": "0x0000000000000000"
},{
  "Name": "/synthesis/b8/Unsqueeze + /synthesis/b8/Unsqueeze_1",
  "LayerType": "NoOp",
  "Inputs": [
  {
    "Name": "/synthesis/b8/Slice_2_output_0",
    "Location": "Device",
    "Dimensions": [4,4],
    "Format/Datatype": "Row major linear FP32"
  }],
  "Outputs": [
  {
    "Name": "/synthesis/b8/Unsqueeze_1_output_0",
    "Location": "Device",
    "Dimensions": [1,1,4,4],
    "Format/Datatype": "Row major linear FP32"
  }],
  "TacticValue": "0x0000000000000000"
},{
  "Name": "/synthesis/b4/Expand",
  "LayerType": "Slice",
  "Inputs": [
  {
    "Name": "(Unnamed Layer* 124) [Constant]_output",
    "Location": "Device",
    "Dimensions": [1,512,4,4],
    "Format/Datatype": "Row major linear FP32"
  }],
  "Outputs": [
  {
    "Name": "/synthesis/b4/Expand_output_0",
    "Location": "Device",
    "Dimensions": [1,512,4,4],
    "Format/Datatype": "Row major linear FP32"
  }],
  "ParameterType": "Slice",
  "Start": [0,0,0,0],
  "Size": [1,512,4,4],
  "Stride": [0,1,1,1],
  "Mode": "kSTRICT_BOUNDS",
  "negativeInfinityPadding": 0,
  "TacticValue": "0x0000000000000000"
},{
  "Name": "/synthesis/b8/conv0/Expand",
  "LayerType": "Slice",
  "Inputs": [
  {
    "Name": "/synthesis/b8/conv0/Unsqueeze_1_output_0",
    "Location": "Device",
    "Dimensions": [1,1,4,4],
    "Format/Datatype": "Row major linear FP32"
  }],
  "Outputs": [
  {
    "Name": "/synthesis/b8/conv0/Expand_output_0",
    "Location": "Device",
    "Dimensions": [1,1,4,4],
    "Format/Datatype": "Row major linear FP32"
  }],
  "ParameterType": "Slice",
  "Start": [0,0,0,0],
  "Size": [1,1,4,4],
  "Stride": [0,0,1,1],
  "Mode": "kSTRICT_BOUNDS",
  "negativeInfinityPadding": 0,
  "TacticValue": "0x0000000000000000"
},{
  "Name": "/synthesis/b8/Expand",
  "LayerType": "Slice",
  "Inputs": [
  {
    "Name": "/synthesis/b8/Unsqueeze_1_output_0",
    "Location": "Device",
    "Dimensions": [1,1,4,4],
    "Format/Datatype": "Row major linear FP32"
  }],
  "Outputs": [
  {
    "Name": "/synthesis/b8/Expand_output_0",
    "Location": "Device",
    "Dimensions": [1,1,4,4],
    "Format/Datatype": "Row major linear FP32"
  }],
  "ParameterType": "Slice",
  "Start": [0,0,0,0],
  "Size": [1,1,4,4],
  "Stride": [0,0,1,1],
  "Mode": "kSTRICT_BOUNDS",
  "negativeInfinityPadding": 0,
  "TacticValue": "0x0000000000000000"
},{
  "Name": "/synthesis/b16/conv0/Expand",
  "LayerType": "Slice",
  "Inputs": [
  {
    "Name": "/synthesis/b16/conv0/Unsqueeze_1_output_0",
    "Location": "Device",
    "Dimensions": [1,1,4,4],
    "Format/Datatype": "Row major linear FP32"
  }],
  "Outputs": [
  {
    "Name": "/synthesis/b16/conv0/Expand_output_0",
    "Location": "Device",
    "Dimensions": [1,1,4,4],
    "Format/Datatype": "Row major linear FP32"
  }],
  "ParameterType": "Slice",
  "Start": [0,0,0,0],
  "Size": [1,1,4,4],
  "Stride": [0,0,1,1],
  "Mode": "kSTRICT_BOUNDS",
  "negativeInfinityPadding": 0,
  "TacticValue": "0x0000000000000000"
},{
  "Name": "/synthesis/b16/Expand",
  "LayerType": "Slice",
  "Inputs": [
  {
    "Name": "/synthesis/b16/Unsqueeze_1_output_0",
    "Location": "Device",
    "Dimensions": [1,1,4,4],
    "Format/Datatype": "Row major linear FP32"
  }],
  "Outputs": [
  {
    "Name": "/synthesis/b16/Expand_output_0",
    "Location": "Device",
    "Dimensions": [1,1,4,4],
    "Format/Datatype": "Row major linear FP32"
  }],
  "ParameterType": "Slice",
  "Start": [0,0,0,0],
  "Size": [1,1,4,4],
  "Stride": [0,0,1,1],
  "Mode": "kSTRICT_BOUNDS",
  "negativeInfinityPadding": 0,
  "TacticValue": "0x0000000000000000"
},{
  "Name": "/synthesis/b32/conv0/Expand",
  "LayerType": "Slice",
  "Inputs": [
  {
    "Name": "/synthesis/b32/conv0/Unsqueeze_1_output_0",
    "Location": "Device",
    "Dimensions": [1,1,4,4],
    "Format/Datatype": "Row major linear FP32"
  }],
  "Outputs": [
  {
    "Name": "/synthesis/b32/conv0/Expand_output_0",
    "Location": "Device",
    "Dimensions": [1,1,4,4],
    "Format/Datatype": "Row major linear FP32"
  }],
  "ParameterType": "Slice",
  "Start": [0,0,0,0],
  "Size": [1,1,4,4],
  "Stride": [0,0,1,1],
  "Mode": "kSTRICT_BOUNDS",
  "negativeInfinityPadding": 0,
  "TacticValue": "0x0000000000000000"
},{
  "Name": "/synthesis/b32/Expand",
  "LayerType": "Slice",
  "Inputs": [
  {
    "Name": "/synthesis/b32/Unsqueeze_1_output_0",
    "Location": "Device",
    "Dimensions": [1,1,4,4],
    "Format/Datatype": "Row major linear FP32"
  }],
  "Outputs": [
  {
    "Name": "/synthesis/b32/Expand_output_0",
    "Location": "Device",
    "Dimensions": [1,1,4,4],
    "Format/Datatype": "Row major linear FP32"
  }],
  "ParameterType": "Slice",
  "Start": [0,0,0,0],
  "Size": [1,1,4,4],
  "Stride": [0,0,1,1],
  "Mode": "kSTRICT_BOUNDS",
  "negativeInfinityPadding": 0,
  "TacticValue": "0x0000000000000000"
},{
  "Name": "/synthesis/b64/conv0/Expand",
  "LayerType": "Slice",
  "Inputs": [
  {
    "Name": "/synthesis/b64/conv0/Unsqueeze_1_output_0",
    "Location": "Device",
    "Dimensions": [1,1,4,4],
    "Format/Datatype": "Row major linear FP16 format"
  }],
  "Outputs": [
  {
    "Name": "/synthesis/b64/conv0/Expand_output_0",
    "Location": "Device",
    "Dimensions": [1,1,4,4],
    "Format/Datatype": "Row major linear FP16 format"
  }],
  "ParameterType": "Slice",
  "Start": [0,0,0,0],
  "Size": [1,1,4,4],
  "Stride": [0,0,1,1],
  "Mode": "kSTRICT_BOUNDS",
  "negativeInfinityPadding": 0,
  "TacticValue": "0x0000000000000000"
},{
  "Name": "/synthesis/b64/Expand",
  "LayerType": "Slice",
  "Inputs": [
  {
    "Name": "/synthesis/b64/Unsqueeze_1_output_0",
    "Location": "Device",
    "Dimensions": [1,1,4,4],
    "Format/Datatype": "Row major linear FP32"
  }],
  "Outputs": [
  {
    "Name": "/synthesis/b64/Expand_output_0",
    "Location": "Device",
    "Dimensions": [1,1,4,4],
    "Format/Datatype": "Row major linear FP32"
  }],
  "ParameterType": "Slice",
  "Start": [0,0,0,0],
  "Size": [1,1,4,4],
  "Stride": [0,0,1,1],
  "Mode": "kSTRICT_BOUNDS",
  "negativeInfinityPadding": 0,
  "TacticValue": "0x0000000000000000"
},{
  "Name": "/synthesis/b128/conv0/Expand",
  "LayerType": "Slice",
  "Inputs": [
  {
    "Name": "/synthesis/b128/conv0/Unsqueeze_1_output_0",
    "Location": "Device",
    "Dimensions": [1,1,4,4],
    "Format/Datatype": "Row major linear FP16 format"
  }],
  "Outputs": [
  {
    "Name": "/synthesis/b128/conv0/Expand_output_0",
    "Location": "Device",
    "Dimensions": [1,1,4,4],
    "Format/Datatype": "Row major linear FP16 format"
  }],
  "ParameterType": "Slice",
  "Start": [0,0,0,0],
  "Size": [1,1,4,4],
  "Stride": [0,0,1,1],
  "Mode": "kSTRICT_BOUNDS",
  "negativeInfinityPadding": 0,
  "TacticValue": "0x0000000000000000"
},{
  "Name": "/synthesis/b128/Expand",
  "LayerType": "Slice",
  "Inputs": [
  {
    "Name": "/synthesis/b128/Unsqueeze_1_output_0",
    "Location": "Device",
    "Dimensions": [1,1,4,4],
    "Format/Datatype": "Row major linear FP32"
  }],
  "Outputs": [
  {
    "Name": "/synthesis/b128/Expand_output_0",
    "Location": "Device",
    "Dimensions": [1,1,4,4],
    "Format/Datatype": "Row major linear FP32"
  }],
  "ParameterType": "Slice",
  "Start": [0,0,0,0],
  "Size": [1,1,4,4],
  "Stride": [0,0,1,1],
  "Mode": "kSTRICT_BOUNDS",
  "negativeInfinityPadding": 0,
  "TacticValue": "0x0000000000000000"
},{
  "Name": "/synthesis/b256/conv0/Expand",
  "LayerType": "Slice",
  "Inputs": [
  {
    "Name": "/synthesis/b256/conv0/Unsqueeze_1_output_0",
    "Location": "Device",
    "Dimensions": [1,1,4,4],
    "Format/Datatype": "Row major linear FP16 format"
  }],
  "Outputs": [
  {
    "Name": "/synthesis/b256/conv0/Expand_output_0",
    "Location": "Device",
    "Dimensions": [1,1,4,4],
    "Format/Datatype": "Row major linear FP16 format"
  }],
  "ParameterType": "Slice",
  "Start": [0,0,0,0],
  "Size": [1,1,4,4],
  "Stride": [0,0,1,1],
  "Mode": "kSTRICT_BOUNDS",
  "negativeInfinityPadding": 0,
  "TacticValue": "0x0000000000000000"
},{
  "Name": "/synthesis/b256/Expand",
  "LayerType": "Slice",
  "Inputs": [
  {
    "Name": "/synthesis/b256/Unsqueeze_1_output_0",
    "Location": "Device",
    "Dimensions": [1,1,4,4],
    "Format/Datatype": "Row major linear FP32"
  }],
  "Outputs": [
  {
    "Name": "/synthesis/b256/Expand_output_0",
    "Location": "Device",
    "Dimensions": [1,1,4,4],
    "Format/Datatype": "Row major linear FP32"
  }],
  "ParameterType": "Slice",
  "Start": [0,0,0,0],
  "Size": [1,1,4,4],
  "Stride": [0,0,1,1],
  "Mode": "kSTRICT_BOUNDS",
  "negativeInfinityPadding": 0,
  "TacticValue": "0x0000000000000000"
},{
  "Name": "/synthesis/b512/conv0/Expand",
  "LayerType": "Slice",
  "Inputs": [
  {
    "Name": "/synthesis/b512/conv0/Unsqueeze_1_output_0",
    "Location": "Device",
    "Dimensions": [1,1,4,4],
    "Format/Datatype": "Row major linear FP16 format"
  }],
  "Outputs": [
  {
    "Name": "/synthesis/b512/conv0/Expand_output_0",
    "Location": "Device",
    "Dimensions": [1,1,4,4],
    "Format/Datatype": "Row major linear FP16 format"
  }],
  "ParameterType": "Slice",
  "Start": [0,0,0,0],
  "Size": [1,1,4,4],
  "Stride": [0,0,1,1],
  "Mode": "kSTRICT_BOUNDS",
  "negativeInfinityPadding": 0,
  "TacticValue": "0x0000000000000000"
},{
  "Name": "/synthesis/b512/Expand",
  "LayerType": "Slice",
  "Inputs": [
  {
    "Name": "/synthesis/b512/Unsqueeze_1_output_0",
    "Location": "Device",
    "Dimensions": [1,1,4,4],
    "Format/Datatype": "Row major linear FP32"
  }],
  "Outputs": [
  {
    "Name": "/synthesis/b512/Expand_output_0",
    "Location": "Device",
    "Dimensions": [1,1,4,4],
    "Format/Datatype": "Row major linear FP32"
  }],
  "ParameterType": "Slice",
  "Start": [0,0,0,0],
  "Size": [1,1,4,4],
  "Stride": [0,0,1,1],
  "Mode": "kSTRICT_BOUNDS",
  "negativeInfinityPadding": 0,
  "TacticValue": "0x0000000000000000"
},{
  "Name": "/synthesis/b1024/conv0/Expand",
  "LayerType": "Slice",
  "Inputs": [
  {
    "Name": "/synthesis/b1024/conv0/Unsqueeze_1_output_0",
    "Location": "Device",
    "Dimensions": [1,1,4,4],
    "Format/Datatype": "Row major linear FP16 format"
  }],
  "Outputs": [
  {
    "Name": "/synthesis/b1024/conv0/Expand_output_0",
    "Location": "Device",
    "Dimensions": [1,1,4,4],
    "Format/Datatype": "Row major linear FP16 format"
  }],
  "ParameterType": "Slice",
  "Start": [0,0,0,0],
  "Size": [1,1,4,4],
  "Stride": [0,0,1,1],
  "Mode": "kSTRICT_BOUNDS",
  "negativeInfinityPadding": 0,
  "TacticValue": "0x0000000000000000"
},{
  "Name": "/synthesis/b1024/Expand",
  "LayerType": "Slice",
  "Inputs": [
  {
    "Name": "/synthesis/b1024/Unsqueeze_1_output_0",
    "Location": "Device",
    "Dimensions": [1,1,4,4],
    "Format/Datatype": "Row major linear FP32"
  }],
  "Outputs": [
  {
    "Name": "/synthesis/b1024/Expand_output_0",
    "Location": "Device",
    "Dimensions": [1,1,4,4],
    "Format/Datatype": "Row major linear FP32"
  }],
  "ParameterType": "Slice",
  "Start": [0,0,0,0],
  "Size": [1,1,4,4],
  "Stride": [0,0,1,1],
  "Mode": "kSTRICT_BOUNDS",
  "negativeInfinityPadding": 0,
  "TacticValue": "0x0000000000000000"
},{
  "Name": "PWN(PWN(PWN(PWN(/mapping/Constant_output_0 + (Unnamed Layer* 20) [Shuffle], /mapping/Add), /mapping/Sqrt), PWN(/mapping/Constant_1_output_0 + (Unnamed Layer* 24) [Shuffle], /mapping/Div)), /mapping/Mul_1)",
  "LayerType": "PointWiseV2",
  "Inputs": [
  {
    "Name": "/mapping/ReduceMean_output_0",
    "Location": "Device",
    "Dimensions": [1,1],
    "Format/Datatype": "Row major linear FP32"
  },
  {
    "Name": "/mapping/Cast_output_0",
    "Location": "Device",
    "Dimensions": [1,512],
    "Format/Datatype": "Row major linear FP32"
  }],
  "Outputs": [
  {
    "Name": "/mapping/Mul_1_output_0",
    "Location": "Device",
    "Dimensions": [1,512],
    "Format/Datatype": "Row major linear FP32"
  }],
  "ParameterType": "PointWise",
  "ParameterSubType": "PointWiseExpression",
  "NbInputArgs": 2,
  "InputArgs": ["arg0", "arg1"],
  "NbOutputVars": 1,
  "OutputVars": ["var3"],
  "NbParams": 0,
  "Params": [],
  "NbLiterals": 2,
  "Literals": ["1.000000e-08f", "1.000000e+00f"],
  "NbOperations": 4,
  "Operations": ["auto const var0 = pwgen::iPlus(arg0, literal0);", "auto const var1 = pwgen::iSqrt(var0);", "auto const var2 = pwgen::iDiv(literal1, var1);", "auto const var3 = pwgen::iMul(arg1, var2);"],
  "TacticValue": "0x000000000000001c"
},{
  "Name": "/synthesis/b8/conv0/Tile",
  "LayerType": "Slice",
  "Inputs": [
  {
    "Name": "/synthesis/b8/conv0/Expand_output_0",
    "Location": "Device",
    "Dimensions": [1,1,4,4],
    "Format/Datatype": "Row major linear FP32"
  }],
  "Outputs": [
  {
    "Name": "/synthesis/b8/conv0/Tile_output_0",
    "Location": "Device",
    "Dimensions": [512,1,4,4],
    "Format/Datatype": "Row major linear FP32"
  }],
  "ParameterType": "Slice",
  "Start": [0,0,0,0],
  "Size": [512,1,4,4],
  "Stride": [1,1,1,1],
  "Mode": "WRAP",
  "negativeInfinityPadding": 0,
  "TacticValue": "0x0000000000000000"
},{
  "Name": "/synthesis/b8/Tile",
  "LayerType": "Slice",
  "Inputs": [
  {
    "Name": "/synthesis/b8/Expand_output_0",
    "Location": "Device",
    "Dimensions": [1,1,4,4],
    "Format/Datatype": "Row major linear FP32"
  }],
  "Outputs": [
  {
    "Name": "/synthesis/b8/Tile_output_0",
    "Location": "Device",
    "Dimensions": [3,1,4,4],
    "Format/Datatype": "Row major linear FP32"
  }],
  "ParameterType": "Slice",
  "Start": [0,0,0,0],
  "Size": [3,1,4,4],
  "Stride": [1,1,1,1],
  "Mode": "WRAP",
  "negativeInfinityPadding": 0,
  "TacticValue": "0x0000000000000000"
},{
  "Name": "/synthesis/b16/conv0/Tile",
  "LayerType": "Slice",
  "Inputs": [
  {
    "Name": "/synthesis/b16/conv0/Expand_output_0",
    "Location": "Device",
    "Dimensions": [1,1,4,4],
    "Format/Datatype": "Row major linear FP32"
  }],
  "Outputs": [
  {
    "Name": "/synthesis/b16/conv0/Tile_output_0",
    "Location": "Device",
    "Dimensions": [512,1,4,4],
    "Format/Datatype": "Row major linear FP32"
  }],
  "ParameterType": "Slice",
  "Start": [0,0,0,0],
  "Size": [512,1,4,4],
  "Stride": [1,1,1,1],
  "Mode": "WRAP",
  "negativeInfinityPadding": 0,
  "TacticValue": "0x0000000000000000"
},{
  "Name": "/synthesis/b16/Tile",
  "LayerType": "Slice",
  "Inputs": [
  {
    "Name": "/synthesis/b16/Expand_output_0",
    "Location": "Device",
    "Dimensions": [1,1,4,4],
    "Format/Datatype": "Row major linear FP32"
  }],
  "Outputs": [
  {
    "Name": "/synthesis/b16/Tile_output_0",
    "Location": "Device",
    "Dimensions": [3,1,4,4],
    "Format/Datatype": "Row major linear FP32"
  }],
  "ParameterType": "Slice",
  "Start": [0,0,0,0],
  "Size": [3,1,4,4],
  "Stride": [1,1,1,1],
  "Mode": "WRAP",
  "negativeInfinityPadding": 0,
  "TacticValue": "0x0000000000000000"
},{
  "Name": "/synthesis/b32/conv0/Tile",
  "LayerType": "Slice",
  "Inputs": [
  {
    "Name": "/synthesis/b32/conv0/Expand_output_0",
    "Location": "Device",
    "Dimensions": [1,1,4,4],
    "Format/Datatype": "Row major linear FP32"
  }],
  "Outputs": [
  {
    "Name": "/synthesis/b32/conv0/Tile_output_0",
    "Location": "Device",
    "Dimensions": [512,1,4,4],
    "Format/Datatype": "Row major linear FP32"
  }],
  "ParameterType": "Slice",
  "Start": [0,0,0,0],
  "Size": [512,1,4,4],
  "Stride": [1,1,1,1],
  "Mode": "WRAP",
  "negativeInfinityPadding": 0,
  "TacticValue": "0x0000000000000000"
},{
  "Name": "/synthesis/b32/Tile",
  "LayerType": "Slice",
  "Inputs": [
  {
    "Name": "/synthesis/b32/Expand_output_0",
    "Location": "Device",
    "Dimensions": [1,1,4,4],
    "Format/Datatype": "Row major linear FP32"
  }],
  "Outputs": [
  {
    "Name": "/synthesis/b32/Tile_output_0",
    "Location": "Device",
    "Dimensions": [3,1,4,4],
    "Format/Datatype": "Row major linear FP32"
  }],
  "ParameterType": "Slice",
  "Start": [0,0,0,0],
  "Size": [3,1,4,4],
  "Stride": [1,1,1,1],
  "Mode": "WRAP",
  "negativeInfinityPadding": 0,
  "TacticValue": "0x0000000000000000"
},{
  "Name": "/synthesis/b64/conv0/Tile",
  "LayerType": "Slice",
  "Inputs": [
  {
    "Name": "/synthesis/b64/conv0/Expand_output_0",
    "Location": "Device",
    "Dimensions": [1,1,4,4],
    "Format/Datatype": "Row major linear FP16 format"
  }],
  "Outputs": [
  {
    "Name": "/synthesis/b64/conv0/Tile_output_0",
    "Location": "Device",
    "Dimensions": [512,1,4,4],
    "Format/Datatype": "Row major linear FP16 format"
  }],
  "ParameterType": "Slice",
  "Start": [0,0,0,0],
  "Size": [512,1,4,4],
  "Stride": [1,1,1,1],
  "Mode": "WRAP",
  "negativeInfinityPadding": 0,
  "TacticValue": "0x0000000000000000"
},{
  "Name": "/synthesis/b64/Tile",
  "LayerType": "Slice",
  "Inputs": [
  {
    "Name": "/synthesis/b64/Expand_output_0",
    "Location": "Device",
    "Dimensions": [1,1,4,4],
    "Format/Datatype": "Row major linear FP32"
  }],
  "Outputs": [
  {
    "Name": "/synthesis/b64/Tile_output_0",
    "Location": "Device",
    "Dimensions": [3,1,4,4],
    "Format/Datatype": "Row major linear FP32"
  }],
  "ParameterType": "Slice",
  "Start": [0,0,0,0],
  "Size": [3,1,4,4],
  "Stride": [1,1,1,1],
  "Mode": "WRAP",
  "negativeInfinityPadding": 0,
  "TacticValue": "0x0000000000000000"
},{
  "Name": "/synthesis/b128/conv0/Tile",
  "LayerType": "Slice",
  "Inputs": [
  {
    "Name": "/synthesis/b128/conv0/Expand_output_0",
    "Location": "Device",
    "Dimensions": [1,1,4,4],
    "Format/Datatype": "Row major linear FP16 format"
  }],
  "Outputs": [
  {
    "Name": "/synthesis/b128/conv0/Tile_output_0",
    "Location": "Device",
    "Dimensions": [256,1,4,4],
    "Format/Datatype": "Row major linear FP16 format"
  }],
  "ParameterType": "Slice",
  "Start": [0,0,0,0],
  "Size": [256,1,4,4],
  "Stride": [1,1,1,1],
  "Mode": "WRAP",
  "negativeInfinityPadding": 0,
  "TacticValue": "0x0000000000000000"
},{
  "Name": "/synthesis/b128/Tile",
  "LayerType": "Slice",
  "Inputs": [
  {
    "Name": "/synthesis/b128/Expand_output_0",
    "Location": "Device",
    "Dimensions": [1,1,4,4],
    "Format/Datatype": "Row major linear FP32"
  }],
  "Outputs": [
  {
    "Name": "/synthesis/b128/Tile_output_0",
    "Location": "Device",
    "Dimensions": [3,1,4,4],
    "Format/Datatype": "Row major linear FP32"
  }],
  "ParameterType": "Slice",
  "Start": [0,0,0,0],
  "Size": [3,1,4,4],
  "Stride": [1,1,1,1],
  "Mode": "WRAP",
  "negativeInfinityPadding": 0,
  "TacticValue": "0x0000000000000000"
},{
  "Name": "/synthesis/b256/conv0/Tile",
  "LayerType": "Slice",
  "Inputs": [
  {
    "Name": "/synthesis/b256/conv0/Expand_output_0",
    "Location": "Device",
    "Dimensions": [1,1,4,4],
    "Format/Datatype": "Row major linear FP16 format"
  }],
  "Outputs": [
  {
    "Name": "/synthesis/b256/conv0/Tile_output_0",
    "Location": "Device",
    "Dimensions": [128,1,4,4],
    "Format/Datatype": "Row major linear FP16 format"
  }],
  "ParameterType": "Slice",
  "Start": [0,0,0,0],
  "Size": [128,1,4,4],
  "Stride": [1,1,1,1],
  "Mode": "WRAP",
  "negativeInfinityPadding": 0,
  "TacticValue": "0x0000000000000000"
},{
  "Name": "/synthesis/b256/Tile",
  "LayerType": "Slice",
  "Inputs": [
  {
    "Name": "/synthesis/b256/Expand_output_0",
    "Location": "Device",
    "Dimensions": [1,1,4,4],
    "Format/Datatype": "Row major linear FP32"
  }],
  "Outputs": [
  {
    "Name": "/synthesis/b256/Tile_output_0",
    "Location": "Device",
    "Dimensions": [3,1,4,4],
    "Format/Datatype": "Row major linear FP32"
  }],
  "ParameterType": "Slice",
  "Start": [0,0,0,0],
  "Size": [3,1,4,4],
  "Stride": [1,1,1,1],
  "Mode": "WRAP",
  "negativeInfinityPadding": 0,
  "TacticValue": "0x0000000000000000"
},{
  "Name": "/synthesis/b512/conv0/Tile",
  "LayerType": "Slice",
  "Inputs": [
  {
    "Name": "/synthesis/b512/conv0/Expand_output_0",
    "Location": "Device",
    "Dimensions": [1,1,4,4],
    "Format/Datatype": "Row major linear FP16 format"
  }],
  "Outputs": [
  {
    "Name": "/synthesis/b512/conv0/Tile_output_0",
    "Location": "Device",
    "Dimensions": [64,1,4,4],
    "Format/Datatype": "Row major linear FP16 format"
  }],
  "ParameterType": "Slice",
  "Start": [0,0,0,0],
  "Size": [64,1,4,4],
  "Stride": [1,1,1,1],
  "Mode": "WRAP",
  "negativeInfinityPadding": 0,
  "TacticValue": "0x0000000000000000"
},{
  "Name": "/synthesis/b512/Tile",
  "LayerType": "Slice",
  "Inputs": [
  {
    "Name": "/synthesis/b512/Expand_output_0",
    "Location": "Device",
    "Dimensions": [1,1,4,4],
    "Format/Datatype": "Row major linear FP32"
  }],
  "Outputs": [
  {
    "Name": "/synthesis/b512/Tile_output_0",
    "Location": "Device",
    "Dimensions": [3,1,4,4],
    "Format/Datatype": "Row major linear FP32"
  }],
  "ParameterType": "Slice",
  "Start": [0,0,0,0],
  "Size": [3,1,4,4],
  "Stride": [1,1,1,1],
  "Mode": "WRAP",
  "negativeInfinityPadding": 0,
  "TacticValue": "0x0000000000000000"
},{
  "Name": "/synthesis/b1024/conv0/Tile",
  "LayerType": "Slice",
  "Inputs": [
  {
    "Name": "/synthesis/b1024/conv0/Expand_output_0",
    "Location": "Device",
    "Dimensions": [1,1,4,4],
    "Format/Datatype": "Row major linear FP16 format"
  }],
  "Outputs": [
  {
    "Name": "/synthesis/b1024/conv0/Tile_output_0",
    "Location": "Device",
    "Dimensions": [32,1,4,4],
    "Format/Datatype": "Row major linear FP16 format"
  }],
  "ParameterType": "Slice",
  "Start": [0,0,0,0],
  "Size": [32,1,4,4],
  "Stride": [1,1,1,1],
  "Mode": "WRAP",
  "negativeInfinityPadding": 0,
  "TacticValue": "0x0000000000000000"
},{
  "Name": "/synthesis/b1024/Tile",
  "LayerType": "Slice",
  "Inputs": [
  {
    "Name": "/synthesis/b1024/Expand_output_0",
    "Location": "Device",
    "Dimensions": [1,1,4,4],
    "Format/Datatype": "Row major linear FP32"
  }],
  "Outputs": [
  {
    "Name": "/synthesis/b1024/Tile_output_0",
    "Location": "Device",
    "Dimensions": [3,1,4,4],
    "Format/Datatype": "Row major linear FP32"
  }],
  "ParameterType": "Slice",
  "Start": [0,0,0,0],
  "Size": [3,1,4,4],
  "Stride": [1,1,1,1],
  "Mode": "WRAP",
  "negativeInfinityPadding": 0,
  "TacticValue": "0x0000000000000000"
},{
  "Name": "reshape_before_/mapping/fc0/MatMul",
  "LayerType": "NoOp",
  "Inputs": [
  {
    "Name": "/mapping/Mul_1_output_0",
    "Location": "Device",
    "Dimensions": [1,512],
    "Format/Datatype": "Row major linear FP32"
  }],
  "Outputs": [
  {
    "Name": "reshape_before_/mapping/fc0/MatMul_out_tensor",
    "Location": "Device",
    "Dimensions": [1,512,1,1],
    "Format/Datatype": "Row major linear FP32"
  }],
  "TacticValue": "0x0000000000000000"
},{
  "Name": "/mapping/fc0/MatMul + PWN(PWN(/mapping/fc0/LeakyRelu), /mapping/fc0/Constant_output_0 + (Unnamed Layer* 33) [Shuffle] + unsqueeze_node_after_/mapping/fc0/Constant_output_0 + (Unnamed Layer* 33) [Shuffle]_(Unnamed Layer* 33) [Shuffle]_output + /mapping/fc0/Mul)",
  "LayerType": "CublasConvolution",
  "Inputs": [
  {
    "Name": "reshape_before_/mapping/fc0/MatMul_out_tensor",
    "Location": "Device",
    "Dimensions": [1,512,1,1],
    "Format/Datatype": "Row major linear FP32"
  }],
  "Outputs": [
  {
    "Name": "/mapping/fc0/Mul_out_tensor",
    "Location": "Device",
    "Dimensions": [1,512,1,1],
    "Format/Datatype": "Row major linear FP32"
  }],
  "ParameterType": "Convolution",
  "Kernel": [1,1],
  "PaddingMode": "kEXPLICIT_ROUND_DOWN",
  "PrePadding": [0,0],
  "PostPadding": [0,0],
  "Stride": [1,1],
  "Dilation": [1,1],
  "OutMaps": 512,
  "Groups": 1,
  "Weights": {"Type": "Float", "Count": 262144},
  "Bias": {"Type": "Float", "Count": 512},
  "HasSparseWeights": 0,
  "HasDynamicFilter": 0,
  "HasDynamicBias": 0,
  "HasResidual": 0,
  "ConvXAsActInputIdx": -1,
  "BiasAsActInputIdx": -1,
  "ResAsActInputIdx": -1,
  "Activation": "GENERIC",
  "ParameterSubType": "PointWiseExpression",
  "NbPointWiseExpressionInputArgs": 1,
  "PointWiseExpressionInputArgs": ["arg0"],
  "NbPointWiseExpressionOutputVars": 1,
  "PointWiseExpressionOutputVars": ["var3"],
  "NbPointWiseExpressionParams": 0,
  "PointWiseExpressionParams": [],
  "NbPointWiseExpressionLiterals": 6,
  "PointWiseExpressionLiterals": ["0.000000e+00f", "1.000000e+00f", "2.000000e-01f", "0.000000e+00f", "0.000000e+00f", "1.414214e+00f"],
  "NbPointWiseExpressionOperations": 4,
  "PointWiseExpressionOperations": ["auto const var0 = pwgen::iMul(arg0, literal2);", "auto const var1 = pwgen::iCmpLT(arg0, literal0);", "auto const var2 = pwgen::iSelect(var1, var0, arg0);", "auto const var3 = pwgen::iMul(var2, literal5);"],
  "HasBias": 1,
  "CublasConvolutionTacticIndex": 1,
  "TacticValue": "0x0000000000000001"
},{
  "Name": "/mapping/fc1/MatMul + PWN(PWN(/mapping/fc1/LeakyRelu), /mapping/fc1/Constant_output_0 + (Unnamed Layer* 41) [Shuffle] + unsqueeze_node_after_/mapping/fc1/Constant_output_0 + (Unnamed Layer* 41) [Shuffle]_(Unnamed Layer* 41) [Shuffle]_output + /mapping/fc1/Mul)",
  "LayerType": "CublasConvolution",
  "Inputs": [
  {
    "Name": "/mapping/fc0/Mul_out_tensor",
    "Location": "Device",
    "Dimensions": [1,512,1,1],
    "Format/Datatype": "Row major linear FP32"
  }],
  "Outputs": [
  {
    "Name": "/mapping/fc1/Mul_out_tensor",
    "Location": "Device",
    "Dimensions": [1,512,1,1],
    "Format/Datatype": "Row major linear FP32"
  }],
  "ParameterType": "Convolution",
  "Kernel": [1,1],
  "PaddingMode": "kEXPLICIT_ROUND_DOWN",
  "PrePadding": [0,0],
  "PostPadding": [0,0],
  "Stride": [1,1],
  "Dilation": [1,1],
  "OutMaps": 512,
  "Groups": 1,
  "Weights": {"Type": "Float", "Count": 262144},
  "Bias": {"Type": "Float", "Count": 512},
  "HasSparseWeights": 0,
  "HasDynamicFilter": 0,
  "HasDynamicBias": 0,
  "HasResidual": 0,
  "ConvXAsActInputIdx": -1,
  "BiasAsActInputIdx": -1,
  "ResAsActInputIdx": -1,
  "Activation": "GENERIC",
  "ParameterSubType": "PointWiseExpression",
  "NbPointWiseExpressionInputArgs": 1,
  "PointWiseExpressionInputArgs": ["arg0"],
  "NbPointWiseExpressionOutputVars": 1,
  "PointWiseExpressionOutputVars": ["var3"],
  "NbPointWiseExpressionParams": 0,
  "PointWiseExpressionParams": [],
  "NbPointWiseExpressionLiterals": 6,
  "PointWiseExpressionLiterals": ["0.000000e+00f", "1.000000e+00f", "2.000000e-01f", "0.000000e+00f", "0.000000e+00f", "1.414214e+00f"],
  "NbPointWiseExpressionOperations": 4,
  "PointWiseExpressionOperations": ["auto const var0 = pwgen::iMul(arg0, literal2);", "auto const var1 = pwgen::iCmpLT(arg0, literal0);", "auto const var2 = pwgen::iSelect(var1, var0, arg0);", "auto const var3 = pwgen::iMul(var2, literal5);"],
  "HasBias": 1,
  "CublasConvolutionTacticIndex": 1,
  "TacticValue": "0x0000000000000001"
},{
  "Name": "/mapping/fc2/MatMul + PWN(PWN(/mapping/fc2/LeakyRelu), /mapping/fc2/Constant_output_0 + (Unnamed Layer* 49) [Shuffle] + unsqueeze_node_after_/mapping/fc2/Constant_output_0 + (Unnamed Layer* 49) [Shuffle]_(Unnamed Layer* 49) [Shuffle]_output + /mapping/fc2/Mul)",
  "LayerType": "CublasConvolution",
  "Inputs": [
  {
    "Name": "/mapping/fc1/Mul_out_tensor",
    "Location": "Device",
    "Dimensions": [1,512,1,1],
    "Format/Datatype": "Row major linear FP32"
  }],
  "Outputs": [
  {
    "Name": "/mapping/fc2/Mul_out_tensor",
    "Location": "Device",
    "Dimensions": [1,512,1,1],
    "Format/Datatype": "Row major linear FP32"
  }],
  "ParameterType": "Convolution",
  "Kernel": [1,1],
  "PaddingMode": "kEXPLICIT_ROUND_DOWN",
  "PrePadding": [0,0],
  "PostPadding": [0,0],
  "Stride": [1,1],
  "Dilation": [1,1],
  "OutMaps": 512,
  "Groups": 1,
  "Weights": {"Type": "Float", "Count": 262144},
  "Bias": {"Type": "Float", "Count": 512},
  "HasSparseWeights": 0,
  "HasDynamicFilter": 0,
  "HasDynamicBias": 0,
  "HasResidual": 0,
  "ConvXAsActInputIdx": -1,
  "BiasAsActInputIdx": -1,
  "ResAsActInputIdx": -1,
  "Activation": "GENERIC",
  "ParameterSubType": "PointWiseExpression",
  "NbPointWiseExpressionInputArgs": 1,
  "PointWiseExpressionInputArgs": ["arg0"],
  "NbPointWiseExpressionOutputVars": 1,
  "PointWiseExpressionOutputVars": ["var3"],
  "NbPointWiseExpressionParams": 0,
  "PointWiseExpressionParams": [],
  "NbPointWiseExpressionLiterals": 6,
  "PointWiseExpressionLiterals": ["0.000000e+00f", "1.000000e+00f", "2.000000e-01f", "0.000000e+00f", "0.000000e+00f", "1.414214e+00f"],
  "NbPointWiseExpressionOperations": 4,
  "PointWiseExpressionOperations": ["auto const var0 = pwgen::iMul(arg0, literal2);", "auto const var1 = pwgen::iCmpLT(arg0, literal0);", "auto const var2 = pwgen::iSelect(var1, var0, arg0);", "auto const var3 = pwgen::iMul(var2, literal5);"],
  "HasBias": 1,
  "CublasConvolutionTacticIndex": 1,
  "TacticValue": "0x0000000000000001"
},{
  "Name": "/mapping/fc3/MatMul + PWN(PWN(/mapping/fc3/LeakyRelu), /mapping/fc3/Constant_output_0 + (Unnamed Layer* 57) [Shuffle] + unsqueeze_node_after_/mapping/fc3/Constant_output_0 + (Unnamed Layer* 57) [Shuffle]_(Unnamed Layer* 57) [Shuffle]_output + /mapping/fc3/Mul)",
  "LayerType": "CublasConvolution",
  "Inputs": [
  {
    "Name": "/mapping/fc2/Mul_out_tensor",
    "Location": "Device",
    "Dimensions": [1,512,1,1],
    "Format/Datatype": "Row major linear FP32"
  }],
  "Outputs": [
  {
    "Name": "/mapping/fc3/Mul_out_tensor",
    "Location": "Device",
    "Dimensions": [1,512,1,1],
    "Format/Datatype": "Row major linear FP32"
  }],
  "ParameterType": "Convolution",
  "Kernel": [1,1],
  "PaddingMode": "kEXPLICIT_ROUND_DOWN",
  "PrePadding": [0,0],
  "PostPadding": [0,0],
  "Stride": [1,1],
  "Dilation": [1,1],
  "OutMaps": 512,
  "Groups": 1,
  "Weights": {"Type": "Float", "Count": 262144},
  "Bias": {"Type": "Float", "Count": 512},
  "HasSparseWeights": 0,
  "HasDynamicFilter": 0,
  "HasDynamicBias": 0,
  "HasResidual": 0,
  "ConvXAsActInputIdx": -1,
  "BiasAsActInputIdx": -1,
  "ResAsActInputIdx": -1,
  "Activation": "GENERIC",
  "ParameterSubType": "PointWiseExpression",
  "NbPointWiseExpressionInputArgs": 1,
  "PointWiseExpressionInputArgs": ["arg0"],
  "NbPointWiseExpressionOutputVars": 1,
  "PointWiseExpressionOutputVars": ["var3"],
  "NbPointWiseExpressionParams": 0,
  "PointWiseExpressionParams": [],
  "NbPointWiseExpressionLiterals": 6,
  "PointWiseExpressionLiterals": ["0.000000e+00f", "1.000000e+00f", "2.000000e-01f", "0.000000e+00f", "0.000000e+00f", "1.414214e+00f"],
  "NbPointWiseExpressionOperations": 4,
  "PointWiseExpressionOperations": ["auto const var0 = pwgen::iMul(arg0, literal2);", "auto const var1 = pwgen::iCmpLT(arg0, literal0);", "auto const var2 = pwgen::iSelect(var1, var0, arg0);", "auto const var3 = pwgen::iMul(var2, literal5);"],
  "HasBias": 1,
  "CublasConvolutionTacticIndex": 1,
  "TacticValue": "0x0000000000000001"
},{
  "Name": "/mapping/fc4/MatMul + PWN(PWN(/mapping/fc4/LeakyRelu), /mapping/fc4/Constant_output_0 + (Unnamed Layer* 65) [Shuffle] + unsqueeze_node_after_/mapping/fc4/Constant_output_0 + (Unnamed Layer* 65) [Shuffle]_(Unnamed Layer* 65) [Shuffle]_output + /mapping/fc4/Mul)",
  "LayerType": "CublasConvolution",
  "Inputs": [
  {
    "Name": "/mapping/fc3/Mul_out_tensor",
    "Location": "Device",
    "Dimensions": [1,512,1,1],
    "Format/Datatype": "Row major linear FP32"
  }],
  "Outputs": [
  {
    "Name": "/mapping/fc4/Mul_out_tensor",
    "Location": "Device",
    "Dimensions": [1,512,1,1],
    "Format/Datatype": "Row major linear FP32"
  }],
  "ParameterType": "Convolution",
  "Kernel": [1,1],
  "PaddingMode": "kEXPLICIT_ROUND_DOWN",
  "PrePadding": [0,0],
  "PostPadding": [0,0],
  "Stride": [1,1],
  "Dilation": [1,1],
  "OutMaps": 512,
  "Groups": 1,
  "Weights": {"Type": "Float", "Count": 262144},
  "Bias": {"Type": "Float", "Count": 512},
  "HasSparseWeights": 0,
  "HasDynamicFilter": 0,
  "HasDynamicBias": 0,
  "HasResidual": 0,
  "ConvXAsActInputIdx": -1,
  "BiasAsActInputIdx": -1,
  "ResAsActInputIdx": -1,
  "Activation": "GENERIC",
  "ParameterSubType": "PointWiseExpression",
  "NbPointWiseExpressionInputArgs": 1,
  "PointWiseExpressionInputArgs": ["arg0"],
  "NbPointWiseExpressionOutputVars": 1,
  "PointWiseExpressionOutputVars": ["var3"],
  "NbPointWiseExpressionParams": 0,
  "PointWiseExpressionParams": [],
  "NbPointWiseExpressionLiterals": 6,
  "PointWiseExpressionLiterals": ["0.000000e+00f", "1.000000e+00f", "2.000000e-01f", "0.000000e+00f", "0.000000e+00f", "1.414214e+00f"],
  "NbPointWiseExpressionOperations": 4,
  "PointWiseExpressionOperations": ["auto const var0 = pwgen::iMul(arg0, literal2);", "auto const var1 = pwgen::iCmpLT(arg0, literal0);", "auto const var2 = pwgen::iSelect(var1, var0, arg0);", "auto const var3 = pwgen::iMul(var2, literal5);"],
  "HasBias": 1,
  "CublasConvolutionTacticIndex": 1,
  "TacticValue": "0x0000000000000001"
},{
  "Name": "/mapping/fc5/MatMul + PWN(PWN(/mapping/fc5/LeakyRelu), /mapping/fc5/Constant_output_0 + (Unnamed Layer* 73) [Shuffle] + unsqueeze_node_after_/mapping/fc5/Constant_output_0 + (Unnamed Layer* 73) [Shuffle]_(Unnamed Layer* 73) [Shuffle]_output + /mapping/fc5/Mul)",
  "LayerType": "CublasConvolution",
  "Inputs": [
  {
    "Name": "/mapping/fc4/Mul_out_tensor",
    "Location": "Device",
    "Dimensions": [1,512,1,1],
    "Format/Datatype": "Row major linear FP32"
  }],
  "Outputs": [
  {
    "Name": "/mapping/fc5/Mul_out_tensor",
    "Location": "Device",
    "Dimensions": [1,512,1,1],
    "Format/Datatype": "Row major linear FP32"
  }],
  "ParameterType": "Convolution",
  "Kernel": [1,1],
  "PaddingMode": "kEXPLICIT_ROUND_DOWN",
  "PrePadding": [0,0],
  "PostPadding": [0,0],
  "Stride": [1,1],
  "Dilation": [1,1],
  "OutMaps": 512,
  "Groups": 1,
  "Weights": {"Type": "Float", "Count": 262144},
  "Bias": {"Type": "Float", "Count": 512},
  "HasSparseWeights": 0,
  "HasDynamicFilter": 0,
  "HasDynamicBias": 0,
  "HasResidual": 0,
  "ConvXAsActInputIdx": -1,
  "BiasAsActInputIdx": -1,
  "ResAsActInputIdx": -1,
  "Activation": "GENERIC",
  "ParameterSubType": "PointWiseExpression",
  "NbPointWiseExpressionInputArgs": 1,
  "PointWiseExpressionInputArgs": ["arg0"],
  "NbPointWiseExpressionOutputVars": 1,
  "PointWiseExpressionOutputVars": ["var3"],
  "NbPointWiseExpressionParams": 0,
  "PointWiseExpressionParams": [],
  "NbPointWiseExpressionLiterals": 6,
  "PointWiseExpressionLiterals": ["0.000000e+00f", "1.000000e+00f", "2.000000e-01f", "0.000000e+00f", "0.000000e+00f", "1.414214e+00f"],
  "NbPointWiseExpressionOperations": 4,
  "PointWiseExpressionOperations": ["auto const var0 = pwgen::iMul(arg0, literal2);", "auto const var1 = pwgen::iCmpLT(arg0, literal0);", "auto const var2 = pwgen::iSelect(var1, var0, arg0);", "auto const var3 = pwgen::iMul(var2, literal5);"],
  "HasBias": 1,
  "CublasConvolutionTacticIndex": 1,
  "TacticValue": "0x0000000000000001"
},{
  "Name": "/mapping/fc6/MatMul + PWN(PWN(/mapping/fc6/LeakyRelu), /mapping/fc6/Constant_output_0 + (Unnamed Layer* 81) [Shuffle] + unsqueeze_node_after_/mapping/fc6/Constant_output_0 + (Unnamed Layer* 81) [Shuffle]_(Unnamed Layer* 81) [Shuffle]_output + /mapping/fc6/Mul)",
  "LayerType": "CublasConvolution",
  "Inputs": [
  {
    "Name": "/mapping/fc5/Mul_out_tensor",
    "Location": "Device",
    "Dimensions": [1,512,1,1],
    "Format/Datatype": "Row major linear FP32"
  }],
  "Outputs": [
  {
    "Name": "/mapping/fc6/Mul_out_tensor",
    "Location": "Device",
    "Dimensions": [1,512,1,1],
    "Format/Datatype": "Row major linear FP32"
  }],
  "ParameterType": "Convolution",
  "Kernel": [1,1],
  "PaddingMode": "kEXPLICIT_ROUND_DOWN",
  "PrePadding": [0,0],
  "PostPadding": [0,0],
  "Stride": [1,1],
  "Dilation": [1,1],
  "OutMaps": 512,
  "Groups": 1,
  "Weights": {"Type": "Float", "Count": 262144},
  "Bias": {"Type": "Float", "Count": 512},
  "HasSparseWeights": 0,
  "HasDynamicFilter": 0,
  "HasDynamicBias": 0,
  "HasResidual": 0,
  "ConvXAsActInputIdx": -1,
  "BiasAsActInputIdx": -1,
  "ResAsActInputIdx": -1,
  "Activation": "GENERIC",
  "ParameterSubType": "PointWiseExpression",
  "NbPointWiseExpressionInputArgs": 1,
  "PointWiseExpressionInputArgs": ["arg0"],
  "NbPointWiseExpressionOutputVars": 1,
  "PointWiseExpressionOutputVars": ["var3"],
  "NbPointWiseExpressionParams": 0,
  "PointWiseExpressionParams": [],
  "NbPointWiseExpressionLiterals": 6,
  "PointWiseExpressionLiterals": ["0.000000e+00f", "1.000000e+00f", "2.000000e-01f", "0.000000e+00f", "0.000000e+00f", "1.414214e+00f"],
  "NbPointWiseExpressionOperations": 4,
  "PointWiseExpressionOperations": ["auto const var0 = pwgen::iMul(arg0, literal2);", "auto const var1 = pwgen::iCmpLT(arg0, literal0);", "auto const var2 = pwgen::iSelect(var1, var0, arg0);", "auto const var3 = pwgen::iMul(var2, literal5);"],
  "HasBias": 1,
  "CublasConvolutionTacticIndex": 1,
  "TacticValue": "0x0000000000000001"
},{
  "Name": "/mapping/fc7/MatMul + PWN(PWN(/mapping/fc7/LeakyRelu), /mapping/fc7/Constant_output_0 + (Unnamed Layer* 89) [Shuffle] + unsqueeze_node_after_/mapping/fc7/Constant_output_0 + (Unnamed Layer* 89) [Shuffle]_(Unnamed Layer* 89) [Shuffle]_output + /mapping/fc7/Mul)",
  "LayerType": "CublasConvolution",
  "Inputs": [
  {
    "Name": "/mapping/fc6/Mul_out_tensor",
    "Location": "Device",
    "Dimensions": [1,512,1,1],
    "Format/Datatype": "Row major linear FP32"
  }],
  "Outputs": [
  {
    "Name": "/mapping/fc7/Mul_out_tensor",
    "Location": "Device",
    "Dimensions": [1,512,1,1],
    "Format/Datatype": "Row major linear FP32"
  }],
  "ParameterType": "Convolution",
  "Kernel": [1,1],
  "PaddingMode": "kEXPLICIT_ROUND_DOWN",
  "PrePadding": [0,0],
  "PostPadding": [0,0],
  "Stride": [1,1],
  "Dilation": [1,1],
  "OutMaps": 512,
  "Groups": 1,
  "Weights": {"Type": "Float", "Count": 262144},
  "Bias": {"Type": "Float", "Count": 512},
  "HasSparseWeights": 0,
  "HasDynamicFilter": 0,
  "HasDynamicBias": 0,
  "HasResidual": 0,
  "ConvXAsActInputIdx": -1,
  "BiasAsActInputIdx": -1,
  "ResAsActInputIdx": -1,
  "Activation": "GENERIC",
  "ParameterSubType": "PointWiseExpression",
  "NbPointWiseExpressionInputArgs": 1,
  "PointWiseExpressionInputArgs": ["arg0"],
  "NbPointWiseExpressionOutputVars": 1,
  "PointWiseExpressionOutputVars": ["var3"],
  "NbPointWiseExpressionParams": 0,
  "PointWiseExpressionParams": [],
  "NbPointWiseExpressionLiterals": 6,
  "PointWiseExpressionLiterals": ["0.000000e+00f", "1.000000e+00f", "2.000000e-01f", "0.000000e+00f", "0.000000e+00f", "1.414214e+00f"],
  "NbPointWiseExpressionOperations": 4,
  "PointWiseExpressionOperations": ["auto const var0 = pwgen::iMul(arg0, literal2);", "auto const var1 = pwgen::iCmpLT(arg0, literal0);", "auto const var2 = pwgen::iSelect(var1, var0, arg0);", "auto const var3 = pwgen::iMul(var2, literal5);"],
  "HasBias": 1,
  "CublasConvolutionTacticIndex": 1,
  "TacticValue": "0x0000000000000001"
},{
  "Name": "copied_squeeze_after_/mapping/fc7/Mul + /mapping/Unsqueeze",
  "LayerType": "NoOp",
  "Inputs": [
  {
    "Name": "/mapping/fc7/Mul_out_tensor",
    "Location": "Device",
    "Dimensions": [1,512,1,1],
    "Format/Datatype": "Row major linear FP32"
  }],
  "Outputs": [
  {
    "Name": "/mapping/Unsqueeze_output_0",
    "Location": "Device",
    "Dimensions": [1,1,512],
    "Format/Datatype": "Row major linear FP32"
  }],
  "TacticValue": "0x0000000000000000"
},{
  "Name": "/mapping/Expand",
  "LayerType": "Slice",
  "Inputs": [
  {
    "Name": "/mapping/Unsqueeze_output_0",
    "Location": "Device",
    "Dimensions": [1,1,512],
    "Format/Datatype": "Row major linear FP32"
  }],
  "Outputs": [
  {
    "Name": "/mapping/Expand_output_0",
    "Location": "Device",
    "Dimensions": [1,1,512],
    "Format/Datatype": "Row major linear FP32"
  }],
  "ParameterType": "Slice",
  "Start": [0,0,0],
  "Size": [1,1,512],
  "Stride": [0,0,1],
  "Mode": "kSTRICT_BOUNDS",
  "negativeInfinityPadding": 0,
  "TacticValue": "0x0000000000000000"
},{
  "Name": "/mapping/Tile",
  "LayerType": "Slice",
  "Inputs": [
  {
    "Name": "/mapping/Expand_output_0",
    "Location": "Device",
    "Dimensions": [1,1,512],
    "Format/Datatype": "Row major linear FP32"
  }],
  "Outputs": [
  {
    "Name": "/mapping/Tile_output_0",
    "Location": "Device",
    "Dimensions": [1,18,512],
    "Format/Datatype": "Row major linear FP32"
  }],
  "ParameterType": "Slice",
  "Start": [0,0,0],
  "Size": [1,18,512],
  "Stride": [1,1,1],
  "Mode": "WRAP",
  "negativeInfinityPadding": 0,
  "TacticValue": "0x0000000000000000"
},{
  "Name": "/synthesis/Cast",
  "LayerType": "NoOp",
  "Inputs": [
  {
    "Name": "/mapping/Tile_output_0",
    "Location": "Device",
    "Dimensions": [1,18,512],
    "Format/Datatype": "Row major linear FP32"
  }],
  "Outputs": [
  {
    "Name": "/synthesis/Cast_output_0",
    "Location": "Device",
    "Dimensions": [1,18,512],
    "Format/Datatype": "Row major linear FP32"
  }],
  "TacticValue": "0x0000000000000000"
},{
  "Name": "/synthesis/b4/Squeeze + reshape_before_/synthesis/b4/conv1/affine/Gemm_copy_input",
  "LayerType": "Reformat",
  "Inputs": [
  {
    "Name": "/synthesis/Cast_output_0",
    "Location": "Device",
    "Dimensions": [1,1,512],
    "Format/Datatype": "Row major linear FP32"
  }],
  "Outputs": [
  {
    "Name": "/synthesis/b4/Squeeze + reshape_before_/synthesis/b4/conv1/affine/Gemm_copy_input",
    "Location": "Device",
    "Dimensions": [1,1,512],
    "Format/Datatype": "Row major linear FP16 format"
  }],
  "ParameterType": "Reformat",
  "Origin": "SLICE",
  "TacticValue": "0x00000000000003e8"
},{
  "Name": "/synthesis/b4/Squeeze + reshape_before_/synthesis/b4/conv1/affine/Gemm",
  "LayerType": "NoOp",
  "Inputs": [
  {
    "Name": "/synthesis/b4/Squeeze + reshape_before_/synthesis/b4/conv1/affine/Gemm_copy_input",
    "Location": "Device",
    "Dimensions": [1,1,512],
    "Format/Datatype": "Row major linear FP16 format"
  }],
  "Outputs": [
  {
    "Name": "reshape_before_/synthesis/b4/conv1/affine/Gemm_out_tensor",
    "Location": "Device",
    "Dimensions": [1,512,1,1],
    "Format/Datatype": "Row major linear FP16 format"
  }],
  "TacticValue": "0x0000000000000000"
},{
  "Name": "Reformatting CopyNode for Input Tensor 0 to /synthesis/b4/conv1/affine/Gemm",
  "LayerType": "NoOp",
  "Inputs": [
  {
    "Name": "reshape_before_/synthesis/b4/conv1/affine/Gemm_out_tensor",
    "Location": "Device",
    "Dimensions": [1,512,1,1],
    "Format/Datatype": "Row major linear FP16 format"
  }],
  "Outputs": [
  {
    "Name": "Reformatted Input Tensor 0 to /synthesis/b4/conv1/affine/Gemm",
    "Location": "Device",
    "Dimensions": [1,512,1,1],
    "Format/Datatype": "Channel major FP16 format where channel % 8 == 0"
  }],
  "TacticValue": "0x0000000000000000"
},{
  "Name": "/synthesis/b4/conv1/affine/Gemm",
  "LayerType": "CaskGemmConvolution",
  "Inputs": [
  {
    "Name": "Reformatted Input Tensor 0 to /synthesis/b4/conv1/affine/Gemm",
    "Location": "Device",
    "Dimensions": [1,512,1,1],
    "Format/Datatype": "Channel major FP16 format where channel % 8 == 0"
  }],
  "Outputs": [
  {
    "Name": "/synthesis/b4/conv1/affine/Gemm_out_tensor",
    "Location": "Device",
    "Dimensions": [1,512,1,1],
    "Format/Datatype": "Channel major FP16 format where channel % 8 == 0"
  }],
  "ParameterType": "Convolution",
  "Kernel": [1,1],
  "PaddingMode": "kEXPLICIT_ROUND_DOWN",
  "PrePadding": [0,0],
  "PostPadding": [0,0],
  "Stride": [1,1],
  "Dilation": [1,1],
  "OutMaps": 512,
  "Groups": 1,
  "Weights": {"Type": "Half", "Count": 262144},
  "Bias": {"Type": "Half", "Count": 512},
  "HasSparseWeights": 0,
  "HasDynamicFilter": 0,
  "HasDynamicBias": 0,
  "HasResidual": 0,
  "ConvXAsActInputIdx": -1,
  "BiasAsActInputIdx": -1,
  "ResAsActInputIdx": -1,
  "Activation": "NONE",
  "TacticName": "sm70_xmma_gemm_as_conv1x1_f16f16_f16_f16_tn_n_simt_small_batch_bias_relu",
  "TacticValue": "0x00000000000205c2"
},{
  "Name": "/synthesis/b4/Squeeze_1 + reshape_before_/synthesis/b4/torgb/affine/Gemm_copy_input",
  "LayerType": "Reformat",
  "Inputs": [
  {
    "Name": "/synthesis/Cast_output_0",
    "Location": "Device",
    "Dimensions": [1,1,512],
    "Format/Datatype": "Row major linear FP32"
  }],
  "Outputs": [
  {
    "Name": "/synthesis/b4/Squeeze_1 + reshape_before_/synthesis/b4/torgb/affine/Gemm_copy_input",
    "Location": "Device",
    "Dimensions": [1,1,512],
    "Format/Datatype": "Row major linear FP16 format"
  }],
  "ParameterType": "Reformat",
  "Origin": "SLICE",
  "TacticValue": "0x00000000000003e8"
},{
  "Name": "/synthesis/b4/Squeeze_1 + reshape_before_/synthesis/b4/torgb/affine/Gemm",
  "LayerType": "NoOp",
  "Inputs": [
  {
    "Name": "/synthesis/b4/Squeeze_1 + reshape_before_/synthesis/b4/torgb/affine/Gemm_copy_input",
    "Location": "Device",
    "Dimensions": [1,1,512],
    "Format/Datatype": "Row major linear FP16 format"
  }],
  "Outputs": [
  {
    "Name": "reshape_before_/synthesis/b4/torgb/affine/Gemm_out_tensor",
    "Location": "Device",
    "Dimensions": [1,512,1,1],
    "Format/Datatype": "Row major linear FP16 format"
  }],
  "TacticValue": "0x0000000000000000"
},{
  "Name": "Reformatting CopyNode for Input Tensor 0 to /synthesis/b4/torgb/affine/Gemm + /synthesis/b4/torgb/Constant_output_0 + (Unnamed Layer* 177) [Shuffle] + unsqueeze_node_after_/synthesis/b4/torgb/Constant_output_0 + (Unnamed Layer* 177) [Shuffle]_(Unnamed Layer* 177) [Shuffle]_output + /synthesis/b4/torgb/Mul",
  "LayerType": "NoOp",
  "Inputs": [
  {
    "Name": "reshape_before_/synthesis/b4/torgb/affine/Gemm_out_tensor",
    "Location": "Device",
    "Dimensions": [1,512,1,1],
    "Format/Datatype": "Row major linear FP16 format"
  }],
  "Outputs": [
  {
    "Name": "Reformatted Input Tensor 0 to /synthesis/b4/torgb/affine/Gemm + /synthesis/b4/torgb/Constant_output_0 + (Unnamed Layer* 177) [Shuffle] + unsqueeze_node_after_/synthesis/b4/torgb/Constant_output_0 + (Unnamed Layer* 177) [Shuffle]_(Unnamed Layer* 177) [Shuffle]_output + /synthesis/b4/torgb/Mul",
    "Location": "Device",
    "Dimensions": [1,512,1,1],
    "Format/Datatype": "Channel major FP16 format where channel % 8 == 0"
  }],
  "TacticValue": "0x0000000000000000"
},{
  "Name": "/synthesis/b4/torgb/affine/Gemm + /synthesis/b4/torgb/Constant_output_0 + (Unnamed Layer* 177) [Shuffle] + unsqueeze_node_after_/synthesis/b4/torgb/Constant_output_0 + (Unnamed Layer* 177) [Shuffle]_(Unnamed Layer* 177) [Shuffle]_output + /synthesis/b4/torgb/Mul",
  "LayerType": "CaskGemmConvolution",
  "Inputs": [
  {
    "Name": "Reformatted Input Tensor 0 to /synthesis/b4/torgb/affine/Gemm + /synthesis/b4/torgb/Constant_output_0 + (Unnamed Layer* 177) [Shuffle] + unsqueeze_node_after_/synthesis/b4/torgb/Constant_output_0 + (Unnamed Layer* 177) [Shuffle]_(Unnamed Layer* 177) [Shuffle]_output + /synthesis/b4/torgb/Mul",
    "Location": "Device",
    "Dimensions": [1,512,1,1],
    "Format/Datatype": "Channel major FP16 format where channel % 8 == 0"
  }],
  "Outputs": [
  {
    "Name": "/synthesis/b4/torgb/Mul_out_tensor",
    "Location": "Device",
    "Dimensions": [1,512,1,1],
    "Format/Datatype": "Channel major FP16 format where channel % 8 == 0"
  }],
  "ParameterType": "Convolution",
  "Kernel": [1,1],
  "PaddingMode": "kEXPLICIT_ROUND_DOWN",
  "PrePadding": [0,0],
  "PostPadding": [0,0],
  "Stride": [1,1],
  "Dilation": [1,1],
  "OutMaps": 512,
  "Groups": 1,
  "Weights": {"Type": "Half", "Count": 262144},
  "Bias": {"Type": "Half", "Count": 512},
  "HasSparseWeights": 0,
  "HasDynamicFilter": 0,
  "HasDynamicBias": 0,
  "HasResidual": 0,
  "ConvXAsActInputIdx": -1,
  "BiasAsActInputIdx": -1,
  "ResAsActInputIdx": -1,
  "Activation": "NONE",
  "TacticName": "sm70_xmma_gemm_as_conv1x1_f16f16_f16_f16_tn_n_simt_small_batch_bias_relu",
  "TacticValue": "0x00000000000205c2"
},{
  "Name": "/synthesis/b8/Squeeze + reshape_before_/synthesis/b8/conv0/affine/Gemm_copy_input",
  "LayerType": "Reformat",
  "Inputs": [
  {
    "Name": "/synthesis/Cast_output_0",
    "Location": "Device",
    "Dimensions": [1,1,512],
    "Format/Datatype": "Row major linear FP32"
  }],
  "Outputs": [
  {
    "Name": "/synthesis/b8/Squeeze + reshape_before_/synthesis/b8/conv0/affine/Gemm_copy_input",
    "Location": "Device",
    "Dimensions": [1,1,512],
    "Format/Datatype": "Row major linear FP16 format"
  }],
  "ParameterType": "Reformat",
  "Origin": "SLICE",
  "TacticValue": "0x00000000000003e8"
},{
  "Name": "/synthesis/b8/Squeeze + reshape_before_/synthesis/b8/conv0/affine/Gemm",
  "LayerType": "NoOp",
  "Inputs": [
  {
    "Name": "/synthesis/b8/Squeeze + reshape_before_/synthesis/b8/conv0/affine/Gemm_copy_input",
    "Location": "Device",
    "Dimensions": [1,1,512],
    "Format/Datatype": "Row major linear FP16 format"
  }],
  "Outputs": [
  {
    "Name": "reshape_before_/synthesis/b8/conv0/affine/Gemm_out_tensor",
    "Location": "Device",
    "Dimensions": [1,512,1,1],
    "Format/Datatype": "Row major linear FP16 format"
  }],
  "TacticValue": "0x0000000000000000"
},{
  "Name": "Reformatting CopyNode for Input Tensor 0 to /synthesis/b8/conv0/affine/Gemm",
  "LayerType": "NoOp",
  "Inputs": [
  {
    "Name": "reshape_before_/synthesis/b8/conv0/affine/Gemm_out_tensor",
    "Location": "Device",
    "Dimensions": [1,512,1,1],
    "Format/Datatype": "Row major linear FP16 format"
  }],
  "Outputs": [
  {
    "Name": "Reformatted Input Tensor 0 to /synthesis/b8/conv0/affine/Gemm",
    "Location": "Device",
    "Dimensions": [1,512,1,1],
    "Format/Datatype": "Channel major FP16 format where channel % 8 == 0"
  }],
  "TacticValue": "0x0000000000000000"
},{
  "Name": "/synthesis/b8/conv0/affine/Gemm",
  "LayerType": "CaskGemmConvolution",
  "Inputs": [
  {
    "Name": "Reformatted Input Tensor 0 to /synthesis/b8/conv0/affine/Gemm",
    "Location": "Device",
    "Dimensions": [1,512,1,1],
    "Format/Datatype": "Channel major FP16 format where channel % 8 == 0"
  }],
  "Outputs": [
  {
    "Name": "/synthesis/b8/conv0/affine/Gemm_out_tensor",
    "Location": "Device",
    "Dimensions": [1,512,1,1],
    "Format/Datatype": "Channel major FP16 format where channel % 8 == 0"
  }],
  "ParameterType": "Convolution",
  "Kernel": [1,1],
  "PaddingMode": "kEXPLICIT_ROUND_DOWN",
  "PrePadding": [0,0],
  "PostPadding": [0,0],
  "Stride": [1,1],
  "Dilation": [1,1],
  "OutMaps": 512,
  "Groups": 1,
  "Weights": {"Type": "Half", "Count": 262144},
  "Bias": {"Type": "Half", "Count": 512},
  "HasSparseWeights": 0,
  "HasDynamicFilter": 0,
  "HasDynamicBias": 0,
  "HasResidual": 0,
  "ConvXAsActInputIdx": -1,
  "BiasAsActInputIdx": -1,
  "ResAsActInputIdx": -1,
  "Activation": "NONE",
  "TacticName": "sm70_xmma_gemm_as_conv1x1_f16f16_f16_f16_tn_n_simt_small_batch_bias_relu",
  "TacticValue": "0x00000000000205c2"
},{
  "Name": "/synthesis/b8/Squeeze_1 + reshape_before_/synthesis/b8/conv1/affine/Gemm_copy_input",
  "LayerType": "Reformat",
  "Inputs": [
  {
    "Name": "/synthesis/Cast_output_0",
    "Location": "Device",
    "Dimensions": [1,1,512],
    "Format/Datatype": "Row major linear FP32"
  }],
  "Outputs": [
  {
    "Name": "/synthesis/b8/Squeeze_1 + reshape_before_/synthesis/b8/conv1/affine/Gemm_copy_input",
    "Location": "Device",
    "Dimensions": [1,1,512],
    "Format/Datatype": "Row major linear FP16 format"
  }],
  "ParameterType": "Reformat",
  "Origin": "SLICE",
  "TacticValue": "0x00000000000003e8"
},{
  "Name": "/synthesis/b8/Squeeze_1 + reshape_before_/synthesis/b8/conv1/affine/Gemm",
  "LayerType": "NoOp",
  "Inputs": [
  {
    "Name": "/synthesis/b8/Squeeze_1 + reshape_before_/synthesis/b8/conv1/affine/Gemm_copy_input",
    "Location": "Device",
    "Dimensions": [1,1,512],
    "Format/Datatype": "Row major linear FP16 format"
  }],
  "Outputs": [
  {
    "Name": "reshape_before_/synthesis/b8/conv1/affine/Gemm_out_tensor",
    "Location": "Device",
    "Dimensions": [1,512,1,1],
    "Format/Datatype": "Row major linear FP16 format"
  }],
  "TacticValue": "0x0000000000000000"
},{
  "Name": "Reformatting CopyNode for Input Tensor 0 to /synthesis/b8/conv1/affine/Gemm",
  "LayerType": "NoOp",
  "Inputs": [
  {
    "Name": "reshape_before_/synthesis/b8/conv1/affine/Gemm_out_tensor",
    "Location": "Device",
    "Dimensions": [1,512,1,1],
    "Format/Datatype": "Row major linear FP16 format"
  }],
  "Outputs": [
  {
    "Name": "Reformatted Input Tensor 0 to /synthesis/b8/conv1/affine/Gemm",
    "Location": "Device",
    "Dimensions": [1,512,1,1],
    "Format/Datatype": "Channel major FP16 format where channel % 8 == 0"
  }],
  "TacticValue": "0x0000000000000000"
},{
  "Name": "/synthesis/b8/conv1/affine/Gemm",
  "LayerType": "CaskGemmConvolution",
  "Inputs": [
  {
    "Name": "Reformatted Input Tensor 0 to /synthesis/b8/conv1/affine/Gemm",
    "Location": "Device",
    "Dimensions": [1,512,1,1],
    "Format/Datatype": "Channel major FP16 format where channel % 8 == 0"
  }],
  "Outputs": [
  {
    "Name": "/synthesis/b8/conv1/affine/Gemm_out_tensor",
    "Location": "Device",
    "Dimensions": [1,512,1,1],
    "Format/Datatype": "Channel major FP16 format where channel % 8 == 0"
  }],
  "ParameterType": "Convolution",
  "Kernel": [1,1],
  "PaddingMode": "kEXPLICIT_ROUND_DOWN",
  "PrePadding": [0,0],
  "PostPadding": [0,0],
  "Stride": [1,1],
  "Dilation": [1,1],
  "OutMaps": 512,
  "Groups": 1,
  "Weights": {"Type": "Half", "Count": 262144},
  "Bias": {"Type": "Half", "Count": 512},
  "HasSparseWeights": 0,
  "HasDynamicFilter": 0,
  "HasDynamicBias": 0,
  "HasResidual": 0,
  "ConvXAsActInputIdx": -1,
  "BiasAsActInputIdx": -1,
  "ResAsActInputIdx": -1,
  "Activation": "NONE",
  "TacticName": "sm70_xmma_gemm_as_conv1x1_f16f16_f16_f16_tn_n_simt_small_batch_bias_relu",
  "TacticValue": "0x00000000000205c2"
},{
  "Name": "/synthesis/b8/Squeeze_2 + reshape_before_/synthesis/b8/torgb/affine/Gemm_copy_input",
  "LayerType": "Reformat",
  "Inputs": [
  {
    "Name": "/synthesis/Cast_output_0",
    "Location": "Device",
    "Dimensions": [1,1,512],
    "Format/Datatype": "Row major linear FP32"
  }],
  "Outputs": [
  {
    "Name": "/synthesis/b8/Squeeze_2 + reshape_before_/synthesis/b8/torgb/affine/Gemm_copy_input",
    "Location": "Device",
    "Dimensions": [1,1,512],
    "Format/Datatype": "Row major linear FP16 format"
  }],
  "ParameterType": "Reformat",
  "Origin": "SLICE",
  "TacticValue": "0x00000000000003e8"
},{
  "Name": "/synthesis/b8/Squeeze_2 + reshape_before_/synthesis/b8/torgb/affine/Gemm",
  "LayerType": "NoOp",
  "Inputs": [
  {
    "Name": "/synthesis/b8/Squeeze_2 + reshape_before_/synthesis/b8/torgb/affine/Gemm_copy_input",
    "Location": "Device",
    "Dimensions": [1,1,512],
    "Format/Datatype": "Row major linear FP16 format"
  }],
  "Outputs": [
  {
    "Name": "reshape_before_/synthesis/b8/torgb/affine/Gemm_out_tensor",
    "Location": "Device",
    "Dimensions": [1,512,1,1],
    "Format/Datatype": "Row major linear FP16 format"
  }],
  "TacticValue": "0x0000000000000000"
},{
  "Name": "Reformatting CopyNode for Input Tensor 0 to /synthesis/b8/torgb/affine/Gemm + /synthesis/b8/torgb/Constant_output_0 + (Unnamed Layer* 339) [Shuffle] + unsqueeze_node_after_/synthesis/b8/torgb/Constant_output_0 + (Unnamed Layer* 339) [Shuffle]_(Unnamed Layer* 339) [Shuffle]_output + /synthesis/b8/torgb/Mul",
  "LayerType": "NoOp",
  "Inputs": [
  {
    "Name": "reshape_before_/synthesis/b8/torgb/affine/Gemm_out_tensor",
    "Location": "Device",
    "Dimensions": [1,512,1,1],
    "Format/Datatype": "Row major linear FP16 format"
  }],
  "Outputs": [
  {
    "Name": "Reformatted Input Tensor 0 to /synthesis/b8/torgb/affine/Gemm + /synthesis/b8/torgb/Constant_output_0 + (Unnamed Layer* 339) [Shuffle] + unsqueeze_node_after_/synthesis/b8/torgb/Constant_output_0 + (Unnamed Layer* 339) [Shuffle]_(Unnamed Layer* 339) [Shuffle]_output + /synthesis/b8/torgb/Mul",
    "Location": "Device",
    "Dimensions": [1,512,1,1],
    "Format/Datatype": "Channel major FP16 format where channel % 8 == 0"
  }],
  "TacticValue": "0x0000000000000000"
},{
  "Name": "/synthesis/b8/torgb/affine/Gemm + /synthesis/b8/torgb/Constant_output_0 + (Unnamed Layer* 339) [Shuffle] + unsqueeze_node_after_/synthesis/b8/torgb/Constant_output_0 + (Unnamed Layer* 339) [Shuffle]_(Unnamed Layer* 339) [Shuffle]_output + /synthesis/b8/torgb/Mul",
  "LayerType": "CaskGemmConvolution",
  "Inputs": [
  {
    "Name": "Reformatted Input Tensor 0 to /synthesis/b8/torgb/affine/Gemm + /synthesis/b8/torgb/Constant_output_0 + (Unnamed Layer* 339) [Shuffle] + unsqueeze_node_after_/synthesis/b8/torgb/Constant_output_0 + (Unnamed Layer* 339) [Shuffle]_(Unnamed Layer* 339) [Shuffle]_output + /synthesis/b8/torgb/Mul",
    "Location": "Device",
    "Dimensions": [1,512,1,1],
    "Format/Datatype": "Channel major FP16 format where channel % 8 == 0"
  }],
  "Outputs": [
  {
    "Name": "/synthesis/b8/torgb/Mul_out_tensor",
    "Location": "Device",
    "Dimensions": [1,512,1,1],
    "Format/Datatype": "Channel major FP16 format where channel % 8 == 0"
  }],
  "ParameterType": "Convolution",
  "Kernel": [1,1],
  "PaddingMode": "kEXPLICIT_ROUND_DOWN",
  "PrePadding": [0,0],
  "PostPadding": [0,0],
  "Stride": [1,1],
  "Dilation": [1,1],
  "OutMaps": 512,
  "Groups": 1,
  "Weights": {"Type": "Half", "Count": 262144},
  "Bias": {"Type": "Half", "Count": 512},
  "HasSparseWeights": 0,
  "HasDynamicFilter": 0,
  "HasDynamicBias": 0,
  "HasResidual": 0,
  "ConvXAsActInputIdx": -1,
  "BiasAsActInputIdx": -1,
  "ResAsActInputIdx": -1,
  "Activation": "NONE",
  "TacticName": "sm70_xmma_gemm_as_conv1x1_f16f16_f16_f16_tn_n_simt_small_batch_bias_relu",
  "TacticValue": "0x00000000000205c2"
},{
  "Name": "/synthesis/b16/Squeeze + reshape_before_/synthesis/b16/conv0/affine/Gemm_copy_input",
  "LayerType": "Reformat",
  "Inputs": [
  {
    "Name": "/synthesis/Cast_output_0",
    "Location": "Device",
    "Dimensions": [1,1,512],
    "Format/Datatype": "Row major linear FP32"
  }],
  "Outputs": [
  {
    "Name": "/synthesis/b16/Squeeze + reshape_before_/synthesis/b16/conv0/affine/Gemm_copy_input",
    "Location": "Device",
    "Dimensions": [1,1,512],
    "Format/Datatype": "Row major linear FP16 format"
  }],
  "ParameterType": "Reformat",
  "Origin": "SLICE",
  "TacticValue": "0x00000000000003e8"
},{
  "Name": "/synthesis/b16/Squeeze + reshape_before_/synthesis/b16/conv0/affine/Gemm",
  "LayerType": "NoOp",
  "Inputs": [
  {
    "Name": "/synthesis/b16/Squeeze + reshape_before_/synthesis/b16/conv0/affine/Gemm_copy_input",
    "Location": "Device",
    "Dimensions": [1,1,512],
    "Format/Datatype": "Row major linear FP16 format"
  }],
  "Outputs": [
  {
    "Name": "reshape_before_/synthesis/b16/conv0/affine/Gemm_out_tensor",
    "Location": "Device",
    "Dimensions": [1,512,1,1],
    "Format/Datatype": "Row major linear FP16 format"
  }],
  "TacticValue": "0x0000000000000000"
},{
  "Name": "Reformatting CopyNode for Input Tensor 0 to /synthesis/b16/conv0/affine/Gemm",
  "LayerType": "NoOp",
  "Inputs": [
  {
    "Name": "reshape_before_/synthesis/b16/conv0/affine/Gemm_out_tensor",
    "Location": "Device",
    "Dimensions": [1,512,1,1],
    "Format/Datatype": "Row major linear FP16 format"
  }],
  "Outputs": [
  {
    "Name": "Reformatted Input Tensor 0 to /synthesis/b16/conv0/affine/Gemm",
    "Location": "Device",
    "Dimensions": [1,512,1,1],
    "Format/Datatype": "Channel major FP16 format where channel % 8 == 0"
  }],
  "TacticValue": "0x0000000000000000"
},{
  "Name": "/synthesis/b16/conv0/affine/Gemm",
  "LayerType": "CaskGemmConvolution",
  "Inputs": [
  {
    "Name": "Reformatted Input Tensor 0 to /synthesis/b16/conv0/affine/Gemm",
    "Location": "Device",
    "Dimensions": [1,512,1,1],
    "Format/Datatype": "Channel major FP16 format where channel % 8 == 0"
  }],
  "Outputs": [
  {
    "Name": "/synthesis/b16/conv0/affine/Gemm_out_tensor",
    "Location": "Device",
    "Dimensions": [1,512,1,1],
    "Format/Datatype": "Channel major FP16 format where channel % 8 == 0"
  }],
  "ParameterType": "Convolution",
  "Kernel": [1,1],
  "PaddingMode": "kEXPLICIT_ROUND_DOWN",
  "PrePadding": [0,0],
  "PostPadding": [0,0],
  "Stride": [1,1],
  "Dilation": [1,1],
  "OutMaps": 512,
  "Groups": 1,
  "Weights": {"Type": "Half", "Count": 262144},
  "Bias": {"Type": "Half", "Count": 512},
  "HasSparseWeights": 0,
  "HasDynamicFilter": 0,
  "HasDynamicBias": 0,
  "HasResidual": 0,
  "ConvXAsActInputIdx": -1,
  "BiasAsActInputIdx": -1,
  "ResAsActInputIdx": -1,
  "Activation": "NONE",
  "TacticName": "sm70_xmma_gemm_as_conv1x1_f16f16_f16_f16_tn_n_simt_small_batch_bias_relu",
  "TacticValue": "0x00000000000205c2"
},{
  "Name": "/synthesis/b16/Squeeze_1 + reshape_before_/synthesis/b16/conv1/affine/Gemm_copy_input",
  "LayerType": "Reformat",
  "Inputs": [
  {
    "Name": "/synthesis/Cast_output_0",
    "Location": "Device",
    "Dimensions": [1,1,512],
    "Format/Datatype": "Row major linear FP32"
  }],
  "Outputs": [
  {
    "Name": "/synthesis/b16/Squeeze_1 + reshape_before_/synthesis/b16/conv1/affine/Gemm_copy_input",
    "Location": "Device",
    "Dimensions": [1,1,512],
    "Format/Datatype": "Row major linear FP16 format"
  }],
  "ParameterType": "Reformat",
  "Origin": "SLICE",
  "TacticValue": "0x00000000000003e8"
},{
  "Name": "/synthesis/b16/Squeeze_1 + reshape_before_/synthesis/b16/conv1/affine/Gemm",
  "LayerType": "NoOp",
  "Inputs": [
  {
    "Name": "/synthesis/b16/Squeeze_1 + reshape_before_/synthesis/b16/conv1/affine/Gemm_copy_input",
    "Location": "Device",
    "Dimensions": [1,1,512],
    "Format/Datatype": "Row major linear FP16 format"
  }],
  "Outputs": [
  {
    "Name": "reshape_before_/synthesis/b16/conv1/affine/Gemm_out_tensor",
    "Location": "Device",
    "Dimensions": [1,512,1,1],
    "Format/Datatype": "Row major linear FP16 format"
  }],
  "TacticValue": "0x0000000000000000"
},{
  "Name": "Reformatting CopyNode for Input Tensor 0 to /synthesis/b16/conv1/affine/Gemm",
  "LayerType": "NoOp",
  "Inputs": [
  {
    "Name": "reshape_before_/synthesis/b16/conv1/affine/Gemm_out_tensor",
    "Location": "Device",
    "Dimensions": [1,512,1,1],
    "Format/Datatype": "Row major linear FP16 format"
  }],
  "Outputs": [
  {
    "Name": "Reformatted Input Tensor 0 to /synthesis/b16/conv1/affine/Gemm",
    "Location": "Device",
    "Dimensions": [1,512,1,1],
    "Format/Datatype": "Channel major FP16 format where channel % 8 == 0"
  }],
  "TacticValue": "0x0000000000000000"
},{
  "Name": "/synthesis/b16/conv1/affine/Gemm",
  "LayerType": "CaskGemmConvolution",
  "Inputs": [
  {
    "Name": "Reformatted Input Tensor 0 to /synthesis/b16/conv1/affine/Gemm",
    "Location": "Device",
    "Dimensions": [1,512,1,1],
    "Format/Datatype": "Channel major FP16 format where channel % 8 == 0"
  }],
  "Outputs": [
  {
    "Name": "/synthesis/b16/conv1/affine/Gemm_out_tensor",
    "Location": "Device",
    "Dimensions": [1,512,1,1],
    "Format/Datatype": "Channel major FP16 format where channel % 8 == 0"
  }],
  "ParameterType": "Convolution",
  "Kernel": [1,1],
  "PaddingMode": "kEXPLICIT_ROUND_DOWN",
  "PrePadding": [0,0],
  "PostPadding": [0,0],
  "Stride": [1,1],
  "Dilation": [1,1],
  "OutMaps": 512,
  "Groups": 1,
  "Weights": {"Type": "Half", "Count": 262144},
  "Bias": {"Type": "Half", "Count": 512},
  "HasSparseWeights": 0,
  "HasDynamicFilter": 0,
  "HasDynamicBias": 0,
  "HasResidual": 0,
  "ConvXAsActInputIdx": -1,
  "BiasAsActInputIdx": -1,
  "ResAsActInputIdx": -1,
  "Activation": "NONE",
  "TacticName": "sm70_xmma_gemm_as_conv1x1_f16f16_f16_f16_tn_n_simt_small_batch_bias_relu",
  "TacticValue": "0x00000000000205c2"
},{
  "Name": "/synthesis/b16/Squeeze_2 + reshape_before_/synthesis/b16/torgb/affine/Gemm_copy_input",
  "LayerType": "Reformat",
  "Inputs": [
  {
    "Name": "/synthesis/Cast_output_0",
    "Location": "Device",
    "Dimensions": [1,1,512],
    "Format/Datatype": "Row major linear FP32"
  }],
  "Outputs": [
  {
    "Name": "/synthesis/b16/Squeeze_2 + reshape_before_/synthesis/b16/torgb/affine/Gemm_copy_input",
    "Location": "Device",
    "Dimensions": [1,1,512],
    "Format/Datatype": "Row major linear FP16 format"
  }],
  "ParameterType": "Reformat",
  "Origin": "SLICE",
  "TacticValue": "0x00000000000003e8"
},{
  "Name": "/synthesis/b16/Squeeze_2 + reshape_before_/synthesis/b16/torgb/affine/Gemm",
  "LayerType": "NoOp",
  "Inputs": [
  {
    "Name": "/synthesis/b16/Squeeze_2 + reshape_before_/synthesis/b16/torgb/affine/Gemm_copy_input",
    "Location": "Device",
    "Dimensions": [1,1,512],
    "Format/Datatype": "Row major linear FP16 format"
  }],
  "Outputs": [
  {
    "Name": "reshape_before_/synthesis/b16/torgb/affine/Gemm_out_tensor",
    "Location": "Device",
    "Dimensions": [1,512,1,1],
    "Format/Datatype": "Row major linear FP16 format"
  }],
  "TacticValue": "0x0000000000000000"
},{
  "Name": "Reformatting CopyNode for Input Tensor 0 to /synthesis/b16/torgb/affine/Gemm + /synthesis/b16/torgb/Constant_output_0 + (Unnamed Layer* 502) [Shuffle] + unsqueeze_node_after_/synthesis/b16/torgb/Constant_output_0 + (Unnamed Layer* 502) [Shuffle]_(Unnamed Layer* 502) [Shuffle]_output + /synthesis/b16/torgb/Mul",
  "LayerType": "NoOp",
  "Inputs": [
  {
    "Name": "reshape_before_/synthesis/b16/torgb/affine/Gemm_out_tensor",
    "Location": "Device",
    "Dimensions": [1,512,1,1],
    "Format/Datatype": "Row major linear FP16 format"
  }],
  "Outputs": [
  {
    "Name": "Reformatted Input Tensor 0 to /synthesis/b16/torgb/affine/Gemm + /synthesis/b16/torgb/Constant_output_0 + (Unnamed Layer* 502) [Shuffle] + unsqueeze_node_after_/synthesis/b16/torgb/Constant_output_0 + (Unnamed Layer* 502) [Shuffle]_(Unnamed Layer* 502) [Shuffle]_output + /synthesis/b16/torgb/Mul",
    "Location": "Device",
    "Dimensions": [1,512,1,1],
    "Format/Datatype": "Channel major FP16 format where channel % 8 == 0"
  }],
  "TacticValue": "0x0000000000000000"
},{
  "Name": "/synthesis/b16/torgb/affine/Gemm + /synthesis/b16/torgb/Constant_output_0 + (Unnamed Layer* 502) [Shuffle] + unsqueeze_node_after_/synthesis/b16/torgb/Constant_output_0 + (Unnamed Layer* 502) [Shuffle]_(Unnamed Layer* 502) [Shuffle]_output + /synthesis/b16/torgb/Mul",
  "LayerType": "CaskGemmConvolution",
  "Inputs": [
  {
    "Name": "Reformatted Input Tensor 0 to /synthesis/b16/torgb/affine/Gemm + /synthesis/b16/torgb/Constant_output_0 + (Unnamed Layer* 502) [Shuffle] + unsqueeze_node_after_/synthesis/b16/torgb/Constant_output_0 + (Unnamed Layer* 502) [Shuffle]_(Unnamed Layer* 502) [Shuffle]_output + /synthesis/b16/torgb/Mul",
    "Location": "Device",
    "Dimensions": [1,512,1,1],
    "Format/Datatype": "Channel major FP16 format where channel % 8 == 0"
  }],
  "Outputs": [
  {
    "Name": "/synthesis/b16/torgb/Mul_out_tensor",
    "Location": "Device",
    "Dimensions": [1,512,1,1],
    "Format/Datatype": "Channel major FP16 format where channel % 8 == 0"
  }],
  "ParameterType": "Convolution",
  "Kernel": [1,1],
  "PaddingMode": "kEXPLICIT_ROUND_DOWN",
  "PrePadding": [0,0],
  "PostPadding": [0,0],
  "Stride": [1,1],
  "Dilation": [1,1],
  "OutMaps": 512,
  "Groups": 1,
  "Weights": {"Type": "Half", "Count": 262144},
  "Bias": {"Type": "Half", "Count": 512},
  "HasSparseWeights": 0,
  "HasDynamicFilter": 0,
  "HasDynamicBias": 0,
  "HasResidual": 0,
  "ConvXAsActInputIdx": -1,
  "BiasAsActInputIdx": -1,
  "ResAsActInputIdx": -1,
  "Activation": "NONE",
  "TacticName": "sm70_xmma_gemm_as_conv1x1_f16f16_f16_f16_tn_n_simt_small_batch_bias_relu",
  "TacticValue": "0x00000000000205c2"
},{
  "Name": "/synthesis/b32/Squeeze + reshape_before_/synthesis/b32/conv0/affine/Gemm_copy_input",
  "LayerType": "Reformat",
  "Inputs": [
  {
    "Name": "/synthesis/Cast_output_0",
    "Location": "Device",
    "Dimensions": [1,1,512],
    "Format/Datatype": "Row major linear FP32"
  }],
  "Outputs": [
  {
    "Name": "/synthesis/b32/Squeeze + reshape_before_/synthesis/b32/conv0/affine/Gemm_copy_input",
    "Location": "Device",
    "Dimensions": [1,1,512],
    "Format/Datatype": "Row major linear FP16 format"
  }],
  "ParameterType": "Reformat",
  "Origin": "SLICE",
  "TacticValue": "0x00000000000003e8"
},{
  "Name": "/synthesis/b32/Squeeze + reshape_before_/synthesis/b32/conv0/affine/Gemm",
  "LayerType": "NoOp",
  "Inputs": [
  {
    "Name": "/synthesis/b32/Squeeze + reshape_before_/synthesis/b32/conv0/affine/Gemm_copy_input",
    "Location": "Device",
    "Dimensions": [1,1,512],
    "Format/Datatype": "Row major linear FP16 format"
  }],
  "Outputs": [
  {
    "Name": "reshape_before_/synthesis/b32/conv0/affine/Gemm_out_tensor",
    "Location": "Device",
    "Dimensions": [1,512,1,1],
    "Format/Datatype": "Row major linear FP16 format"
  }],
  "TacticValue": "0x0000000000000000"
},{
  "Name": "Reformatting CopyNode for Input Tensor 0 to /synthesis/b32/conv0/affine/Gemm",
  "LayerType": "NoOp",
  "Inputs": [
  {
    "Name": "reshape_before_/synthesis/b32/conv0/affine/Gemm_out_tensor",
    "Location": "Device",
    "Dimensions": [1,512,1,1],
    "Format/Datatype": "Row major linear FP16 format"
  }],
  "Outputs": [
  {
    "Name": "Reformatted Input Tensor 0 to /synthesis/b32/conv0/affine/Gemm",
    "Location": "Device",
    "Dimensions": [1,512,1,1],
    "Format/Datatype": "Channel major FP16 format where channel % 8 == 0"
  }],
  "TacticValue": "0x0000000000000000"
},{
  "Name": "/synthesis/b32/conv0/affine/Gemm",
  "LayerType": "CaskGemmConvolution",
  "Inputs": [
  {
    "Name": "Reformatted Input Tensor 0 to /synthesis/b32/conv0/affine/Gemm",
    "Location": "Device",
    "Dimensions": [1,512,1,1],
    "Format/Datatype": "Channel major FP16 format where channel % 8 == 0"
  }],
  "Outputs": [
  {
    "Name": "/synthesis/b32/conv0/affine/Gemm_out_tensor",
    "Location": "Device",
    "Dimensions": [1,512,1,1],
    "Format/Datatype": "Channel major FP16 format where channel % 8 == 0"
  }],
  "ParameterType": "Convolution",
  "Kernel": [1,1],
  "PaddingMode": "kEXPLICIT_ROUND_DOWN",
  "PrePadding": [0,0],
  "PostPadding": [0,0],
  "Stride": [1,1],
  "Dilation": [1,1],
  "OutMaps": 512,
  "Groups": 1,
  "Weights": {"Type": "Half", "Count": 262144},
  "Bias": {"Type": "Half", "Count": 512},
  "HasSparseWeights": 0,
  "HasDynamicFilter": 0,
  "HasDynamicBias": 0,
  "HasResidual": 0,
  "ConvXAsActInputIdx": -1,
  "BiasAsActInputIdx": -1,
  "ResAsActInputIdx": -1,
  "Activation": "NONE",
  "TacticName": "sm70_xmma_gemm_as_conv1x1_f16f16_f16_f16_tn_n_simt_small_batch_bias_relu",
  "TacticValue": "0x00000000000205c2"
},{
  "Name": "/synthesis/b32/Squeeze_1 + reshape_before_/synthesis/b32/conv1/affine/Gemm_copy_input",
  "LayerType": "Reformat",
  "Inputs": [
  {
    "Name": "/synthesis/Cast_output_0",
    "Location": "Device",
    "Dimensions": [1,1,512],
    "Format/Datatype": "Row major linear FP32"
  }],
  "Outputs": [
  {
    "Name": "/synthesis/b32/Squeeze_1 + reshape_before_/synthesis/b32/conv1/affine/Gemm_copy_input",
    "Location": "Device",
    "Dimensions": [1,1,512],
    "Format/Datatype": "Row major linear FP16 format"
  }],
  "ParameterType": "Reformat",
  "Origin": "SLICE",
  "TacticValue": "0x00000000000003e8"
},{
  "Name": "/synthesis/b32/Squeeze_1 + reshape_before_/synthesis/b32/conv1/affine/Gemm",
  "LayerType": "NoOp",
  "Inputs": [
  {
    "Name": "/synthesis/b32/Squeeze_1 + reshape_before_/synthesis/b32/conv1/affine/Gemm_copy_input",
    "Location": "Device",
    "Dimensions": [1,1,512],
    "Format/Datatype": "Row major linear FP16 format"
  }],
  "Outputs": [
  {
    "Name": "reshape_before_/synthesis/b32/conv1/affine/Gemm_out_tensor",
    "Location": "Device",
    "Dimensions": [1,512,1,1],
    "Format/Datatype": "Row major linear FP16 format"
  }],
  "TacticValue": "0x0000000000000000"
},{
  "Name": "Reformatting CopyNode for Input Tensor 0 to /synthesis/b32/conv1/affine/Gemm",
  "LayerType": "NoOp",
  "Inputs": [
  {
    "Name": "reshape_before_/synthesis/b32/conv1/affine/Gemm_out_tensor",
    "Location": "Device",
    "Dimensions": [1,512,1,1],
    "Format/Datatype": "Row major linear FP16 format"
  }],
  "Outputs": [
  {
    "Name": "Reformatted Input Tensor 0 to /synthesis/b32/conv1/affine/Gemm",
    "Location": "Device",
    "Dimensions": [1,512,1,1],
    "Format/Datatype": "Channel major FP16 format where channel % 8 == 0"
  }],
  "TacticValue": "0x0000000000000000"
},{
  "Name": "/synthesis/b32/conv1/affine/Gemm",
  "LayerType": "CaskGemmConvolution",
  "Inputs": [
  {
    "Name": "Reformatted Input Tensor 0 to /synthesis/b32/conv1/affine/Gemm",
    "Location": "Device",
    "Dimensions": [1,512,1,1],
    "Format/Datatype": "Channel major FP16 format where channel % 8 == 0"
  }],
  "Outputs": [
  {
    "Name": "/synthesis/b32/conv1/affine/Gemm_out_tensor",
    "Location": "Device",
    "Dimensions": [1,512,1,1],
    "Format/Datatype": "Channel major FP16 format where channel % 8 == 0"
  }],
  "ParameterType": "Convolution",
  "Kernel": [1,1],
  "PaddingMode": "kEXPLICIT_ROUND_DOWN",
  "PrePadding": [0,0],
  "PostPadding": [0,0],
  "Stride": [1,1],
  "Dilation": [1,1],
  "OutMaps": 512,
  "Groups": 1,
  "Weights": {"Type": "Half", "Count": 262144},
  "Bias": {"Type": "Half", "Count": 512},
  "HasSparseWeights": 0,
  "HasDynamicFilter": 0,
  "HasDynamicBias": 0,
  "HasResidual": 0,
  "ConvXAsActInputIdx": -1,
  "BiasAsActInputIdx": -1,
  "ResAsActInputIdx": -1,
  "Activation": "NONE",
  "TacticName": "sm70_xmma_gemm_as_conv1x1_f16f16_f16_f16_tn_n_simt_small_batch_bias_relu",
  "TacticValue": "0x00000000000205c2"
},{
  "Name": "/synthesis/b32/Squeeze_2 + reshape_before_/synthesis/b32/torgb/affine/Gemm_copy_input",
  "LayerType": "Reformat",
  "Inputs": [
  {
    "Name": "/synthesis/Cast_output_0",
    "Location": "Device",
    "Dimensions": [1,1,512],
    "Format/Datatype": "Row major linear FP32"
  }],
  "Outputs": [
  {
    "Name": "/synthesis/b32/Squeeze_2 + reshape_before_/synthesis/b32/torgb/affine/Gemm_copy_input",
    "Location": "Device",
    "Dimensions": [1,1,512],
    "Format/Datatype": "Row major linear FP16 format"
  }],
  "ParameterType": "Reformat",
  "Origin": "SLICE",
  "TacticValue": "0x00000000000003e8"
},{
  "Name": "/synthesis/b32/Squeeze_2 + reshape_before_/synthesis/b32/torgb/affine/Gemm",
  "LayerType": "NoOp",
  "Inputs": [
  {
    "Name": "/synthesis/b32/Squeeze_2 + reshape_before_/synthesis/b32/torgb/affine/Gemm_copy_input",
    "Location": "Device",
    "Dimensions": [1,1,512],
    "Format/Datatype": "Row major linear FP16 format"
  }],
  "Outputs": [
  {
    "Name": "reshape_before_/synthesis/b32/torgb/affine/Gemm_out_tensor",
    "Location": "Device",
    "Dimensions": [1,512,1,1],
    "Format/Datatype": "Row major linear FP16 format"
  }],
  "TacticValue": "0x0000000000000000"
},{
  "Name": "Reformatting CopyNode for Input Tensor 0 to /synthesis/b32/torgb/affine/Gemm + /synthesis/b32/torgb/Constant_output_0 + (Unnamed Layer* 665) [Shuffle] + unsqueeze_node_after_/synthesis/b32/torgb/Constant_output_0 + (Unnamed Layer* 665) [Shuffle]_(Unnamed Layer* 665) [Shuffle]_output + /synthesis/b32/torgb/Mul",
  "LayerType": "NoOp",
  "Inputs": [
  {
    "Name": "reshape_before_/synthesis/b32/torgb/affine/Gemm_out_tensor",
    "Location": "Device",
    "Dimensions": [1,512,1,1],
    "Format/Datatype": "Row major linear FP16 format"
  }],
  "Outputs": [
  {
    "Name": "Reformatted Input Tensor 0 to /synthesis/b32/torgb/affine/Gemm + /synthesis/b32/torgb/Constant_output_0 + (Unnamed Layer* 665) [Shuffle] + unsqueeze_node_after_/synthesis/b32/torgb/Constant_output_0 + (Unnamed Layer* 665) [Shuffle]_(Unnamed Layer* 665) [Shuffle]_output + /synthesis/b32/torgb/Mul",
    "Location": "Device",
    "Dimensions": [1,512,1,1],
    "Format/Datatype": "Channel major FP16 format where channel % 8 == 0"
  }],
  "TacticValue": "0x0000000000000000"
},{
  "Name": "/synthesis/b32/torgb/affine/Gemm + /synthesis/b32/torgb/Constant_output_0 + (Unnamed Layer* 665) [Shuffle] + unsqueeze_node_after_/synthesis/b32/torgb/Constant_output_0 + (Unnamed Layer* 665) [Shuffle]_(Unnamed Layer* 665) [Shuffle]_output + /synthesis/b32/torgb/Mul",
  "LayerType": "CaskGemmConvolution",
  "Inputs": [
  {
    "Name": "Reformatted Input Tensor 0 to /synthesis/b32/torgb/affine/Gemm + /synthesis/b32/torgb/Constant_output_0 + (Unnamed Layer* 665) [Shuffle] + unsqueeze_node_after_/synthesis/b32/torgb/Constant_output_0 + (Unnamed Layer* 665) [Shuffle]_(Unnamed Layer* 665) [Shuffle]_output + /synthesis/b32/torgb/Mul",
    "Location": "Device",
    "Dimensions": [1,512,1,1],
    "Format/Datatype": "Channel major FP16 format where channel % 8 == 0"
  }],
  "Outputs": [
  {
    "Name": "/synthesis/b32/torgb/Mul_out_tensor",
    "Location": "Device",
    "Dimensions": [1,512,1,1],
    "Format/Datatype": "Channel major FP16 format where channel % 8 == 0"
  }],
  "ParameterType": "Convolution",
  "Kernel": [1,1],
  "PaddingMode": "kEXPLICIT_ROUND_DOWN",
  "PrePadding": [0,0],
  "PostPadding": [0,0],
  "Stride": [1,1],
  "Dilation": [1,1],
  "OutMaps": 512,
  "Groups": 1,
  "Weights": {"Type": "Half", "Count": 262144},
  "Bias": {"Type": "Half", "Count": 512},
  "HasSparseWeights": 0,
  "HasDynamicFilter": 0,
  "HasDynamicBias": 0,
  "HasResidual": 0,
  "ConvXAsActInputIdx": -1,
  "BiasAsActInputIdx": -1,
  "ResAsActInputIdx": -1,
  "Activation": "NONE",
  "TacticName": "sm70_xmma_gemm_as_conv1x1_f16f16_f16_f16_tn_n_simt_small_batch_bias_relu",
  "TacticValue": "0x00000000000205c2"
},{
  "Name": "/synthesis/b64/Squeeze + reshape_before_/synthesis/b64/conv0/affine/Gemm_copy_input",
  "LayerType": "Reformat",
  "Inputs": [
  {
    "Name": "/synthesis/Cast_output_0",
    "Location": "Device",
    "Dimensions": [1,1,512],
    "Format/Datatype": "Row major linear FP32"
  }],
  "Outputs": [
  {
    "Name": "/synthesis/b64/Squeeze + reshape_before_/synthesis/b64/conv0/affine/Gemm_copy_input",
    "Location": "Device",
    "Dimensions": [1,1,512],
    "Format/Datatype": "Row major linear FP16 format"
  }],
  "ParameterType": "Reformat",
  "Origin": "SLICE",
  "TacticValue": "0x00000000000003e8"
},{
  "Name": "/synthesis/b64/Squeeze + reshape_before_/synthesis/b64/conv0/affine/Gemm",
  "LayerType": "NoOp",
  "Inputs": [
  {
    "Name": "/synthesis/b64/Squeeze + reshape_before_/synthesis/b64/conv0/affine/Gemm_copy_input",
    "Location": "Device",
    "Dimensions": [1,1,512],
    "Format/Datatype": "Row major linear FP16 format"
  }],
  "Outputs": [
  {
    "Name": "reshape_before_/synthesis/b64/conv0/affine/Gemm_out_tensor",
    "Location": "Device",
    "Dimensions": [1,512,1,1],
    "Format/Datatype": "Row major linear FP16 format"
  }],
  "TacticValue": "0x0000000000000000"
},{
  "Name": "Reformatting CopyNode for Input Tensor 0 to /synthesis/b64/conv0/affine/Gemm",
  "LayerType": "NoOp",
  "Inputs": [
  {
    "Name": "reshape_before_/synthesis/b64/conv0/affine/Gemm_out_tensor",
    "Location": "Device",
    "Dimensions": [1,512,1,1],
    "Format/Datatype": "Row major linear FP16 format"
  }],
  "Outputs": [
  {
    "Name": "Reformatted Input Tensor 0 to /synthesis/b64/conv0/affine/Gemm",
    "Location": "Device",
    "Dimensions": [1,512,1,1],
    "Format/Datatype": "Channel major FP16 format where channel % 8 == 0"
  }],
  "TacticValue": "0x0000000000000000"
},{
  "Name": "/synthesis/b64/conv0/affine/Gemm",
  "LayerType": "CaskGemmConvolution",
  "Inputs": [
  {
    "Name": "Reformatted Input Tensor 0 to /synthesis/b64/conv0/affine/Gemm",
    "Location": "Device",
    "Dimensions": [1,512,1,1],
    "Format/Datatype": "Channel major FP16 format where channel % 8 == 0"
  }],
  "Outputs": [
  {
    "Name": "/synthesis/b64/conv0/affine/Gemm_out_tensor",
    "Location": "Device",
    "Dimensions": [1,512,1,1],
    "Format/Datatype": "Channel major FP16 format where channel % 8 == 0"
  }],
  "ParameterType": "Convolution",
  "Kernel": [1,1],
  "PaddingMode": "kEXPLICIT_ROUND_DOWN",
  "PrePadding": [0,0],
  "PostPadding": [0,0],
  "Stride": [1,1],
  "Dilation": [1,1],
  "OutMaps": 512,
  "Groups": 1,
  "Weights": {"Type": "Half", "Count": 262144},
  "Bias": {"Type": "Half", "Count": 512},
  "HasSparseWeights": 0,
  "HasDynamicFilter": 0,
  "HasDynamicBias": 0,
  "HasResidual": 0,
  "ConvXAsActInputIdx": -1,
  "BiasAsActInputIdx": -1,
  "ResAsActInputIdx": -1,
  "Activation": "NONE",
  "TacticName": "sm70_xmma_gemm_as_conv1x1_f16f16_f16_f16_tn_n_simt_small_batch_bias_relu",
  "TacticValue": "0x00000000000205c2"
},{
  "Name": "/synthesis/b64/Squeeze_1 + reshape_before_/synthesis/b64/conv1/affine/Gemm_copy_input",
  "LayerType": "Reformat",
  "Inputs": [
  {
    "Name": "/synthesis/Cast_output_0",
    "Location": "Device",
    "Dimensions": [1,1,512],
    "Format/Datatype": "Row major linear FP32"
  }],
  "Outputs": [
  {
    "Name": "/synthesis/b64/Squeeze_1 + reshape_before_/synthesis/b64/conv1/affine/Gemm_copy_input",
    "Location": "Device",
    "Dimensions": [1,1,512],
    "Format/Datatype": "Row major linear FP16 format"
  }],
  "ParameterType": "Reformat",
  "Origin": "SLICE",
  "TacticValue": "0x00000000000003e8"
},{
  "Name": "/synthesis/b64/Squeeze_1 + reshape_before_/synthesis/b64/conv1/affine/Gemm",
  "LayerType": "NoOp",
  "Inputs": [
  {
    "Name": "/synthesis/b64/Squeeze_1 + reshape_before_/synthesis/b64/conv1/affine/Gemm_copy_input",
    "Location": "Device",
    "Dimensions": [1,1,512],
    "Format/Datatype": "Row major linear FP16 format"
  }],
  "Outputs": [
  {
    "Name": "reshape_before_/synthesis/b64/conv1/affine/Gemm_out_tensor",
    "Location": "Device",
    "Dimensions": [1,512,1,1],
    "Format/Datatype": "Row major linear FP16 format"
  }],
  "TacticValue": "0x0000000000000000"
},{
  "Name": "Reformatting CopyNode for Input Tensor 0 to /synthesis/b64/conv1/affine/Gemm",
  "LayerType": "NoOp",
  "Inputs": [
  {
    "Name": "reshape_before_/synthesis/b64/conv1/affine/Gemm_out_tensor",
    "Location": "Device",
    "Dimensions": [1,512,1,1],
    "Format/Datatype": "Row major linear FP16 format"
  }],
  "Outputs": [
  {
    "Name": "Reformatted Input Tensor 0 to /synthesis/b64/conv1/affine/Gemm",
    "Location": "Device",
    "Dimensions": [1,512,1,1],
    "Format/Datatype": "Channel major FP16 format where channel % 8 == 0"
  }],
  "TacticValue": "0x0000000000000000"
},{
  "Name": "/synthesis/b64/conv1/affine/Gemm",
  "LayerType": "CaskGemmConvolution",
  "Inputs": [
  {
    "Name": "Reformatted Input Tensor 0 to /synthesis/b64/conv1/affine/Gemm",
    "Location": "Device",
    "Dimensions": [1,512,1,1],
    "Format/Datatype": "Channel major FP16 format where channel % 8 == 0"
  }],
  "Outputs": [
  {
    "Name": "/synthesis/b64/conv1/affine/Gemm_out_tensor",
    "Location": "Device",
    "Dimensions": [1,512,1,1],
    "Format/Datatype": "Channel major FP16 format where channel % 8 == 0"
  }],
  "ParameterType": "Convolution",
  "Kernel": [1,1],
  "PaddingMode": "kEXPLICIT_ROUND_DOWN",
  "PrePadding": [0,0],
  "PostPadding": [0,0],
  "Stride": [1,1],
  "Dilation": [1,1],
  "OutMaps": 512,
  "Groups": 1,
  "Weights": {"Type": "Half", "Count": 262144},
  "Bias": {"Type": "Half", "Count": 512},
  "HasSparseWeights": 0,
  "HasDynamicFilter": 0,
  "HasDynamicBias": 0,
  "HasResidual": 0,
  "ConvXAsActInputIdx": -1,
  "BiasAsActInputIdx": -1,
  "ResAsActInputIdx": -1,
  "Activation": "NONE",
  "TacticName": "sm70_xmma_gemm_as_conv1x1_f16f16_f16_f16_tn_n_simt_small_batch_bias_relu",
  "TacticValue": "0x00000000000205c2"
},{
  "Name": "/synthesis/b64/Squeeze_2 + reshape_before_/synthesis/b64/torgb/affine/Gemm_copy_input",
  "LayerType": "Reformat",
  "Inputs": [
  {
    "Name": "/synthesis/Cast_output_0",
    "Location": "Device",
    "Dimensions": [1,1,512],
    "Format/Datatype": "Row major linear FP32"
  }],
  "Outputs": [
  {
    "Name": "/synthesis/b64/Squeeze_2 + reshape_before_/synthesis/b64/torgb/affine/Gemm_copy_input",
    "Location": "Device",
    "Dimensions": [1,1,512],
    "Format/Datatype": "Row major linear FP16 format"
  }],
  "ParameterType": "Reformat",
  "Origin": "SLICE",
  "TacticValue": "0x00000000000003e8"
},{
  "Name": "/synthesis/b64/Squeeze_2 + reshape_before_/synthesis/b64/torgb/affine/Gemm",
  "LayerType": "NoOp",
  "Inputs": [
  {
    "Name": "/synthesis/b64/Squeeze_2 + reshape_before_/synthesis/b64/torgb/affine/Gemm_copy_input",
    "Location": "Device",
    "Dimensions": [1,1,512],
    "Format/Datatype": "Row major linear FP16 format"
  }],
  "Outputs": [
  {
    "Name": "reshape_before_/synthesis/b64/torgb/affine/Gemm_out_tensor",
    "Location": "Device",
    "Dimensions": [1,512,1,1],
    "Format/Datatype": "Row major linear FP16 format"
  }],
  "TacticValue": "0x0000000000000000"
},{
  "Name": "Reformatting CopyNode for Input Tensor 0 to /synthesis/b64/torgb/affine/Gemm + /synthesis/b64/torgb/Constant_output_0 + (Unnamed Layer* 828) [Shuffle] + unsqueeze_node_after_/synthesis/b64/torgb/Constant_output_0 + (Unnamed Layer* 828) [Shuffle]_(Unnamed Layer* 828) [Shuffle]_output + /synthesis/b64/torgb/Mul",
  "LayerType": "NoOp",
  "Inputs": [
  {
    "Name": "reshape_before_/synthesis/b64/torgb/affine/Gemm_out_tensor",
    "Location": "Device",
    "Dimensions": [1,512,1,1],
    "Format/Datatype": "Row major linear FP16 format"
  }],
  "Outputs": [
  {
    "Name": "Reformatted Input Tensor 0 to /synthesis/b64/torgb/affine/Gemm + /synthesis/b64/torgb/Constant_output_0 + (Unnamed Layer* 828) [Shuffle] + unsqueeze_node_after_/synthesis/b64/torgb/Constant_output_0 + (Unnamed Layer* 828) [Shuffle]_(Unnamed Layer* 828) [Shuffle]_output + /synthesis/b64/torgb/Mul",
    "Location": "Device",
    "Dimensions": [1,512,1,1],
    "Format/Datatype": "Channel major FP16 format where channel % 8 == 0"
  }],
  "TacticValue": "0x0000000000000000"
},{
  "Name": "/synthesis/b64/torgb/affine/Gemm + /synthesis/b64/torgb/Constant_output_0 + (Unnamed Layer* 828) [Shuffle] + unsqueeze_node_after_/synthesis/b64/torgb/Constant_output_0 + (Unnamed Layer* 828) [Shuffle]_(Unnamed Layer* 828) [Shuffle]_output + /synthesis/b64/torgb/Mul",
  "LayerType": "CaskGemmConvolution",
  "Inputs": [
  {
    "Name": "Reformatted Input Tensor 0 to /synthesis/b64/torgb/affine/Gemm + /synthesis/b64/torgb/Constant_output_0 + (Unnamed Layer* 828) [Shuffle] + unsqueeze_node_after_/synthesis/b64/torgb/Constant_output_0 + (Unnamed Layer* 828) [Shuffle]_(Unnamed Layer* 828) [Shuffle]_output + /synthesis/b64/torgb/Mul",
    "Location": "Device",
    "Dimensions": [1,512,1,1],
    "Format/Datatype": "Channel major FP16 format where channel % 8 == 0"
  }],
  "Outputs": [
  {
    "Name": "/synthesis/b64/torgb/Mul_out_tensor",
    "Location": "Device",
    "Dimensions": [1,512,1,1],
    "Format/Datatype": "Channel major FP16 format where channel % 8 == 0"
  }],
  "ParameterType": "Convolution",
  "Kernel": [1,1],
  "PaddingMode": "kEXPLICIT_ROUND_DOWN",
  "PrePadding": [0,0],
  "PostPadding": [0,0],
  "Stride": [1,1],
  "Dilation": [1,1],
  "OutMaps": 512,
  "Groups": 1,
  "Weights": {"Type": "Half", "Count": 262144},
  "Bias": {"Type": "Half", "Count": 512},
  "HasSparseWeights": 0,
  "HasDynamicFilter": 0,
  "HasDynamicBias": 0,
  "HasResidual": 0,
  "ConvXAsActInputIdx": -1,
  "BiasAsActInputIdx": -1,
  "ResAsActInputIdx": -1,
  "Activation": "NONE",
  "TacticName": "sm70_xmma_gemm_as_conv1x1_f16f16_f16_f16_tn_n_simt_small_batch_bias_relu",
  "TacticValue": "0x00000000000205c2"
},{
  "Name": "/synthesis/b128/Squeeze + reshape_before_/synthesis/b128/conv0/affine/Gemm_copy_input",
  "LayerType": "Reformat",
  "Inputs": [
  {
    "Name": "/synthesis/Cast_output_0",
    "Location": "Device",
    "Dimensions": [1,1,512],
    "Format/Datatype": "Row major linear FP32"
  }],
  "Outputs": [
  {
    "Name": "/synthesis/b128/Squeeze + reshape_before_/synthesis/b128/conv0/affine/Gemm_copy_input",
    "Location": "Device",
    "Dimensions": [1,1,512],
    "Format/Datatype": "Row major linear FP16 format"
  }],
  "ParameterType": "Reformat",
  "Origin": "SLICE",
  "TacticValue": "0x00000000000003e8"
},{
  "Name": "/synthesis/b128/Squeeze + reshape_before_/synthesis/b128/conv0/affine/Gemm",
  "LayerType": "NoOp",
  "Inputs": [
  {
    "Name": "/synthesis/b128/Squeeze + reshape_before_/synthesis/b128/conv0/affine/Gemm_copy_input",
    "Location": "Device",
    "Dimensions": [1,1,512],
    "Format/Datatype": "Row major linear FP16 format"
  }],
  "Outputs": [
  {
    "Name": "reshape_before_/synthesis/b128/conv0/affine/Gemm_out_tensor",
    "Location": "Device",
    "Dimensions": [1,512,1,1],
    "Format/Datatype": "Row major linear FP16 format"
  }],
  "TacticValue": "0x0000000000000000"
},{
  "Name": "Reformatting CopyNode for Input Tensor 0 to /synthesis/b128/conv0/affine/Gemm",
  "LayerType": "NoOp",
  "Inputs": [
  {
    "Name": "reshape_before_/synthesis/b128/conv0/affine/Gemm_out_tensor",
    "Location": "Device",
    "Dimensions": [1,512,1,1],
    "Format/Datatype": "Row major linear FP16 format"
  }],
  "Outputs": [
  {
    "Name": "Reformatted Input Tensor 0 to /synthesis/b128/conv0/affine/Gemm",
    "Location": "Device",
    "Dimensions": [1,512,1,1],
    "Format/Datatype": "Channel major FP16 format where channel % 8 == 0"
  }],
  "TacticValue": "0x0000000000000000"
},{
  "Name": "/synthesis/b128/conv0/affine/Gemm",
  "LayerType": "CaskGemmConvolution",
  "Inputs": [
  {
    "Name": "Reformatted Input Tensor 0 to /synthesis/b128/conv0/affine/Gemm",
    "Location": "Device",
    "Dimensions": [1,512,1,1],
    "Format/Datatype": "Channel major FP16 format where channel % 8 == 0"
  }],
  "Outputs": [
  {
    "Name": "/synthesis/b128/conv0/affine/Gemm_out_tensor",
    "Location": "Device",
    "Dimensions": [1,512,1,1],
    "Format/Datatype": "Channel major FP16 format where channel % 8 == 0"
  }],
  "ParameterType": "Convolution",
  "Kernel": [1,1],
  "PaddingMode": "kEXPLICIT_ROUND_DOWN",
  "PrePadding": [0,0],
  "PostPadding": [0,0],
  "Stride": [1,1],
  "Dilation": [1,1],
  "OutMaps": 512,
  "Groups": 1,
  "Weights": {"Type": "Half", "Count": 262144},
  "Bias": {"Type": "Half", "Count": 512},
  "HasSparseWeights": 0,
  "HasDynamicFilter": 0,
  "HasDynamicBias": 0,
  "HasResidual": 0,
  "ConvXAsActInputIdx": -1,
  "BiasAsActInputIdx": -1,
  "ResAsActInputIdx": -1,
  "Activation": "NONE",
  "TacticName": "sm70_xmma_gemm_as_conv1x1_f16f16_f16_f16_tn_n_simt_small_batch_bias_relu",
  "TacticValue": "0x00000000000205c2"
},{
  "Name": "/synthesis/b128/Squeeze_1 + reshape_before_/synthesis/b128/conv1/affine/Gemm_copy_input",
  "LayerType": "Reformat",
  "Inputs": [
  {
    "Name": "/synthesis/Cast_output_0",
    "Location": "Device",
    "Dimensions": [1,1,512],
    "Format/Datatype": "Row major linear FP32"
  }],
  "Outputs": [
  {
    "Name": "/synthesis/b128/Squeeze_1 + reshape_before_/synthesis/b128/conv1/affine/Gemm_copy_input",
    "Location": "Device",
    "Dimensions": [1,1,512],
    "Format/Datatype": "Row major linear FP16 format"
  }],
  "ParameterType": "Reformat",
  "Origin": "SLICE",
  "TacticValue": "0x00000000000003e8"
},{
  "Name": "/synthesis/b128/Squeeze_1 + reshape_before_/synthesis/b128/conv1/affine/Gemm",
  "LayerType": "NoOp",
  "Inputs": [
  {
    "Name": "/synthesis/b128/Squeeze_1 + reshape_before_/synthesis/b128/conv1/affine/Gemm_copy_input",
    "Location": "Device",
    "Dimensions": [1,1,512],
    "Format/Datatype": "Row major linear FP16 format"
  }],
  "Outputs": [
  {
    "Name": "reshape_before_/synthesis/b128/conv1/affine/Gemm_out_tensor",
    "Location": "Device",
    "Dimensions": [1,512,1,1],
    "Format/Datatype": "Row major linear FP16 format"
  }],
  "TacticValue": "0x0000000000000000"
},{
  "Name": "/synthesis/b128/conv1/affine/Gemm",
  "LayerType": "CaskGemmConvolution",
  "Inputs": [
  {
    "Name": "reshape_before_/synthesis/b128/conv1/affine/Gemm_out_tensor",
    "Location": "Device",
    "Dimensions": [1,512,1,1],
    "Format/Datatype": "Row major linear FP16 format"
  }],
  "Outputs": [
  {
    "Name": "/synthesis/b128/conv1/affine/Gemm_out_tensor",
    "Location": "Device",
    "Dimensions": [1,256,1,1],
    "Format/Datatype": "Row major linear FP16 format"
  }],
  "ParameterType": "Convolution",
  "Kernel": [1,1],
  "PaddingMode": "kEXPLICIT_ROUND_DOWN",
  "PrePadding": [0,0],
  "PostPadding": [0,0],
  "Stride": [1,1],
  "Dilation": [1,1],
  "OutMaps": 256,
  "Groups": 1,
  "Weights": {"Type": "Half", "Count": 131072},
  "Bias": {"Type": "Half", "Count": 256},
  "HasSparseWeights": 0,
  "HasDynamicFilter": 0,
  "HasDynamicBias": 0,
  "HasResidual": 0,
  "ConvXAsActInputIdx": -1,
  "BiasAsActInputIdx": -1,
  "ResAsActInputIdx": -1,
  "Activation": "NONE",
  "TacticName": "sm50_xmma_cublas_gemvx_f16f16_f32_f32_tn_n_int32_unit_n_launch_param8x32x32_strided_unit_stride",
  "TacticValue": "0x00000000000203fe"
},{
  "Name": "/synthesis/b128/Squeeze_2 + reshape_before_/synthesis/b128/torgb/affine/Gemm_copy_input",
  "LayerType": "Reformat",
  "Inputs": [
  {
    "Name": "/synthesis/Cast_output_0",
    "Location": "Device",
    "Dimensions": [1,1,512],
    "Format/Datatype": "Row major linear FP32"
  }],
  "Outputs": [
  {
    "Name": "/synthesis/b128/Squeeze_2 + reshape_before_/synthesis/b128/torgb/affine/Gemm_copy_input",
    "Location": "Device",
    "Dimensions": [1,1,512],
    "Format/Datatype": "Row major linear FP16 format"
  }],
  "ParameterType": "Reformat",
  "Origin": "SLICE",
  "TacticValue": "0x00000000000003e8"
},{
  "Name": "/synthesis/b128/Squeeze_2 + reshape_before_/synthesis/b128/torgb/affine/Gemm",
  "LayerType": "NoOp",
  "Inputs": [
  {
    "Name": "/synthesis/b128/Squeeze_2 + reshape_before_/synthesis/b128/torgb/affine/Gemm_copy_input",
    "Location": "Device",
    "Dimensions": [1,1,512],
    "Format/Datatype": "Row major linear FP16 format"
  }],
  "Outputs": [
  {
    "Name": "reshape_before_/synthesis/b128/torgb/affine/Gemm_out_tensor",
    "Location": "Device",
    "Dimensions": [1,512,1,1],
    "Format/Datatype": "Row major linear FP16 format"
  }],
  "TacticValue": "0x0000000000000000"
},{
  "Name": "/synthesis/b128/torgb/affine/Gemm + /synthesis/b128/torgb/Constant_output_0 + (Unnamed Layer* 991) [Shuffle] + unsqueeze_node_after_/synthesis/b128/torgb/Constant_output_0 + (Unnamed Layer* 991) [Shuffle]_(Unnamed Layer* 991) [Shuffle]_output + /synthesis/b128/torgb/Mul",
  "LayerType": "CaskGemmConvolution",
  "Inputs": [
  {
    "Name": "reshape_before_/synthesis/b128/torgb/affine/Gemm_out_tensor",
    "Location": "Device",
    "Dimensions": [1,512,1,1],
    "Format/Datatype": "Row major linear FP16 format"
  }],
  "Outputs": [
  {
    "Name": "/synthesis/b128/torgb/Mul_out_tensor",
    "Location": "Device",
    "Dimensions": [1,256,1,1],
    "Format/Datatype": "Row major linear FP16 format"
  }],
  "ParameterType": "Convolution",
  "Kernel": [1,1],
  "PaddingMode": "kEXPLICIT_ROUND_DOWN",
  "PrePadding": [0,0],
  "PostPadding": [0,0],
  "Stride": [1,1],
  "Dilation": [1,1],
  "OutMaps": 256,
  "Groups": 1,
  "Weights": {"Type": "Half", "Count": 131072},
  "Bias": {"Type": "Half", "Count": 256},
  "HasSparseWeights": 0,
  "HasDynamicFilter": 0,
  "HasDynamicBias": 0,
  "HasResidual": 0,
  "ConvXAsActInputIdx": -1,
  "BiasAsActInputIdx": -1,
  "ResAsActInputIdx": -1,
  "Activation": "NONE",
  "TacticName": "sm50_xmma_cublas_gemvx_f16f16_f32_f32_tn_n_int32_unit_n_launch_param8x32x32_strided_unit_stride",
  "TacticValue": "0x00000000000203fe"
},{
  "Name": "/synthesis/b256/Squeeze + reshape_before_/synthesis/b256/conv0/affine/Gemm_copy_input",
  "LayerType": "Reformat",
  "Inputs": [
  {
    "Name": "/synthesis/Cast_output_0",
    "Location": "Device",
    "Dimensions": [1,1,512],
    "Format/Datatype": "Row major linear FP32"
  }],
  "Outputs": [
  {
    "Name": "/synthesis/b256/Squeeze + reshape_before_/synthesis/b256/conv0/affine/Gemm_copy_input",
    "Location": "Device",
    "Dimensions": [1,1,512],
    "Format/Datatype": "Row major linear FP16 format"
  }],
  "ParameterType": "Reformat",
  "Origin": "SLICE",
  "TacticValue": "0x00000000000003e8"
},{
  "Name": "/synthesis/b256/Squeeze + reshape_before_/synthesis/b256/conv0/affine/Gemm",
  "LayerType": "NoOp",
  "Inputs": [
  {
    "Name": "/synthesis/b256/Squeeze + reshape_before_/synthesis/b256/conv0/affine/Gemm_copy_input",
    "Location": "Device",
    "Dimensions": [1,1,512],
    "Format/Datatype": "Row major linear FP16 format"
  }],
  "Outputs": [
  {
    "Name": "reshape_before_/synthesis/b256/conv0/affine/Gemm_out_tensor",
…
    "Location": "Device",
    "Dimensions": [1,128,256,256],
    "Format/Datatype": "Row major linear FP16 format"
  }],
  "Outputs": [
  {
    "Name": "/synthesis/b256/conv0/Mul_4_output_0",
    "Location": "Device",
    "Dimensions": [1,128,256,256],
    "Format/Datatype": "Row major linear FP16 format"
  }],
  "ParameterType": "PointWise",
  "ParameterSubType": "PointWiseExpression",
  "NbInputArgs": 1,
  "InputArgs": ["arg0"],
  "NbOutputVars": 1,
  "OutputVars": ["var3"],
  "NbParams": 0,
  "Params": [],
  "NbLiterals": 6,
  "Literals": ["0.000000e+00f", "1.000000e+00f", "2.000000e-01f", "0.000000e+00f", "0.000000e+00f", "1.414214e+00f"],
  "NbOperations": 4,
  "Operations": ["auto const var0 = pwgen::iMul(arg0, literal2);", "auto const var1 = pwgen::iCmpLT(arg0, literal0);", "auto const var2 = pwgen::iSelect(var1, var0, arg0);", "auto const var3 = pwgen::iMul(var2, literal5);"],
  "TacticValue": "0x0000000000000002"
},{
  "Name": "Reformatting CopyNode for Input Tensor 0 to /synthesis/b256/conv1/Conv",
  "LayerType": "Reformat",
  "Inputs": [
  {
    "Name": "/synthesis/b256/conv0/Mul_4_output_0",
    "Location": "Device",
    "Dimensions": [1,128,256,256],
    "Format/Datatype": "Row major linear FP16 format"
  }],
  "Outputs": [
  {
    "Name": "Reformatted Input Tensor 0 to /synthesis/b256/conv1/Conv",
    "Location": "Device",
    "Dimensions": [1,128,256,256],
    "Format/Datatype": "Channel major FP16 format where channel % 8 == 0"
  }],
  "ParameterType": "Reformat",
  "Origin": "REFORMAT",
  "TacticValue": "0x00000000000003ea"
},{
  "Name": "/synthesis/b256/conv1/Conv",
  "LayerType": "CaskConvolution",
  "Inputs": [
  {
    "Name": "Reformatted Input Tensor 0 to /synthesis/b256/conv1/Conv",
    "Location": "Device",
    "Dimensions": [1,128,256,256],
    "Format/Datatype": "Channel major FP16 format where channel % 8 == 0"
  },
  {
    "Name": "/synthesis/b256/conv1/Cast_output_0",
    "Location": "Device",
    "Dimensions": [128,128,3,3],
    "Format/Datatype": "Row major linear FP16 format"
  }],
  "Outputs": [
  {
    "Name": "/synthesis/b256/conv1/Conv_output_0",
    "Location": "Device",
    "Dimensions": [1,128,256,256],
    "Format/Datatype": "Channel major FP16 format where channel % 8 == 0"
  }],
  "ParameterType": "Convolution",
  "Kernel": [3,3],
  "PaddingMode": "kEXPLICIT_ROUND_DOWN",
  "PrePadding": [1,1],
  "PostPadding": [1,1],
  "Stride": [1,1],
  "Dilation": [1,1],
  "OutMaps": 128,
  "Groups": 1,
  "Weights": {"Type": "Half", "Count": 0},
  "Bias": {"Type": "Half", "Count": 0},
  "HasSparseWeights": 0,
  "HasDynamicFilter": 1,
  "HasDynamicBias": 0,
  "HasResidual": 0,
  "ConvXAsActInputIdx": -1,
  "BiasAsActInputIdx": -1,
  "ResAsActInputIdx": -1,
  "Activation": "NONE",
  "HasBias": 0,
  "HasReLU": 0,
  "TacticName": "ampere_h1688cudnn_128x128_ldg8_relu_exp_small_nhwc_tn_v1",
  "TacticValue": "0x3369260c04f9ad73"
},{
  "Name": "PWN(synthesis.b256.conv1.noise_strength + (Unnamed Layer* 1090) [Shuffle] + /synthesis/b256/conv1/Mul, /synthesis/b256/conv1/Add_1)",
  "LayerType": "PointWiseV2",
  "Inputs": [
  {
    "Name": "/synthesis/b256/conv1/RandomNormalLike_output_0",
    "Location": "Device",
    "Dimensions": [1,1,256,256],
    "Format/Datatype": "Channel major FP16 format where channel % 8 == 0"
  },
  {
    "Name": "/synthesis/b256/conv1/Conv_output_0",
    "Location": "Device",
    "Dimensions": [1,128,256,256],
    "Format/Datatype": "Channel major FP16 format where channel % 8 == 0"
  }],
  "Outputs": [
  {
    "Name": "/synthesis/b256/conv1/Add_1_output_0",
    "Location": "Device",
    "Dimensions": [1,128,256,256],
    "Format/Datatype": "Channel major FP16 format where channel % 8 == 0"
  }],
  "ParameterType": "PointWise",
  "ParameterSubType": "PointWiseExpression",
  "NbInputArgs": 2,
  "InputArgs": ["arg0", "arg1"],
  "NbOutputVars": 1,
  "OutputVars": ["var1"],
  "NbParams": 0,
  "Params": [],
  "NbLiterals": 2,
  "Literals": ["0.000000e+00f", "-1.755815e-03f"],
  "NbOperations": 2,
  "Operations": ["auto const var0 = pwgen::iMul(arg0, literal1);", "auto const var1 = pwgen::iPlus(arg1, var0);"],
  "TacticValue": "0x000000000000001e"
},{
  "Name": "onnx::Add_4038 + /synthesis/b256/conv1/Add_2",
  "LayerType": "Scale",
  "Inputs": [
  {
    "Name": "/synthesis/b256/conv1/Add_1_output_0",
    "Location": "Device",
    "Dimensions": [1,128,256,256],
    "Format/Datatype": "Channel major FP16 format where channel % 8 == 0"
  }],
  "Outputs": [
  {
    "Name": "/synthesis/b256/conv1/Add_2_output_0",
    "Location": "Device",
    "Dimensions": [1,128,256,256],
    "Format/Datatype": "Channel major FP16 format where channel % 8 == 0"
  }],
  "ParameterType": "Scale",
  "Mode": "CHANNEL",
  "Shift": {"Type": "Half", "Count": 128},
  "Scale": {"Type": "Half", "Count": 0},
  "Power": {"Type": "Half", "Count": 0},
  "Activation": "NONE",
  "ChannelAxis": 1,
  "TacticValue": "0x0000000000000000"
},{
  "Name": "PWN(PWN(/synthesis/b256/conv1/LeakyRelu), /synthesis/b256/conv1/Constant_8_output_0 + (Unnamed Layer* 1116) [Shuffle] + /synthesis/b256/conv1/Mul_4)",
  "LayerType": "PointWiseV2",
  "Inputs": [
  {
    "Name": "/synthesis/b256/conv1/Add_2_output_0",
    "Location": "Device",
    "Dimensions": [1,128,256,256],
    "Format/Datatype": "Channel major FP16 format where channel % 8 == 0"
  }],
  "Outputs": [
  {
    "Name": "/synthesis/b256/conv1/Mul_4_output_0",
    "Location": "Device",
    "Dimensions": [1,128,256,256],
    "Format/Datatype": "Channel major FP16 format where channel % 8 == 0"
  }],
  "ParameterType": "PointWise",
  "ParameterSubType": "PointWiseExpression",
  "NbInputArgs": 1,
  "InputArgs": ["arg0"],
  "NbOutputVars": 1,
  "OutputVars": ["var3"],
  "NbParams": 0,
  "Params": [],
  "NbLiterals": 6,
  "Literals": ["0.000000e+00f", "1.000000e+00f", "2.000000e-01f", "0.000000e+00f", "0.000000e+00f", "1.414214e+00f"],
  "NbOperations": 4,
  "Operations": ["auto const var0 = pwgen::iMul(arg0, literal2);", "auto const var1 = pwgen::iCmpLT(arg0, literal0);", "auto const var2 = pwgen::iSelect(var1, var0, arg0);", "auto const var3 = pwgen::iMul(var2, literal5);"],
  "TacticValue": "0x000000000000001e"
},{
  "Name": "/synthesis/b512/Cast",
  "LayerType": "NoOp",
  "Inputs": [
  {
    "Name": "/synthesis/b256/conv1/Mul_4_output_0",
    "Location": "Device",
    "Dimensions": [1,128,256,256],
    "Format/Datatype": "Channel major FP16 format where channel % 8 == 0"
  }],
  "Outputs": [
  {
    "Name": "/synthesis/b512/Cast_output_0",
    "Location": "Device",
    "Dimensions": [1,128,256,256],
    "Format/Datatype": "Channel major FP16 format where channel % 8 == 0"
  }],
  "TacticValue": "0x0000000000000000"
},{
  "Name": "/synthesis/b256/torgb/Conv + onnx::Add_4091 + /synthesis/b256/torgb/Add",
  "LayerType": "CaskConvolution",
  "Inputs": [
  {
    "Name": "/synthesis/b256/conv1/Mul_4_output_0",
    "Location": "Device",
    "Dimensions": [1,128,256,256],
    "Format/Datatype": "Channel major FP16 format where channel % 8 == 0"
  },
  {
    "Name": "/synthesis/b256/torgb/Cast_output_0",
    "Location": "Device",
    "Dimensions": [3,128,1,1],
    "Format/Datatype": "Row major linear FP16 format"
  }],
  "Outputs": [
  {
    "Name": "/synthesis/b256/torgb/Add_output_0",
    "Location": "Device",
    "Dimensions": [1,3,256,256],
    "Format/Datatype": "Channel major FP16 format where channel % 8 == 0"
  }],
  "ParameterType": "Convolution",
  "Kernel": [1,1],
  "PaddingMode": "kEXPLICIT_ROUND_DOWN",
  "PrePadding": [0,0],
  "PostPadding": [0,0],
  "Stride": [1,1],
  "Dilation": [1,1],
  "OutMaps": 3,
  "Groups": 1,
  "Weights": {"Type": "Half", "Count": 0},
  "Bias": {"Type": "Half", "Count": 3},
  "HasSparseWeights": 0,
  "HasDynamicFilter": 1,
  "HasDynamicBias": 0,
  "HasResidual": 0,
  "ConvXAsActInputIdx": -1,
  "BiasAsActInputIdx": -1,
  "ResAsActInputIdx": -1,
  "Activation": "NONE",
  "HasBias": 1,
  "HasReLU": 0,
  "TacticName": "sm80_xmma_fprop_implicit_gemm_f16f16_f16f16_f16_nhwckrsc_nhwc_tilesize64x32x64_stage5_warpsize2x2x1_g1_tensor16x8x16_simple_t1r1s1",
  "TacticValue": "0xe69f3e9fcc7b2069"
},{
  "Name": "/synthesis/b512/conv0/ConvTranspose",
  "LayerType": "CaskDeconvolutionV2",
  "Inputs": [
  {
    "Name": "/synthesis/b512/Cast_output_0",
    "Location": "Device",
    "Dimensions": [1,128,256,256],
    "Format/Datatype": "Channel major FP16 format where channel % 8 == 0"
  },
  {
    "Name": "/synthesis/b512/conv0/Transpose_output_0",
    "Location": "Device",
    "Dimensions": [128,64,3,3],
    "Format/Datatype": "Row major linear FP16 format"
  }],
  "Outputs": [
  {
    "Name": "/synthesis/b512/conv0/ConvTranspose_output_0",
    "Location": "Device",
    "Dimensions": [1,64,513,513],
    "Format/Datatype": "Channel major FP16 format where channel % 8 == 0"
  }],
  "HasBias": 0,
  "HasReLU": 0,
  "TacticName": "sm80_xmma_deconv_implicit_gemm_indexed_f16f16_f16f16_f16_nhwckrsc_nhwc_tilesize256x64x32_stage3_warpsize4x1x1_g1_tensor16x8x16_strided",
  "TacticValue": "0x9c2afe40f043a2af"
},{
  "Name": "Reformatting CopyNode for Input Tensor 0 to /synthesis/b512/conv0/Reshape_4",
  "LayerType": "Reformat",
  "Inputs": [
  {
    "Name": "/synthesis/b512/conv0/ConvTranspose_output_0",
    "Location": "Device",
    "Dimensions": [1,64,513,513],
    "Format/Datatype": "Channel major FP16 format where channel % 8 == 0"
  }],
  "Outputs": [
  {
    "Name": "Reformatted Input Tensor 0 to /synthesis/b512/conv0/Reshape_4",
    "Location": "Device",
    "Dimensions": [1,64,513,513],
    "Format/Datatype": "Row major linear FP16 format"
  }],
  "ParameterType": "Reformat",
  "Origin": "REFORMAT",
  "TacticValue": "0x0000000000000000"
},{
  "Name": "/synthesis/b512/conv0/Reshape_4",
  "LayerType": "NoOp",
  "Inputs": [
  {
    "Name": "Reformatted Input Tensor 0 to /synthesis/b512/conv0/Reshape_4",
    "Location": "Device",
    "Dimensions": [1,64,513,513],
    "Format/Datatype": "Row major linear FP16 format"
  }],
  "Outputs": [
  {
    "Name": "/synthesis/b512/conv0/Reshape_4_output_0",
    "Location": "Device",
    "Dimensions": [1,64,513,1,513,1],
    "Format/Datatype": "Row major linear FP16 format"
  }],
  "TacticValue": "0x0000000000000000"
},{
  "Name": "/synthesis/b256/Cast_1",
  "LayerType": "NoOp",
  "Inputs": [
  {
    "Name": "/synthesis/b256/torgb/Add_output_0",
    "Location": "Device",
    "Dimensions": [1,3,256,256],
    "Format/Datatype": "Channel major FP16 format where channel % 8 == 0"
  }],
  "Outputs": [
  {
    "Name": "/synthesis/b256/Cast_1_output_0",
    "Location": "Device",
    "Dimensions": [1,3,256,256],
    "Format/Datatype": "Channel major FP16 format where channel % 8 == 0"
  }],
  "TacticValue": "0x0000000000000000"
},{
  "Name": "(Unnamed Layer* 1208) [Identity]",
  "LayerType": "NoOp",
  "Inputs": [
  {
    "Name": "/synthesis/b512/conv0/Reshape_4_output_0",
    "Location": "Device",
    "Dimensions": [1,64,513,1,513,1],
    "Format/Datatype": "Row major linear FP16 format"
  }],
  "Outputs": [
  {
    "Name": "/synthesis/b512/conv0/Pad_output_0",
    "Location": "Device",
    "Dimensions": [1,64,513,1,513,1],
    "Format/Datatype": "Row major linear FP16 format"
  }],
  "TacticValue": "0x0000000000000000"
},{
  "Name": "Reformatting CopyNode for Input Tensor 2 to /synthesis/b256/Pad_1 + /synthesis/b256/Conv + /synthesis/b256/Add",
  "LayerType": "Reformat",
  "Inputs": [
  {
    "Name": "/synthesis/b256/Cast_1_output_0",
    "Location": "Device",
    "Dimensions": [1,3,256,256],
    "Format/Datatype": "Channel major FP16 format where channel % 8 == 0"
  }],
  "Outputs": [
  {
    "Name": "Reformatted Input Tensor 2 to /synthesis/b256/Pad_1 + /synthesis/b256/Conv + /synthesis/b256/Add",
    "Location": "Device",
    "Dimensions": [1,3,256,256],
    "Format/Datatype": "Row major linear FP32"
  }],
  "ParameterType": "Reformat",
  "Origin": "REFORMAT",
  "TacticValue": "0x0000000000000000"
},{
  "Name": "/synthesis/b256/Pad_1 + /synthesis/b256/Conv + /synthesis/b256/Add",
  "LayerType": "CaskConvolution",
  "Inputs": [
  {
    "Name": "/synthesis/b256/Reshape_1_output_0",
    "Location": "Device",
    "Dimensions": [1,3,256,256],
    "Format/Datatype": "Row major linear FP32"
  },
  {
    "Name": "/synthesis/b256/Tile_output_0",
    "Location": "Device",
    "Dimensions": [3,1,4,4],
    "Format/Datatype": "Row major linear FP32"
  },
  {
    "Name": "Reformatted Input Tensor 2 to /synthesis/b256/Pad_1 + /synthesis/b256/Conv + /synthesis/b256/Add",
    "Location": "Device",
    "Dimensions": [1,3,256,256],
    "Format/Datatype": "Row major linear FP32"
  }],
  "Outputs": [
  {
    "Name": "/synthesis/b256/Add_output_0",
    "Location": "Device",
    "Dimensions": [1,3,256,256],
    "Format/Datatype": "Row major linear FP32"
  }],
  "ParameterType": "Convolution",
  "Kernel": [4,4],
  "PaddingMode": "kEXPLICIT_ROUND_DOWN",
  "PrePadding": [2,2],
  "PostPadding": [1,1],
  "Stride": [1,1],
  "Dilation": [1,1],
  "OutMaps": 3,
  "Groups": 3,
  "Weights": {"Type": "Float", "Count": 0},
  "Bias": {"Type": "Float", "Count": 0},
  "HasSparseWeights": 0,
  "HasDynamicFilter": 1,
  "HasDynamicBias": 0,
  "HasResidual": 1,
  "ConvXAsActInputIdx": -1,
  "BiasAsActInputIdx": -1,
  "ResAsActInputIdx": -1,
  "Activation": "NONE",
  "HasBias": 0,
  "HasReLU": 0,
  "TacticName": "conv2d_grouped_direct_f32f32f32_nchw_nchw",
  "TacticValue": "0x0350af78f23e2120"
},{
  "Name": "/synthesis/b512/conv0/Reshape_5",
  "LayerType": "NoOp",
  "Inputs": [
  {
    "Name": "/synthesis/b512/conv0/Pad_output_0",
    "Location": "Device",
    "Dimensions": [1,64,513,1,513,1],
    "Format/Datatype": "Row major linear FP16 format"
  }],
  "Outputs": [
  {
    "Name": "/synthesis/b512/conv0/Reshape_5_output_0",
    "Location": "Device",
    "Dimensions": [1,64,513,513],
    "Format/Datatype": "Row major linear FP16 format"
  }],
  "TacticValue": "0x0000000000000000"
},{
  "Name": "/synthesis/b512/Reshape",
  "LayerType": "NoOp",
  "Inputs": [
  {
    "Name": "/synthesis/b256/Add_output_0",
    "Location": "Device",
    "Dimensions": [1,3,256,256],
    "Format/Datatype": "Row major linear FP32"
  }],
  "Outputs": [
  {
    "Name": "/synthesis/b512/Reshape_output_0",
    "Location": "Device",
    "Dimensions": [1,3,256,1,256,1],
    "Format/Datatype": "Row major linear FP32"
  }],
  "TacticValue": "0x0000000000000000"
},{
  "Name": "/synthesis/b512/Pad",
  "LayerType": "Slice",
  "Inputs": [
  {
    "Name": "/synthesis/b512/Reshape_output_0",
    "Location": "Device",
    "Dimensions": [1,3,256,1,256,1],
    "Format/Datatype": "Row major linear FP32"
  }],
  "Outputs": [
  {
    "Name": "/synthesis/b512/Pad_output_0",
    "Location": "Device",
    "Dimensions": [1,3,256,2,256,2],
    "Format/Datatype": "Row major linear FP32"
  }],
  "ParameterType": "Slice",
  "Start": [0,0,0,0,0,0],
  "Size": [1,3,256,2,256,2],
  "Stride": [1,1,1,1,1,1],
  "Mode": "FILL",
  "negativeInfinityPadding": 0,
  "TacticValue": "0x0000000000000000"
},{
  "Name": "/synthesis/b512/Reshape_1",
  "LayerType": "NoOp",
  "Inputs": [
  {
    "Name": "/synthesis/b512/Pad_output_0",
    "Location": "Device",
    "Dimensions": [1,3,256,2,256,2],
    "Format/Datatype": "Row major linear FP32"
  }],
  "Outputs": [
  {
    "Name": "/synthesis/b512/Reshape_1_output_0",
    "Location": "Device",
    "Dimensions": [1,3,512,512],
    "Format/Datatype": "Row major linear FP32"
  }],
  "TacticValue": "0x0000000000000000"
},{
  "Name": "/synthesis/b512/conv0/Pad_1 + /synthesis/b512/conv0/Conv",
  "LayerType": "CaskConvolution",
  "Inputs": [
  {
    "Name": "/synthesis/b512/conv0/Reshape_5_output_0",
    "Location": "Device",
    "Dimensions": [1,64,513,513],
    "Format/Datatype": "Row major linear FP16 format"
  },
  {
    "Name": "/synthesis/b512/conv0/Tile_output_0",
    "Location": "Device",
    "Dimensions": [64,1,4,4],
    "Format/Datatype": "Row major linear FP16 format"
  }],
  "Outputs": [
  {
    "Name": "/synthesis/b512/conv0/Conv_output_0",
    "Location": "Device",
    "Dimensions": [1,64,512,512],
    "Format/Datatype": "Row major linear FP16 format"
  }],
  "ParameterType": "Convolution",
  "Kernel": [4,4],
  "PaddingMode": "kEXPLICIT_ROUND_DOWN",
  "PrePadding": [1,1],
  "PostPadding": [1,1],
  "Stride": [1,1],
  "Dilation": [1,1],
  "OutMaps": 64,
  "Groups": 64,
  "Weights": {"Type": "Half", "Count": 0},
  "Bias": {"Type": "Half", "Count": 0},
  "HasSparseWeights": 0,
  "HasDynamicFilter": 1,
  "HasDynamicBias": 0,
  "HasResidual": 0,
  "ConvXAsActInputIdx": -1,
  "BiasAsActInputIdx": -1,
  "ResAsActInputIdx": -1,
  "Activation": "NONE",
  "HasBias": 0,
  "HasReLU": 0,
  "TacticName": "conv2d_grouped_direct_largeK_f16f16f16_nchw_nchw",
  "TacticValue": "0x287db914a78b9567"
},{
  "Name": "PWN(synthesis.b512.conv0.noise_strength + (Unnamed Layer* 1186) [Shuffle] + /synthesis/b512/conv0/Mul, /synthesis/b512/conv0/Add_1)",
  "LayerType": "PointWiseV2",
  "Inputs": [
  {
    "Name": "/synthesis/b512/conv0/RandomNormalLike_output_0",
    "Location": "Device",
    "Dimensions": [1,1,512,512],
    "Format/Datatype": "Row major linear FP16 format"
  },
  {
    "Name": "/synthesis/b512/conv0/Conv_output_0",
    "Location": "Device",
    "Dimensions": [1,64,512,512],
    "Format/Datatype": "Row major linear FP16 format"
  }],
  "Outputs": [
  {
    "Name": "/synthesis/b512/conv0/Add_1_output_0",
    "Location": "Device",
    "Dimensions": [1,64,512,512],
    "Format/Datatype": "Row major linear FP16 format"
  }],
  "ParameterType": "PointWise",
  "ParameterSubType": "PointWiseExpression",
  "NbInputArgs": 2,
  "InputArgs": ["arg0", "arg1"],
  "NbOutputVars": 1,
  "OutputVars": ["var1"],
  "NbParams": 0,
  "Params": [],
  "NbLiterals": 2,
  "Literals": ["0.000000e+00f", "-4.998343e-02f"],
  "NbOperations": 2,
  "Operations": ["auto const var0 = pwgen::iMul(arg0, literal1);", "auto const var1 = pwgen::iPlus(arg1, var0);"],
  "TacticValue": "0x0000000000000002"
},{
  "Name": "onnx::Add_4155 + /synthesis/b512/conv0/Add_2",
  "LayerType": "Scale",
  "Inputs": [
  {
    "Name": "/synthesis/b512/conv0/Add_1_output_0",
    "Location": "Device",
    "Dimensions": [1,64,512,512],
    "Format/Datatype": "Row major linear FP16 format"
  }],
  "Outputs": [
  {
    "Name": "/synthesis/b512/conv0/Add_2_output_0",
    "Location": "Device",
    "Dimensions": [1,64,512,512],
    "Format/Datatype": "Row major linear FP16 format"
  }],
  "ParameterType": "Scale",
  "Mode": "CHANNEL",
  "Shift": {"Type": "Half", "Count": 64},
  "Scale": {"Type": "Half", "Count": 0},
  "Power": {"Type": "Half", "Count": 0},
  "Activation": "NONE",
  "ChannelAxis": 1,
  "TacticValue": "0x0000000000000000"
},{
  "Name": "PWN(PWN(/synthesis/b512/conv0/LeakyRelu), /synthesis/b512/conv0/Constant_24_output_0 + (Unnamed Layer* 1240) [Shuffle] + /synthesis/b512/conv0/Mul_4)",
  "LayerType": "PointWiseV2",
  "Inputs": [
  {
    "Name": "/synthesis/b512/conv0/Add_2_output_0",
    "Location": "Device",
    "Dimensions": [1,64,512,512],
    "Format/Datatype": "Row major linear FP16 format"
  }],
  "Outputs": [
  {
    "Name": "/synthesis/b512/conv0/Mul_4_output_0",
    "Location": "Device",
    "Dimensions": [1,64,512,512],
    "Format/Datatype": "Row major linear FP16 format"
  }],
  "ParameterType": "PointWise",
  "ParameterSubType": "PointWiseExpression",
  "NbInputArgs": 1,
  "InputArgs": ["arg0"],
  "NbOutputVars": 1,
  "OutputVars": ["var3"],
  "NbParams": 0,
  "Params": [],
  "NbLiterals": 6,
  "Literals": ["0.000000e+00f", "1.000000e+00f", "2.000000e-01f", "0.000000e+00f", "0.000000e+00f", "1.414214e+00f"],
  "NbOperations": 4,
  "Operations": ["auto const var0 = pwgen::iMul(arg0, literal2);", "auto const var1 = pwgen::iCmpLT(arg0, literal0);", "auto const var2 = pwgen::iSelect(var1, var0, arg0);", "auto const var3 = pwgen::iMul(var2, literal5);"],
  "TacticValue": "0x0000000000000002"
},{
  "Name": "Reformatting CopyNode for Input Tensor 0 to /synthesis/b512/conv1/Conv",
  "LayerType": "Reformat",
  "Inputs": [
  {
    "Name": "/synthesis/b512/conv0/Mul_4_output_0",
    "Location": "Device",
    "Dimensions": [1,64,512,512],
    "Format/Datatype": "Row major linear FP16 format"
  }],
  "Outputs": [
  {
    "Name": "Reformatted Input Tensor 0 to /synthesis/b512/conv1/Conv",
    "Location": "Device",
    "Dimensions": [1,64,512,512],
    "Format/Datatype": "Channel major FP16 format where channel % 8 == 0"
  }],
  "ParameterType": "Reformat",
  "Origin": "REFORMAT",
  "TacticValue": "0x00000000000003ea"
},{
  "Name": "/synthesis/b512/conv1/Conv",
  "LayerType": "CaskConvolution",
  "Inputs": [
  {
    "Name": "Reformatted Input Tensor 0 to /synthesis/b512/conv1/Conv",
    "Location": "Device",
    "Dimensions": [1,64,512,512],
    "Format/Datatype": "Channel major FP16 format where channel % 8 == 0"
  },
  {
    "Name": "/synthesis/b512/conv1/Cast_output_0",
    "Location": "Device",
    "Dimensions": [64,64,3,3],
    "Format/Datatype": "Row major linear FP16 format"
  }],
  "Outputs": [
  {
    "Name": "/synthesis/b512/conv1/Conv_output_0",
    "Location": "Device",
    "Dimensions": [1,64,512,512],
    "Format/Datatype": "Channel major FP16 format where channel % 8 == 0"
  }],
  "ParameterType": "Convolution",
  "Kernel": [3,3],
  "PaddingMode": "kEXPLICIT_ROUND_DOWN",
  "PrePadding": [1,1],
  "PostPadding": [1,1],
  "Stride": [1,1],
  "Dilation": [1,1],
  "OutMaps": 64,
  "Groups": 1,
  "Weights": {"Type": "Half", "Count": 0},
  "Bias": {"Type": "Half", "Count": 0},
  "HasSparseWeights": 0,
  "HasDynamicFilter": 1,
  "HasDynamicBias": 0,
  "HasResidual": 0,
  "ConvXAsActInputIdx": -1,
  "BiasAsActInputIdx": -1,
  "ResAsActInputIdx": -1,
  "Activation": "NONE",
  "HasBias": 0,
  "HasReLU": 0,
  "TacticName": "ampere_h1688cudnn_256x64_ldg8_relu_exp_small_nhwc_tn_v1",
  "TacticValue": "0x7aad3976677d7155"
},{
  "Name": "PWN(synthesis.b512.conv1.noise_strength + (Unnamed Layer* 1253) [Shuffle] + /synthesis/b512/conv1/Mul, /synthesis/b512/conv1/Add_1)",
  "LayerType": "PointWiseV2",
  "Inputs": [
  {
    "Name": "/synthesis/b512/conv1/RandomNormalLike_output_0",
    "Location": "Device",
    "Dimensions": [1,1,512,512],
    "Format/Datatype": "Channel major FP16 format where channel % 8 == 0"
  },
  {
    "Name": "/synthesis/b512/conv1/Conv_output_0",
    "Location": "Device",
    "Dimensions": [1,64,512,512],
    "Format/Datatype": "Channel major FP16 format where channel % 8 == 0"
  }],
  "Outputs": [
  {
    "Name": "/synthesis/b512/conv1/Add_1_output_0",
    "Location": "Device",
    "Dimensions": [1,64,512,512],
    "Format/Datatype": "Channel major FP16 format where channel % 8 == 0"
  }],
  "ParameterType": "PointWise",
  "ParameterSubType": "PointWiseExpression",
  "NbInputArgs": 2,
  "InputArgs": ["arg0", "arg1"],
  "NbOutputVars": 1,
  "OutputVars": ["var1"],
  "NbParams": 0,
  "Params": [],
  "NbLiterals": 2,
  "Literals": ["0.000000e+00f", "-6.667218e-04f"],
  "NbOperations": 2,
  "Operations": ["auto const var0 = pwgen::iMul(arg0, literal1);", "auto const var1 = pwgen::iPlus(arg1, var0);"],
  "TacticValue": "0x0000000000000014"
},{
  "Name": "onnx::Add_4194 + /synthesis/b512/conv1/Add_2",
  "LayerType": "Scale",
  "Inputs": [
  {
    "Name": "/synthesis/b512/conv1/Add_1_output_0",
    "Location": "Device",
    "Dimensions": [1,64,512,512],
    "Format/Datatype": "Channel major FP16 format where channel % 8 == 0"
  }],
  "Outputs": [
  {
    "Name": "/synthesis/b512/conv1/Add_2_output_0",
    "Location": "Device",
    "Dimensions": [1,64,512,512],
    "Format/Datatype": "Channel major FP16 format where channel % 8 == 0"
  }],
  "ParameterType": "Scale",
  "Mode": "CHANNEL",
  "Shift": {"Type": "Half", "Count": 64},
  "Scale": {"Type": "Half", "Count": 0},
  "Power": {"Type": "Half", "Count": 0},
  "Activation": "NONE",
  "ChannelAxis": 1,
  "TacticValue": "0x0000000000000000"
},{
  "Name": "PWN(PWN(/synthesis/b512/conv1/LeakyRelu), /synthesis/b512/conv1/Constant_8_output_0 + (Unnamed Layer* 1279) [Shuffle] + /synthesis/b512/conv1/Mul_4)",
  "LayerType": "PointWiseV2",
  "Inputs": [
  {
    "Name": "/synthesis/b512/conv1/Add_2_output_0",
    "Location": "Device",
    "Dimensions": [1,64,512,512],
    "Format/Datatype": "Channel major FP16 format where channel % 8 == 0"
  }],
  "Outputs": [
  {
    "Name": "/synthesis/b512/conv1/Mul_4_output_0",
    "Location": "Device",
    "Dimensions": [1,64,512,512],
    "Format/Datatype": "Channel major FP16 format where channel % 8 == 0"
  }],
  "ParameterType": "PointWise",
  "ParameterSubType": "PointWiseExpression",
  "NbInputArgs": 1,
  "InputArgs": ["arg0"],
  "NbOutputVars": 1,
  "OutputVars": ["var3"],
  "NbParams": 0,
  "Params": [],
  "NbLiterals": 6,
  "Literals": ["0.000000e+00f", "1.000000e+00f", "2.000000e-01f", "0.000000e+00f", "0.000000e+00f", "1.414214e+00f"],
  "NbOperations": 4,
  "Operations": ["auto const var0 = pwgen::iMul(arg0, literal2);", "auto const var1 = pwgen::iCmpLT(arg0, literal0);", "auto const var2 = pwgen::iSelect(var1, var0, arg0);", "auto const var3 = pwgen::iMul(var2, literal5);"],
  "TacticValue": "0x0000000000000014"
},{
  "Name": "/synthesis/b1024/Cast",
  "LayerType": "NoOp",
  "Inputs": [
  {
    "Name": "/synthesis/b512/conv1/Mul_4_output_0",
    "Location": "Device",
    "Dimensions": [1,64,512,512],
    "Format/Datatype": "Channel major FP16 format where channel % 8 == 0"
  }],
  "Outputs": [
  {
    "Name": "/synthesis/b1024/Cast_output_0",
    "Location": "Device",
    "Dimensions": [1,64,512,512],
    "Format/Datatype": "Channel major FP16 format where channel % 8 == 0"
  }],
  "TacticValue": "0x0000000000000000"
},{
  "Name": "/synthesis/b512/torgb/Conv + onnx::Add_4247 + /synthesis/b512/torgb/Add",
  "LayerType": "CaskConvolution",
  "Inputs": [
  {
    "Name": "/synthesis/b512/conv1/Mul_4_output_0",
    "Location": "Device",
    "Dimensions": [1,64,512,512],
    "Format/Datatype": "Channel major FP16 format where channel % 8 == 0"
  },
  {
    "Name": "/synthesis/b512/torgb/Cast_output_0",
    "Location": "Device",
    "Dimensions": [3,64,1,1],
    "Format/Datatype": "Row major linear FP16 format"
  }],
  "Outputs": [
  {
    "Name": "/synthesis/b512/torgb/Add_output_0",
    "Location": "Device",
    "Dimensions": [1,3,512,512],
    "Format/Datatype": "Channel major FP16 format where channel % 8 == 0"
  }],
  "ParameterType": "Convolution",
  "Kernel": [1,1],
  "PaddingMode": "kEXPLICIT_ROUND_DOWN",
  "PrePadding": [0,0],
  "PostPadding": [0,0],
  "Stride": [1,1],
  "Dilation": [1,1],
  "OutMaps": 3,
  "Groups": 1,
  "Weights": {"Type": "Half", "Count": 0},
  "Bias": {"Type": "Half", "Count": 3},
  "HasSparseWeights": 0,
  "HasDynamicFilter": 1,
  "HasDynamicBias": 0,
  "HasResidual": 0,
  "ConvXAsActInputIdx": -1,
  "BiasAsActInputIdx": -1,
  "ResAsActInputIdx": -1,
  "Activation": "NONE",
  "HasBias": 1,
  "HasReLU": 0,
  "TacticName": "sm80_xmma_fprop_implicit_gemm_indexed_f16f16_f16f16_f16_nhwckrsc_nhwc_tilesize128x32x32_stage4_warpsize4x1x1_g1_tensor16x8x16",
  "TacticValue": "0xf79479a62ea9f901"
},{
  "Name": "/synthesis/b1024/conv0/ConvTranspose",
  "LayerType": "CaskDeconvolutionV2",
  "Inputs": [
  {
    "Name": "/synthesis/b1024/Cast_output_0",
    "Location": "Device",
    "Dimensions": [1,64,512,512],
    "Format/Datatype": "Channel major FP16 format where channel % 8 == 0"
  },
  {
    "Name": "/synthesis/b1024/conv0/Transpose_output_0",
    "Location": "Device",
    "Dimensions": [64,32,3,3],
    "Format/Datatype": "Row major linear FP16 format"
  }],
  "Outputs": [
  {
    "Name": "/synthesis/b1024/conv0/ConvTranspose_output_0",
    "Location": "Device",
    "Dimensions": [1,32,1025,1025],
    "Format/Datatype": "Channel major FP16 format where channel % 8 == 0"
  }],
  "HasBias": 0,
  "HasReLU": 0,
  "TacticName": "sm80_xmma_deconv_implicit_gemm_indexed_f16f16_f16f16_f16_nhwckrsc_nhwc_tilesize128x32x32_stage4_warpsize4x1x1_g1_tensor16x8x16_strided",
  "TacticValue": "0xa7e51cc94b1422a2"
},{
  "Name": "Reformatting CopyNode for Input Tensor 0 to /synthesis/b1024/conv0/Reshape_4",
  "LayerType": "Reformat",
  "Inputs": [
  {
    "Name": "/synthesis/b1024/conv0/ConvTranspose_output_0",
    "Location": "Device",
    "Dimensions": [1,32,1025,1025],
    "Format/Datatype": "Channel major FP16 format where channel % 8 == 0"
  }],
  "Outputs": [
  {
    "Name": "Reformatted Input Tensor 0 to /synthesis/b1024/conv0/Reshape_4",
    "Location": "Device",
    "Dimensions": [1,32,1025,1025],
    "Format/Datatype": "Row major linear FP16 format"
  }],
  "ParameterType": "Reformat",
  "Origin": "REFORMAT",
  "TacticValue": "0x0000000000000000"
},{
  "Name": "/synthesis/b1024/conv0/Reshape_4",
  "LayerType": "NoOp",
  "Inputs": [
  {
    "Name": "Reformatted Input Tensor 0 to /synthesis/b1024/conv0/Reshape_4",
    "Location": "Device",
    "Dimensions": [1,32,1025,1025],
    "Format/Datatype": "Row major linear FP16 format"
  }],
  "Outputs": [
  {
    "Name": "/synthesis/b1024/conv0/Reshape_4_output_0",
    "Location": "Device",
    "Dimensions": [1,32,1025,1,1025,1],
    "Format/Datatype": "Row major linear FP16 format"
  }],
  "TacticValue": "0x0000000000000000"
},{
  "Name": "/synthesis/b512/Cast_1",
  "LayerType": "Reformat",
  "Inputs": [
  {
    "Name": "/synthesis/b512/torgb/Add_output_0",
    "Location": "Device",
    "Dimensions": [1,3,512,512],
    "Format/Datatype": "Channel major FP16 format where channel % 8 == 0"
  }],
  "Outputs": [
  {
    "Name": "/synthesis/b512/Cast_1_output_0",
    "Location": "Device",
    "Dimensions": [1,3,512,512],
    "Format/Datatype": "Row major linear FP16 format"
  }],
  "ParameterType": "Reformat",
  "Origin": "IDENTITY",
  "TacticValue": "0x0000000000000000"
},{
  "Name": "(Unnamed Layer* 1371) [Identity]",
  "LayerType": "NoOp",
  "Inputs": [
  {
    "Name": "/synthesis/b1024/conv0/Reshape_4_output_0",
    "Location": "Device",
    "Dimensions": [1,32,1025,1,1025,1],
    "Format/Datatype": "Row major linear FP16 format"
  }],
  "Outputs": [
  {
    "Name": "/synthesis/b1024/conv0/Pad_output_0",
    "Location": "Device",
    "Dimensions": [1,32,1025,1,1025,1],
    "Format/Datatype": "Row major linear FP16 format"
  }],
  "TacticValue": "0x0000000000000000"
},{
  "Name": "Reformatting CopyNode for Input Tensor 2 to /synthesis/b512/Pad_1 + /synthesis/b512/Conv + /synthesis/b512/Add",
  "LayerType": "Reformat",
  "Inputs": [
  {
    "Name": "/synthesis/b512/Cast_1_output_0",
    "Location": "Device",
    "Dimensions": [1,3,512,512],
    "Format/Datatype": "Row major linear FP16 format"
  }],
  "Outputs": [
  {
    "Name": "Reformatted Input Tensor 2 to /synthesis/b512/Pad_1 + /synthesis/b512/Conv + /synthesis/b512/Add",
    "Location": "Device",
    "Dimensions": [1,3,512,512],
    "Format/Datatype": "Row major linear FP32"
  }],
  "ParameterType": "Reformat",
  "Origin": "REFORMAT",
  "TacticValue": "0x00000000000003e8"
},{
  "Name": "/synthesis/b512/Pad_1 + /synthesis/b512/Conv + /synthesis/b512/Add",
  "LayerType": "CaskConvolution",
  "Inputs": [
  {
    "Name": "/synthesis/b512/Reshape_1_output_0",
    "Location": "Device",
    "Dimensions": [1,3,512,512],
    "Format/Datatype": "Row major linear FP32"
  },
  {
    "Name": "/synthesis/b512/Tile_output_0",
    "Location": "Device",
    "Dimensions": [3,1,4,4],
    "Format/Datatype": "Row major linear FP32"
  },
  {
    "Name": "Reformatted Input Tensor 2 to /synthesis/b512/Pad_1 + /synthesis/b512/Conv + /synthesis/b512/Add",
    "Location": "Device",
    "Dimensions": [1,3,512,512],
    "Format/Datatype": "Row major linear FP32"
  }],
  "Outputs": [
  {
    "Name": "/synthesis/b512/Add_output_0",
    "Location": "Device",
    "Dimensions": [1,3,512,512],
    "Format/Datatype": "Row major linear FP32"
  }],
  "ParameterType": "Convolution",
  "Kernel": [4,4],
  "PaddingMode": "kEXPLICIT_ROUND_DOWN",
  "PrePadding": [2,2],
  "PostPadding": [1,1],
  "Stride": [1,1],
  "Dilation": [1,1],
  "OutMaps": 3,
  "Groups": 3,
  "Weights": {"Type": "Float", "Count": 0},
  "Bias": {"Type": "Float", "Count": 0},
  "HasSparseWeights": 0,
  "HasDynamicFilter": 1,
  "HasDynamicBias": 0,
  "HasResidual": 1,
  "ConvXAsActInputIdx": -1,
  "BiasAsActInputIdx": -1,
  "ResAsActInputIdx": -1,
  "Activation": "NONE",
  "HasBias": 0,
  "HasReLU": 0,
  "TacticName": "conv2d_grouped_direct_f32f32f32_nchw_nchw",
  "TacticValue": "0x0350af78f23e2120"
},{
  "Name": "/synthesis/b1024/conv0/Reshape_5",
  "LayerType": "NoOp",
  "Inputs": [
  {
    "Name": "/synthesis/b1024/conv0/Pad_output_0",
    "Location": "Device",
    "Dimensions": [1,32,1025,1,1025,1],
    "Format/Datatype": "Row major linear FP16 format"
  }],
  "Outputs": [
  {
    "Name": "/synthesis/b1024/conv0/Reshape_5_output_0",
    "Location": "Device",
    "Dimensions": [1,32,1025,1025],
    "Format/Datatype": "Row major linear FP16 format"
  }],
  "TacticValue": "0x0000000000000000"
},{
  "Name": "/synthesis/b1024/Reshape",
  "LayerType": "NoOp",
  "Inputs": [
  {
    "Name": "/synthesis/b512/Add_output_0",
    "Location": "Device",
    "Dimensions": [1,3,512,512],
    "Format/Datatype": "Row major linear FP32"
  }],
  "Outputs": [
  {
    "Name": "/synthesis/b1024/Reshape_output_0",
    "Location": "Device",
    "Dimensions": [1,3,512,1,512,1],
    "Format/Datatype": "Row major linear FP32"
  }],
  "TacticValue": "0x0000000000000000"
},{
  "Name": "/synthesis/b1024/Pad",
  "LayerType": "Slice",
  "Inputs": [
  {
    "Name": "/synthesis/b1024/Reshape_output_0",
    "Location": "Device",
    "Dimensions": [1,3,512,1,512,1],
    "Format/Datatype": "Row major linear FP32"
  }],
  "Outputs": [
  {
    "Name": "/synthesis/b1024/Pad_output_0",
    "Location": "Device",
    "Dimensions": [1,3,512,2,512,2],
    "Format/Datatype": "Row major linear FP32"
  }],
  "ParameterType": "Slice",
  "Start": [0,0,0,0,0,0],
  "Size": [1,3,512,2,512,2],
  "Stride": [1,1,1,1,1,1],
  "Mode": "FILL",
  "negativeInfinityPadding": 0,
  "TacticValue": "0x0000000000000000"
},{
  "Name": "/synthesis/b1024/Reshape_1",
  "LayerType": "NoOp",
  "Inputs": [
  {
    "Name": "/synthesis/b1024/Pad_output_0",
    "Location": "Device",
    "Dimensions": [1,3,512,2,512,2],
    "Format/Datatype": "Row major linear FP32"
  }],
  "Outputs": [
  {
    "Name": "/synthesis/b1024/Reshape_1_output_0",
    "Location": "Device",
    "Dimensions": [1,3,1024,1024],
    "Format/Datatype": "Row major linear FP32"
  }],
  "TacticValue": "0x0000000000000000"
},{
  "Name": "/synthesis/b1024/conv0/Pad_1 + /synthesis/b1024/conv0/Conv",
  "LayerType": "CaskConvolution",
  "Inputs": [
  {
    "Name": "/synthesis/b1024/conv0/Reshape_5_output_0",
    "Location": "Device",
    "Dimensions": [1,32,1025,1025],
    "Format/Datatype": "Row major linear FP16 format"
  },
  {
    "Name": "/synthesis/b1024/conv0/Tile_output_0",
    "Location": "Device",
    "Dimensions": [32,1,4,4],
    "Format/Datatype": "Row major linear FP16 format"
  }],
  "Outputs": [
  {
    "Name": "/synthesis/b1024/conv0/Conv_output_0",
    "Location": "Device",
    "Dimensions": [1,32,1024,1024],
    "Format/Datatype": "Row major linear FP16 format"
  }],
  "ParameterType": "Convolution",
  "Kernel": [4,4],
  "PaddingMode": "kEXPLICIT_ROUND_DOWN",
  "PrePadding": [1,1],
  "PostPadding": [1,1],
  "Stride": [1,1],
  "Dilation": [1,1],
  "OutMaps": 32,
  "Groups": 32,
  "Weights": {"Type": "Half", "Count": 0},
  "Bias": {"Type": "Half", "Count": 0},
  "HasSparseWeights": 0,
  "HasDynamicFilter": 1,
  "HasDynamicBias": 0,
  "HasResidual": 0,
  "ConvXAsActInputIdx": -1,
  "BiasAsActInputIdx": -1,
  "ResAsActInputIdx": -1,
  "Activation": "NONE",
  "HasBias": 0,
  "HasReLU": 0,
  "TacticName": "conv2d_grouped_direct_largeK_f16f16f16_nchw_nchw",
  "TacticValue": "0x287db914a78b9567"
},{
  "Name": "Reformatting CopyNode for Input Tensor 0 to PWN(synthesis.b1024.conv0.noise_strength + (Unnamed Layer* 1349) [Shuffle] + /synthesis/b1024/conv0/Mul, /synthesis/b1024/conv0/Add_1)",
  "LayerType": "Reformat",
  "Inputs": [
  {
    "Name": "/synthesis/b1024/conv0/RandomNormalLike_output_0",
    "Location": "Device",
    "Dimensions": [1,1,1024,1024],
    "Format/Datatype": "Row major linear FP32"
  }],
  "Outputs": [
  {
    "Name": "Reformatted Input Tensor 0 to PWN(synthesis.b1024.conv0.noise_strength + (Unnamed Layer* 1349) [Shuffle] + /synthesis/b1024/conv0/Mul, /synthesis/b1024/conv0/Add_1)",
    "Location": "Device",
    "Dimensions": [1,1,1024,1024],
    "Format/Datatype": "Channel major FP16 format where channel % 8 == 0"
  }],
  "ParameterType": "Reformat",
  "Origin": "REFORMAT",
  "TacticValue": "0x0000000000000000"
},{
  "Name": "Reformatting CopyNode for Input Tensor 1 to PWN(synthesis.b1024.conv0.noise_strength + (Unnamed Layer* 1349) [Shuffle] + /synthesis/b1024/conv0/Mul, /synthesis/b1024/conv0/Add_1)",
  "LayerType": "Reformat",
  "Inputs": [
  {
    "Name": "/synthesis/b1024/conv0/Conv_output_0",
    "Location": "Device",
    "Dimensions": [1,32,1024,1024],
    "Format/Datatype": "Row major linear FP16 format"
  }],
  "Outputs": [
  {
    "Name": "Reformatted Input Tensor 1 to PWN(synthesis.b1024.conv0.noise_strength + (Unnamed Layer* 1349) [Shuffle] + /synthesis/b1024/conv0/Mul, /synthesis/b1024/conv0/Add_1)",
    "Location": "Device",
    "Dimensions": [1,32,1024,1024],
    "Format/Datatype": "Channel major FP16 format where channel % 8 == 0"
  }],
  "ParameterType": "Reformat",
  "Origin": "REFORMAT",
  "TacticValue": "0x0000000000000000"
},{
  "Name": "PWN(synthesis.b1024.conv0.noise_strength + (Unnamed Layer* 1349) [Shuffle] + /synthesis/b1024/conv0/Mul, /synthesis/b1024/conv0/Add_1)",
  "LayerType": "PointWiseV2",
  "Inputs": [
  {
    "Name": "Reformatted Input Tensor 0 to PWN(synthesis.b1024.conv0.noise_strength + (Unnamed Layer* 1349) [Shuffle] + /synthesis/b1024/conv0/Mul, /synthesis/b1024/conv0/Add_1)",
    "Location": "Device",
    "Dimensions": [1,1,1024,1024],
    "Format/Datatype": "Channel major FP16 format where channel % 8 == 0"
  },
  {
    "Name": "Reformatted Input Tensor 1 to PWN(synthesis.b1024.conv0.noise_strength + (Unnamed Layer* 1349) [Shuffle] + /synthesis/b1024/conv0/Mul, /synthesis/b1024/conv0/Add_1)",
    "Location": "Device",
    "Dimensions": [1,32,1024,1024],
    "Format/Datatype": "Channel major FP16 format where channel % 8 == 0"
  }],
  "Outputs": [
  {
    "Name": "/synthesis/b1024/conv0/Add_1_output_0",
    "Location": "Device",
    "Dimensions": [1,32,1024,1024],
    "Format/Datatype": "Channel major FP16 format where channel % 8 == 0"
  }],
  "ParameterType": "PointWise",
  "ParameterSubType": "PointWiseExpression",
  "NbInputArgs": 2,
  "InputArgs": ["arg0", "arg1"],
  "NbOutputVars": 1,
  "OutputVars": ["var1"],
  "NbParams": 0,
  "Params": [],
  "NbLiterals": 2,
  "Literals": ["0.000000e+00f", "-5.186439e-04f"],
  "NbOperations": 2,
  "Operations": ["auto const var0 = pwgen::iMul(arg0, literal1);", "auto const var1 = pwgen::iPlus(arg1, var0);"],
  "TacticValue": "0x000000000000001e"
},{
  "Name": "onnx::Add_4311 + /synthesis/b1024/conv0/Add_2",
  "LayerType": "Scale",
  "Inputs": [
  {
    "Name": "/synthesis/b1024/conv0/Add_1_output_0",
    "Location": "Device",
    "Dimensions": [1,32,1024,1024],
    "Format/Datatype": "Channel major FP16 format where channel % 8 == 0"
  }],
  "Outputs": [
  {
    "Name": "/synthesis/b1024/conv0/Add_2_output_0",
    "Location": "Device",
    "Dimensions": [1,32,1024,1024],
    "Format/Datatype": "Channel major FP16 format where channel % 8 == 0"
  }],
  "ParameterType": "Scale",
  "Mode": "CHANNEL",
  "Shift": {"Type": "Half", "Count": 32},
  "Scale": {"Type": "Half", "Count": 0},
  "Power": {"Type": "Half", "Count": 0},
  "Activation": "NONE",
  "ChannelAxis": 1,
  "TacticValue": "0x0000000000000000"
},{
  "Name": "PWN(PWN(/synthesis/b1024/conv0/LeakyRelu), /synthesis/b1024/conv0/Constant_24_output_0 + (Unnamed Layer* 1403) [Shuffle] + /synthesis/b1024/conv0/Mul_4)",
  "LayerType": "PointWiseV2",
  "Inputs": [
  {
    "Name": "/synthesis/b1024/conv0/Add_2_output_0",
    "Location": "Device",
    "Dimensions": [1,32,1024,1024],
    "Format/Datatype": "Channel major FP16 format where channel % 8 == 0"
  }],
  "Outputs": [
  {
    "Name": "/synthesis/b1024/conv0/Mul_4_output_0",
    "Location": "Device",
    "Dimensions": [1,32,1024,1024],
    "Format/Datatype": "Channel major FP16 format where channel % 8 == 0"
  }],
  "ParameterType": "PointWise",
  "ParameterSubType": "PointWiseExpression",
  "NbInputArgs": 1,
  "InputArgs": ["arg0"],
  "NbOutputVars": 1,
  "OutputVars": ["var3"],
  "NbParams": 0,
  "Params": [],
  "NbLiterals": 6,
  "Literals": ["0.000000e+00f", "1.000000e+00f", "2.000000e-01f", "0.000000e+00f", "0.000000e+00f", "1.414214e+00f"],
  "NbOperations": 4,
  "Operations": ["auto const var0 = pwgen::iMul(arg0, literal2);", "auto const var1 = pwgen::iCmpLT(arg0, literal0);", "auto const var2 = pwgen::iSelect(var1, var0, arg0);", "auto const var3 = pwgen::iMul(var2, literal5);"],
  "TacticValue": "0x000000000000001e"
},{
  "Name": "/synthesis/b1024/conv1/Conv",
  "LayerType": "CaskConvolution",
  "Inputs": [
  {
    "Name": "/synthesis/b1024/conv0/Mul_4_output_0",
    "Location": "Device",
    "Dimensions": [1,32,1024,1024],
    "Format/Datatype": "Channel major FP16 format where channel % 8 == 0"
  },
  {
    "Name": "/synthesis/b1024/conv1/Cast_output_0",
    "Location": "Device",
    "Dimensions": [32,32,3,3],
    "Format/Datatype": "Row major linear FP16 format"
  }],
  "Outputs": [
  {
    "Name": "/synthesis/b1024/conv1/Conv_output_0",
    "Location": "Device",
    "Dimensions": [1,32,1024,1024],
    "Format/Datatype": "Channel major FP16 format where channel % 8 == 0"
  }],
  "ParameterType": "Convolution",
  "Kernel": [3,3],
  "PaddingMode": "kEXPLICIT_ROUND_DOWN",
  "PrePadding": [1,1],
  "PostPadding": [1,1],
  "Stride": [1,1],
  "Dilation": [1,1],
  "OutMaps": 32,
  "Groups": 1,
  "Weights": {"Type": "Half", "Count": 0},
  "Bias": {"Type": "Half", "Count": 0},
  "HasSparseWeights": 0,
  "HasDynamicFilter": 1,
  "HasDynamicBias": 0,
  "HasResidual": 0,
  "ConvXAsActInputIdx": -1,
  "BiasAsActInputIdx": -1,
  "ResAsActInputIdx": -1,
  "Activation": "NONE",
  "HasBias": 0,
  "HasReLU": 0,
  "TacticName": "sm80_xmma_fprop_implicit_gemm_indexed_wo_smem_f16f16_f16f16_f16_nhwckrsc_nhwc_tilesize128x32x64_stage1_warpsize4x1x1_g1_tensor16x8x16_alignc8",
  "TacticValue": "0x1bf48a356bd0c083"
},{
  "Name": "Reformatting CopyNode for Input Tensor 0 to PWN(synthesis.b1024.conv1.noise_strength + (Unnamed Layer* 1416) [Shuffle] + /synthesis/b1024/conv1/Mul, /synthesis/b1024/conv1/Add_1)",
  "LayerType": "Reformat",
  "Inputs": [
  {
    "Name": "/synthesis/b1024/conv1/RandomNormalLike_output_0",
    "Location": "Device",
    "Dimensions": [1,1,1024,1024],
    "Format/Datatype": "Row major linear FP32"
  }],
  "Outputs": [
  {
    "Name": "Reformatted Input Tensor 0 to PWN(synthesis.b1024.conv1.noise_strength + (Unnamed Layer* 1416) [Shuffle] + /synthesis/b1024/conv1/Mul, /synthesis/b1024/conv1/Add_1)",
    "Location": "Device",
    "Dimensions": [1,1,1024,1024],
    "Format/Datatype": "Channel major FP16 format where channel % 8 == 0"
  }],
  "ParameterType": "Reformat",
  "Origin": "REFORMAT",
  "TacticValue": "0x0000000000000000"
},{
  "Name": "PWN(synthesis.b1024.conv1.noise_strength + (Unnamed Layer* 1416) [Shuffle] + /synthesis/b1024/conv1/Mul, /synthesis/b1024/conv1/Add_1)",
  "LayerType": "PointWiseV2",
  "Inputs": [
  {
    "Name": "Reformatted Input Tensor 0 to PWN(synthesis.b1024.conv1.noise_strength + (Unnamed Layer* 1416) [Shuffle] + /synthesis/b1024/conv1/Mul, /synthesis/b1024/conv1/Add_1)",
    "Location": "Device",
    "Dimensions": [1,1,1024,1024],
    "Format/Datatype": "Channel major FP16 format where channel % 8 == 0"
  },
  {
    "Name": "/synthesis/b1024/conv1/Conv_output_0",
    "Location": "Device",
    "Dimensions": [1,32,1024,1024],
    "Format/Datatype": "Channel major FP16 format where channel % 8 == 0"
  }],
  "Outputs": [
  {
    "Name": "/synthesis/b1024/conv1/Add_1_output_0",
    "Location": "Device",
    "Dimensions": [1,32,1024,1024],
    "Format/Datatype": "Channel major FP16 format where channel % 8 == 0"
  }],
  "ParameterType": "PointWise",
  "ParameterSubType": "PointWiseExpression",
  "NbInputArgs": 2,
  "InputArgs": ["arg0", "arg1"],
  "NbOutputVars": 1,
  "OutputVars": ["var1"],
  "NbParams": 0,
  "Params": [],
  "NbLiterals": 2,
  "Literals": ["0.000000e+00f", "-1.940972e-04f"],
  "NbOperations": 2,
  "Operations": ["auto const var0 = pwgen::iMul(arg0, literal1);", "auto const var1 = pwgen::iPlus(arg1, var0);"],
  "TacticValue": "0x000000000000001e"
},{
  "Name": "onnx::Add_4350 + /synthesis/b1024/conv1/Add_2",
  "LayerType": "Scale",
  "Inputs": [
  {
    "Name": "/synthesis/b1024/conv1/Add_1_output_0",
    "Location": "Device",
    "Dimensions": [1,32,1024,1024],
    "Format/Datatype": "Channel major FP16 format where channel % 8 == 0"
  }],
  "Outputs": [
  {
    "Name": "/synthesis/b1024/conv1/Add_2_output_0",
    "Location": "Device",
    "Dimensions": [1,32,1024,1024],
    "Format/Datatype": "Channel major FP16 format where channel % 8 == 0"
  }],
  "ParameterType": "Scale",
  "Mode": "CHANNEL",
  "Shift": {"Type": "Half", "Count": 32},
  "Scale": {"Type": "Half", "Count": 0},
  "Power": {"Type": "Half", "Count": 0},
  "Activation": "NONE",
  "ChannelAxis": 1,
  "TacticValue": "0x0000000000000000"
},{
  "Name": "PWN(PWN(/synthesis/b1024/conv1/LeakyRelu), /synthesis/b1024/conv1/Constant_8_output_0 + (Unnamed Layer* 1442) [Shuffle] + /synthesis/b1024/conv1/Mul_4)",
  "LayerType": "PointWiseV2",
  "Inputs": [
  {
    "Name": "/synthesis/b1024/conv1/Add_2_output_0",
    "Location": "Device",
    "Dimensions": [1,32,1024,1024],
    "Format/Datatype": "Channel major FP16 format where channel % 8 == 0"
  }],
  "Outputs": [
  {
    "Name": "/synthesis/b1024/conv1/Mul_4_output_0",
    "Location": "Device",
    "Dimensions": [1,32,1024,1024],
    "Format/Datatype": "Channel major FP16 format where channel % 8 == 0"
  }],
  "ParameterType": "PointWise",
  "ParameterSubType": "PointWiseExpression",
  "NbInputArgs": 1,
  "InputArgs": ["arg0"],
  "NbOutputVars": 1,
  "OutputVars": ["var3"],
  "NbParams": 0,
  "Params": [],
  "NbLiterals": 6,
  "Literals": ["0.000000e+00f", "1.000000e+00f", "2.000000e-01f", "0.000000e+00f", "0.000000e+00f", "1.414214e+00f"],
  "NbOperations": 4,
  "Operations": ["auto const var0 = pwgen::iMul(arg0, literal2);", "auto const var1 = pwgen::iCmpLT(arg0, literal0);", "auto const var2 = pwgen::iSelect(var1, var0, arg0);", "auto const var3 = pwgen::iMul(var2, literal5);"],
  "TacticValue": "0x000000000000001e"
},{
  "Name": "/synthesis/b1024/torgb/Conv + onnx::Add_4403 + /synthesis/b1024/torgb/Add",
  "LayerType": "CaskConvolution",
  "Inputs": [
  {
    "Name": "/synthesis/b1024/conv1/Mul_4_output_0",
    "Location": "Device",
    "Dimensions": [1,32,1024,1024],
    "Format/Datatype": "Channel major FP16 format where channel % 8 == 0"
  },
  {
    "Name": "/synthesis/b1024/torgb/Cast_output_0",
    "Location": "Device",
    "Dimensions": [3,32,1,1],
    "Format/Datatype": "Row major linear FP16 format"
  }],
  "Outputs": [
  {
    "Name": "/synthesis/b1024/torgb/Add_output_0",
    "Location": "Device",
    "Dimensions": [1,3,1024,1024],
    "Format/Datatype": "Channel major FP16 format where channel % 8 == 0"
  }],
  "ParameterType": "Convolution",
  "Kernel": [1,1],
  "PaddingMode": "kEXPLICIT_ROUND_DOWN",
  "PrePadding": [0,0],
  "PostPadding": [0,0],
  "Stride": [1,1],
  "Dilation": [1,1],
  "OutMaps": 3,
  "Groups": 1,
  "Weights": {"Type": "Half", "Count": 0},
  "Bias": {"Type": "Half", "Count": 3},
  "HasSparseWeights": 0,
  "HasDynamicFilter": 1,
  "HasDynamicBias": 0,
  "HasResidual": 0,
  "ConvXAsActInputIdx": -1,
  "BiasAsActInputIdx": -1,
  "ResAsActInputIdx": -1,
  "Activation": "NONE",
  "HasBias": 1,
  "HasReLU": 0,
  "TacticName": "sm80_xmma_fprop_implicit_gemm_indexed_wo_smem_f16f16_f16f16_f16_nhwckrsc_nhwc_tilesize128x16x64_stage1_warpsize4x1x1_g1_tensor16x8x16_alignc8",
  "TacticValue": "0x29d52f76d7883502"
},{
  "Name": "/synthesis/b1024/Cast_1",
  "LayerType": "Reformat",
  "Inputs": [
  {
    "Name": "/synthesis/b1024/torgb/Add_output_0",
    "Location": "Device",
    "Dimensions": [1,3,1024,1024],
    "Format/Datatype": "Channel major FP16 format where channel % 8 == 0"
  }],
  "Outputs": [
  {
    "Name": "/synthesis/b1024/Cast_1_output_0",
    "Location": "Device",
    "Dimensions": [1,3,1024,1024],
    "Format/Datatype": "Row major linear FP32"
  }],
  "ParameterType": "Reformat",
  "Origin": "IDENTITY",
  "TacticValue": "0x0000000000000000"
},{
  "Name": "/synthesis/b1024/Pad_1 + /synthesis/b1024/Conv + /synthesis/b1024/Add",
  "LayerType": "CaskConvolution",
  "Inputs": [
  {
    "Name": "/synthesis/b1024/Reshape_1_output_0",
    "Location": "Device",
    "Dimensions": [1,3,1024,1024],
    "Format/Datatype": "Row major linear FP32"
  },
  {
    "Name": "/synthesis/b1024/Tile_output_0",
    "Location": "Device",
    "Dimensions": [3,1,4,4],
    "Format/Datatype": "Row major linear FP32"
  },
  {
    "Name": "/synthesis/b1024/Cast_1_output_0",
    "Location": "Device",
    "Dimensions": [1,3,1024,1024],
    "Format/Datatype": "Row major linear FP32"
  }],
  "Outputs": [
  {
    "Name": "3026",
    "Location": "Device",
    "Dimensions": [1,3,1024,1024],
    "Format/Datatype": "Row major linear FP32"
  }],
  "ParameterType": "Convolution",
  "Kernel": [4,4],
  "PaddingMode": "kEXPLICIT_ROUND_DOWN",
  "PrePadding": [2,2],
  "PostPadding": [1,1],
  "Stride": [1,1],
  "Dilation": [1,1],
  "OutMaps": 3,
  "Groups": 3,
  "Weights": {"Type": "Float", "Count": 0},
  "Bias": {"Type": "Float", "Count": 0},
  "HasSparseWeights": 0,
  "HasDynamicFilter": 1,
  "HasDynamicBias": 0,
  "HasResidual": 1,
  "ConvXAsActInputIdx": -1,
  "BiasAsActInputIdx": -1,
  "ResAsActInputIdx": -1,
  "Activation": "NONE",
  "HasBias": 0,
  "HasReLU": 0,
  "TacticName": "conv2d_grouped_direct_f32f32f32_nchw_nchw",
  "TacticValue": "0x0350af78f23e2120"
}],
"Bindings": ["input0"
,"3026"
]}
