{"Layers": [{
  "Name": "Reformatting CopyNode for Input Tensor 0 to node_of_gpu_0/conv1_1 + node_of_gpu_0/res_conv1_bn_1 + node_of_gpu_0/res_conv1_bn_2",
  "LayerType": "Reformat",
  "Inputs": [
  {
    "Name": "gpu_0/data_0",
    "Location": "Device",
    "Dimensions": [1,3,224,224],
    "Format/Datatype": "Row major linear FP32"
  }],
  "Outputs": [
  {
    "Name": "Reformatted Input Tensor 0 to node_of_gpu_0/conv1_1 + node_of_gpu_0/res_conv1_bn_1 + node_of_gpu_0/res_conv1_bn_2",
    "Location": "Device",
    "Dimensions": [1,3,224,224],
    "Format/Datatype": "Channel major FP16 format where channel % 8 == 0"
  }],
  "ParameterType": "Reformat",
  "Origin": "REFORMAT",
  "TacticValue": "0x0000000000000000"
},{
  "Name": "node_of_gpu_0/conv1_1 + node_of_gpu_0/res_conv1_bn_1 + node_of_gpu_0/res_conv1_bn_2",
  "LayerType": "CaskConvolution",
  "Inputs": [
  {
    "Name": "Reformatted Input Tensor 0 to node_of_gpu_0/conv1_1 + node_of_gpu_0/res_conv1_bn_1 + node_of_gpu_0/res_conv1_bn_2",
    "Location": "Device",
    "Dimensions": [1,3,224,224],
    "Format/Datatype": "Channel major FP16 format where channel % 8 == 0"
  }],
  "Outputs": [
  {
    "Name": "gpu_0/res_conv1_bn_2",
    "Location": "Device",
    "Dimensions": [1,64,112,112],
    "Format/Datatype": "Channel major FP16 format where channel % 8 == 0"
  }],
  "ParameterType": "Convolution",
  "Kernel": [7,7],
  "PaddingMode": "kEXPLICIT_ROUND_DOWN",
  "PrePadding": [3,3],
  "PostPadding": [3,3],
  "Stride": [2,2],
  "Dilation": [1,1],
  "OutMaps": 64,
  "Groups": 1,
  "Weights": {"Type": "Half", "Count": 9408},
  "Bias": {"Type": "Half", "Count": 64},
  "HasSparseWeights": 0,
  "HasDynamicFilter": 0,
  "HasDynamicBias": 0,
  "HasResidual": 0,
  "ConvXAsActInputIdx": -1,
  "BiasAsActInputIdx": -1,
  "ResAsActInputIdx": -1,
  "Activation": "RELU",
  "HasBias": 1,
  "HasReLU": 1,
  "TacticName": "sm80_xmma_fprop_image_first_layer_f16f16_f32_f16_nhwckrsc_nhwc_hmma_k64c8r7s7_stride2x2_tile16x64x16_tensor1688",
  "TacticValue": "0x603af898ad7e47f4"
},{
  "Name": "node_of_gpu_0/pool1_1",
  "LayerType": "CaskPooling",
  "Inputs": [
  {
    "Name": "gpu_0/res_conv1_bn_2",
    "Location": "Device",
    "Dimensions": [1,64,112,112],
    "Format/Datatype": "Channel major FP16 format where channel % 8 == 0"
  }],
  "Outputs": [
  {
    "Name": "gpu_0/pool1_1",
    "Location": "Device",
    "Dimensions": [1,64,56,56],
    "Format/Datatype": "Channel major FP16 format where channel % 8 == 0"
  }],
  "ParameterType": "Pooling",
  "PoolingType": "MAX",
  "WindowSize": [3,3],
  "PaddingMode": "kEXPLICIT_ROUND_DOWN",
  "PrePadding": [1,1],
  "PostPadding": [1,1],
  "Stride": [2,2],
  "BlendFactor": 0,
  "AverageCountExcludesPadding": 1,
  "TacticName": "sm50_xmma_pooling_coalescedC_NHWC_kMAX_3_False",
  "TacticValue": "0xdb415cba6b0e9137"
},{
  "Name": "node_of_gpu_0/res2_0_branch2a_1 + node_of_gpu_0/res2_0_branch2a_bn_1 + node_of_gpu_0/res2_0_branch2a_bn_2",
  "LayerType": "CaskConvolution",
  "Inputs": [
  {
    "Name": "gpu_0/pool1_1",
    "Location": "Device",
    "Dimensions": [1,64,56,56],
    "Format/Datatype": "Channel major FP16 format where channel % 8 == 0"
  }],
  "Outputs": [
  {
    "Name": "gpu_0/res2_0_branch2a_bn_2",
    "Location": "Device",
    "Dimensions": [1,64,56,56],
    "Format/Datatype": "Channel major FP16 format where channel % 8 == 0"
  }],
  "ParameterType": "Convolution",
  "Kernel": [1,1],
  "PaddingMode": "kEXPLICIT_ROUND_DOWN",
  "PrePadding": [0,0],
  "PostPadding": [0,0],
  "Stride": [1,1],
  "Dilation": [1,1],
  "OutMaps": 64,
  "Groups": 1,
  "Weights": {"Type": "Half", "Count": 4096},
  "Bias": {"Type": "Half", "Count": 64},
  "HasSparseWeights": 0,
  "HasDynamicFilter": 0,
  "HasDynamicBias": 0,
  "HasResidual": 0,
  "ConvXAsActInputIdx": -1,
  "BiasAsActInputIdx": -1,
  "ResAsActInputIdx": -1,
  "Activation": "RELU",
  "HasBias": 1,
  "HasReLU": 1,
  "TacticName": "sm80_xmma_fprop_implicit_gemm_f16f16_f16f16_f16_nhwckrsc_nhwc_tilesize128x32x32_stage4_warpsize4x1x1_g1_tensor16x8x16_simple_t1r1s1",
  "TacticValue": "0x8047bcfcebface4a"
},{
  "Name": "node_of_gpu_0/res2_0_branch2b_1 + node_of_gpu_0/res2_0_branch2b_bn_1 + node_of_gpu_0/res2_0_branch2b_bn_2",
  "LayerType": "CaskConvolution",
  "Inputs": [
  {
    "Name": "gpu_0/res2_0_branch2a_bn_2",
    "Location": "Device",
    "Dimensions": [1,64,56,56],
    "Format/Datatype": "Channel major FP16 format where channel % 8 == 0"
  }],
  "Outputs": [
  {
    "Name": "gpu_0/res2_0_branch2b_bn_2",
    "Location": "Device",
    "Dimensions": [1,64,56,56],
    "Format/Datatype": "Channel major FP16 format where channel % 8 == 0"
  }],
  "ParameterType": "Convolution",
  "Kernel": [3,3],
  "PaddingMode": "kEXPLICIT_ROUND_DOWN",
  "PrePadding": [1,1],
  "PostPadding": [1,1],
  "Stride": [1,1],
  "Dilation": [1,1],
  "OutMaps": 64,
  "Groups": 1,
  "Weights": {"Type": "Half", "Count": 36864},
  "Bias": {"Type": "Half", "Count": 64},
  "HasSparseWeights": 0,
  "HasDynamicFilter": 0,
  "HasDynamicBias": 0,
  "HasResidual": 0,
  "ConvXAsActInputIdx": -1,
  "BiasAsActInputIdx": -1,
  "ResAsActInputIdx": -1,
  "Activation": "RELU",
  "HasBias": 1,
  "HasReLU": 1,
  "TacticName": "sm80_xmma_fprop_implicit_gemm_f16f16_f16f16_f16_nhwckrsc_nhwc_tilesize64x64x64_stage4_warpsize2x2x1_g1_tensor16x8x16_t1r3s3_aACCESS",
  "TacticValue": "0x30e8a8d7a953e5e9"
},{
  "Name": "node_of_gpu_0/res2_0_branch1_1 + node_of_gpu_0/res2_0_branch1_bn_1",
  "LayerType": "CaskConvolution",
  "Inputs": [
  {
    "Name": "gpu_0/pool1_1",
    "Location": "Device",
    "Dimensions": [1,64,56,56],
    "Format/Datatype": "Channel major FP16 format where channel % 8 == 0"
  }],
  "Outputs": [
  {
    "Name": "gpu_0/res2_0_branch1_bn_1",
    "Location": "Device",
    "Dimensions": [1,256,56,56],
    "Format/Datatype": "Channel major FP16 format where channel % 8 == 0"
  }],
  "ParameterType": "Convolution",
  "Kernel": [1,1],
  "PaddingMode": "kEXPLICIT_ROUND_DOWN",
  "PrePadding": [0,0],
  "PostPadding": [0,0],
  "Stride": [1,1],
  "Dilation": [1,1],
  "OutMaps": 256,
  "Groups": 1,
  "Weights": {"Type": "Half", "Count": 16384},
  "Bias": {"Type": "Half", "Count": 256},
  "HasSparseWeights": 0,
  "HasDynamicFilter": 0,
  "HasDynamicBias": 0,
  "HasResidual": 0,
  "ConvXAsActInputIdx": -1,
  "BiasAsActInputIdx": -1,
  "ResAsActInputIdx": -1,
  "Activation": "NONE",
  "HasBias": 1,
  "HasReLU": 0,
  "TacticName": "sm80_xmma_fprop_implicit_gemm_f16f16_f16f16_f16_nhwckrsc_nhwc_tilesize256x64x32_stage3_warpsize4x1x1_g1_tensor16x8x16_simple_t1r1s1",
  "TacticValue": "0x3eda3b336995a6f0"
},{
  "Name": "node_of_gpu_0/res2_0_branch2c_1 + node_of_gpu_0/res2_0_branch2c_bn_1 + node_of_gpu_0/res2_0_branch2c_bn_2 + node_of_gpu_0/res2_0_branch2c_bn_3",
  "LayerType": "CaskConvolution",
  "Inputs": [
  {
    "Name": "gpu_0/res2_0_branch2b_bn_2",
    "Location": "Device",
    "Dimensions": [1,64,56,56],
    "Format/Datatype": "Channel major FP16 format where channel % 8 == 0"
  },
  {
    "Name": "gpu_0/res2_0_branch1_bn_1",
    "Location": "Device",
    "Dimensions": [1,256,56,56],
    "Format/Datatype": "Channel major FP16 format where channel % 8 == 0"
  }],
  "Outputs": [
  {
    "Name": "gpu_0/res2_0_branch2c_bn_3",
    "Location": "Device",
    "Dimensions": [1,256,56,56],
    "Format/Datatype": "Channel major FP16 format where channel % 8 == 0"
  }],
  "ParameterType": "Convolution",
  "Kernel": [1,1],
  "PaddingMode": "kEXPLICIT_ROUND_DOWN",
  "PrePadding": [0,0],
  "PostPadding": [0,0],
  "Stride": [1,1],
  "Dilation": [1,1],
  "OutMaps": 256,
  "Groups": 1,
  "Weights": {"Type": "Half", "Count": 16384},
  "Bias": {"Type": "Half", "Count": 256},
  "HasSparseWeights": 0,
  "HasDynamicFilter": 0,
  "HasDynamicBias": 0,
  "HasResidual": 1,
  "ConvXAsActInputIdx": -1,
  "BiasAsActInputIdx": -1,
  "ResAsActInputIdx": -1,
  "Activation": "RELU",
  "HasBias": 1,
  "HasReLU": 1,
  "TacticName": "sm80_xmma_fprop_implicit_gemm_indexed_f16f16_f16f16_f16_nhwckrsc_nhwc_tilesize128x128x32_stage4_warpsize2x2x1_g1_tensor16x8x16",
  "TacticValue": "0x0e07ff4f4f7c1ac9"
},{
  "Name": "node_of_gpu_0/res2_1_branch2a_1 + node_of_gpu_0/res2_1_branch2a_bn_1 + node_of_gpu_0/res2_1_branch2a_bn_2",
  "LayerType": "CaskConvolution",
  "Inputs": [
  {
    "Name": "gpu_0/res2_0_branch2c_bn_3",
    "Location": "Device",
    "Dimensions": [1,256,56,56],
    "Format/Datatype": "Channel major FP16 format where channel % 8 == 0"
  }],
  "Outputs": [
  {
    "Name": "gpu_0/res2_1_branch2a_bn_2",
    "Location": "Device",
    "Dimensions": [1,64,56,56],
    "Format/Datatype": "Channel major FP16 format where channel % 8 == 0"
  }],
  "ParameterType": "Convolution",
  "Kernel": [1,1],
  "PaddingMode": "kEXPLICIT_ROUND_DOWN",
  "PrePadding": [0,0],
  "PostPadding": [0,0],
  "Stride": [1,1],
  "Dilation": [1,1],
  "OutMaps": 64,
  "Groups": 1,
  "Weights": {"Type": "Half", "Count": 16384},
  "Bias": {"Type": "Half", "Count": 64},
  "HasSparseWeights": 0,
  "HasDynamicFilter": 0,
  "HasDynamicBias": 0,
  "HasResidual": 0,
  "ConvXAsActInputIdx": -1,
  "BiasAsActInputIdx": -1,
  "ResAsActInputIdx": -1,
  "Activation": "RELU",
  "HasBias": 1,
  "HasReLU": 1,
  "TacticName": "sm80_xmma_fprop_implicit_gemm_f16f16_f16f16_f16_nhwckrsc_nhwc_tilesize64x64x64_stage4_warpsize2x2x1_g1_tensor16x8x16_simple_t1r1s1",
  "TacticValue": "0x361d222e42fcb76c"
},{
  "Name": "node_of_gpu_0/res2_1_branch2b_1 + node_of_gpu_0/res2_1_branch2b_bn_1 + node_of_gpu_0/res2_1_branch2b_bn_2",
  "LayerType": "CaskConvolution",
  "Inputs": [
  {
    "Name": "gpu_0/res2_1_branch2a_bn_2",
    "Location": "Device",
    "Dimensions": [1,64,56,56],
    "Format/Datatype": "Channel major FP16 format where channel % 8 == 0"
  }],
  "Outputs": [
  {
    "Name": "gpu_0/res2_1_branch2b_bn_2",
    "Location": "Device",
    "Dimensions": [1,64,56,56],
    "Format/Datatype": "Channel major FP16 format where channel % 8 == 0"
  }],
  "ParameterType": "Convolution",
  "Kernel": [3,3],
  "PaddingMode": "kEXPLICIT_ROUND_DOWN",
  "PrePadding": [1,1],
  "PostPadding": [1,1],
  "Stride": [1,1],
  "Dilation": [1,1],
  "OutMaps": 64,
  "Groups": 1,
  "Weights": {"Type": "Half", "Count": 36864},
  "Bias": {"Type": "Half", "Count": 64},
  "HasSparseWeights": 0,
  "HasDynamicFilter": 0,
  "HasDynamicBias": 0,
  "HasResidual": 0,
  "ConvXAsActInputIdx": -1,
  "BiasAsActInputIdx": -1,
  "ResAsActInputIdx": -1,
  "Activation": "RELU",
  "HasBias": 1,
  "HasReLU": 1,
  "TacticName": "sm80_xmma_fprop_implicit_gemm_f16f16_f16f16_f16_nhwckrsc_nhwc_tilesize64x64x64_stage4_warpsize2x2x1_g1_tensor16x8x16_t1r3s3_aACCESS",
  "TacticValue": "0x30e8a8d7a953e5e9"
},{
  "Name": "node_of_gpu_0/res2_1_branch2c_1 + node_of_gpu_0/res2_1_branch2c_bn_1 + node_of_gpu_0/res2_1_branch2c_bn_2 + node_of_gpu_0/res2_1_branch2c_bn_3",
  "LayerType": "CaskConvolution",
  "Inputs": [
  {
    "Name": "gpu_0/res2_1_branch2b_bn_2",
    "Location": "Device",
    "Dimensions": [1,64,56,56],
    "Format/Datatype": "Channel major FP16 format where channel % 8 == 0"
  },
  {
    "Name": "gpu_0/res2_0_branch2c_bn_3",
    "Location": "Device",
    "Dimensions": [1,256,56,56],
    "Format/Datatype": "Channel major FP16 format where channel % 8 == 0"
  }],
  "Outputs": [
  {
    "Name": "gpu_0/res2_1_branch2c_bn_3",
    "Location": "Device",
    "Dimensions": [1,256,56,56],
    "Format/Datatype": "Channel major FP16 format where channel % 8 == 0"
  }],
  "ParameterType": "Convolution",
  "Kernel": [1,1],
  "PaddingMode": "kEXPLICIT_ROUND_DOWN",
  "PrePadding": [0,0],
  "PostPadding": [0,0],
  "Stride": [1,1],
  "Dilation": [1,1],
  "OutMaps": 256,
  "Groups": 1,
  "Weights": {"Type": "Half", "Count": 16384},
  "Bias": {"Type": "Half", "Count": 256},
  "HasSparseWeights": 0,
  "HasDynamicFilter": 0,
  "HasDynamicBias": 0,
  "HasResidual": 1,
  "ConvXAsActInputIdx": -1,
  "BiasAsActInputIdx": -1,
  "ResAsActInputIdx": -1,
  "Activation": "RELU",
  "HasBias": 1,
  "HasReLU": 1,
  "TacticName": "sm80_xmma_fprop_implicit_gemm_indexed_f16f16_f16f16_f16_nhwckrsc_nhwc_tilesize128x128x32_stage4_warpsize2x2x1_g1_tensor16x8x16",
  "TacticValue": "0x0e07ff4f4f7c1ac9"
},{
  "Name": "node_of_gpu_0/res2_2_branch2a_1 + node_of_gpu_0/res2_2_branch2a_bn_1 + node_of_gpu_0/res2_2_branch2a_bn_2",
  "LayerType": "CaskConvolution",
  "Inputs": [
  {
    "Name": "gpu_0/res2_1_branch2c_bn_3",
    "Location": "Device",
    "Dimensions": [1,256,56,56],
    "Format/Datatype": "Channel major FP16 format where channel % 8 == 0"
  }],
  "Outputs": [
  {
    "Name": "gpu_0/res2_2_branch2a_bn_2",
    "Location": "Device",
    "Dimensions": [1,64,56,56],
    "Format/Datatype": "Channel major FP16 format where channel % 8 == 0"
  }],
  "ParameterType": "Convolution",
  "Kernel": [1,1],
  "PaddingMode": "kEXPLICIT_ROUND_DOWN",
  "PrePadding": [0,0],
  "PostPadding": [0,0],
  "Stride": [1,1],
  "Dilation": [1,1],
  "OutMaps": 64,
  "Groups": 1,
  "Weights": {"Type": "Half", "Count": 16384},
  "Bias": {"Type": "Half", "Count": 64},
  "HasSparseWeights": 0,
  "HasDynamicFilter": 0,
  "HasDynamicBias": 0,
  "HasResidual": 0,
  "ConvXAsActInputIdx": -1,
  "BiasAsActInputIdx": -1,
  "ResAsActInputIdx": -1,
  "Activation": "RELU",
  "HasBias": 1,
  "HasReLU": 1,
  "TacticName": "sm80_xmma_fprop_implicit_gemm_f16f16_f16f16_f16_nhwckrsc_nhwc_tilesize64x64x64_stage4_warpsize2x2x1_g1_tensor16x8x16_simple_t1r1s1",
  "TacticValue": "0x361d222e42fcb76c"
},{
  "Name": "node_of_gpu_0/res2_2_branch2b_1 + node_of_gpu_0/res2_2_branch2b_bn_1 + node_of_gpu_0/res2_2_branch2b_bn_2",
  "LayerType": "CaskConvolution",
  "Inputs": [
  {
    "Name": "gpu_0/res2_2_branch2a_bn_2",
    "Location": "Device",
    "Dimensions": [1,64,56,56],
    "Format/Datatype": "Channel major FP16 format where channel % 8 == 0"
  }],
  "Outputs": [
  {
    "Name": "gpu_0/res2_2_branch2b_bn_2",
    "Location": "Device",
    "Dimensions": [1,64,56,56],
    "Format/Datatype": "Channel major FP16 format where channel % 8 == 0"
  }],
  "ParameterType": "Convolution",
  "Kernel": [3,3],
  "PaddingMode": "kEXPLICIT_ROUND_DOWN",
  "PrePadding": [1,1],
  "PostPadding": [1,1],
  "Stride": [1,1],
  "Dilation": [1,1],
  "OutMaps": 64,
  "Groups": 1,
  "Weights": {"Type": "Half", "Count": 36864},
  "Bias": {"Type": "Half", "Count": 64},
  "HasSparseWeights": 0,
  "HasDynamicFilter": 0,
  "HasDynamicBias": 0,
  "HasResidual": 0,
  "ConvXAsActInputIdx": -1,
  "BiasAsActInputIdx": -1,
  "ResAsActInputIdx": -1,
  "Activation": "RELU",
  "HasBias": 1,
  "HasReLU": 1,
  "TacticName": "sm80_xmma_fprop_implicit_gemm_f16f16_f16f16_f16_nhwckrsc_nhwc_tilesize64x64x64_stage4_warpsize2x2x1_g1_tensor16x8x16_t1r3s3_aACCESS",
  "TacticValue": "0x30e8a8d7a953e5e9"
},{
  "Name": "node_of_gpu_0/res2_2_branch2c_1 + node_of_gpu_0/res2_2_branch2c_bn_1 + node_of_gpu_0/res2_2_branch2c_bn_2 + node_of_gpu_0/res2_2_branch2c_bn_3",
  "LayerType": "CaskConvolution",
  "Inputs": [
  {
    "Name": "gpu_0/res2_2_branch2b_bn_2",
    "Location": "Device",
    "Dimensions": [1,64,56,56],
    "Format/Datatype": "Channel major FP16 format where channel % 8 == 0"
  },
  {
    "Name": "gpu_0/res2_1_branch2c_bn_3",
    "Location": "Device",
    "Dimensions": [1,256,56,56],
    "Format/Datatype": "Channel major FP16 format where channel % 8 == 0"
  }],
  "Outputs": [
  {
    "Name": "gpu_0/res2_2_branch2c_bn_3",
    "Location": "Device",
    "Dimensions": [1,256,56,56],
    "Format/Datatype": "Channel major FP16 format where channel % 8 == 0"
  }],
  "ParameterType": "Convolution",
  "Kernel": [1,1],
  "PaddingMode": "kEXPLICIT_ROUND_DOWN",
  "PrePadding": [0,0],
  "PostPadding": [0,0],
  "Stride": [1,1],
  "Dilation": [1,1],
  "OutMaps": 256,
  "Groups": 1,
  "Weights": {"Type": "Half", "Count": 16384},
  "Bias": {"Type": "Half", "Count": 256},
  "HasSparseWeights": 0,
  "HasDynamicFilter": 0,
  "HasDynamicBias": 0,
  "HasResidual": 1,
  "ConvXAsActInputIdx": -1,
  "BiasAsActInputIdx": -1,
  "ResAsActInputIdx": -1,
  "Activation": "RELU",
  "HasBias": 1,
  "HasReLU": 1,
  "TacticName": "sm80_xmma_fprop_implicit_gemm_indexed_f16f16_f16f16_f16_nhwckrsc_nhwc_tilesize128x128x32_stage4_warpsize2x2x1_g1_tensor16x8x16",
  "TacticValue": "0x0e07ff4f4f7c1ac9"
},{
  "Name": "node_of_gpu_0/res3_0_branch2a_1 + node_of_gpu_0/res3_0_branch2a_bn_1 + node_of_gpu_0/res3_0_branch2a_bn_2",
  "LayerType": "CaskConvolution",
  "Inputs": [
  {
    "Name": "gpu_0/res2_2_branch2c_bn_3",
    "Location": "Device",
    "Dimensions": [1,256,56,56],
    "Format/Datatype": "Channel major FP16 format where channel % 8 == 0"
  }],
  "Outputs": [
  {
    "Name": "gpu_0/res3_0_branch2a_bn_2",
    "Location": "Device",
    "Dimensions": [1,128,56,56],
    "Format/Datatype": "Channel major FP16 format where channel % 8 == 0"
  }],
  "ParameterType": "Convolution",
  "Kernel": [1,1],
  "PaddingMode": "kEXPLICIT_ROUND_DOWN",
  "PrePadding": [0,0],
  "PostPadding": [0,0],
  "Stride": [1,1],
  "Dilation": [1,1],
  "OutMaps": 128,
  "Groups": 1,
  "Weights": {"Type": "Half", "Count": 32768},
  "Bias": {"Type": "Half", "Count": 128},
  "HasSparseWeights": 0,
  "HasDynamicFilter": 0,
  "HasDynamicBias": 0,
  "HasResidual": 0,
  "ConvXAsActInputIdx": -1,
  "BiasAsActInputIdx": -1,
  "ResAsActInputIdx": -1,
  "Activation": "RELU",
  "HasBias": 1,
  "HasReLU": 1,
  "TacticName": "sm80_xmma_fprop_implicit_gemm_indexed_f16f16_f16f16_f16_nhwckrsc_nhwc_tilesize64x128x32_stage5_warpsize2x2x1_g1_tensor16x8x16",
  "TacticValue": "0xafd1e8bf6bd3d638"
},{
  "Name": "node_of_gpu_0/res3_0_branch2b_1 + node_of_gpu_0/res3_0_branch2b_bn_1 + node_of_gpu_0/res3_0_branch2b_bn_2",
  "LayerType": "CaskConvolution",
  "Inputs": [
  {
    "Name": "gpu_0/res3_0_branch2a_bn_2",
    "Location": "Device",
    "Dimensions": [1,128,56,56],
    "Format/Datatype": "Channel major FP16 format where channel % 8 == 0"
  }],
  "Outputs": [
  {
    "Name": "gpu_0/res3_0_branch2b_bn_2",
    "Location": "Device",
    "Dimensions": [1,128,28,28],
    "Format/Datatype": "Channel major FP16 format where channel % 8 == 0"
  }],
  "ParameterType": "Convolution",
  "Kernel": [3,3],
  "PaddingMode": "kEXPLICIT_ROUND_DOWN",
  "PrePadding": [1,1],
  "PostPadding": [1,1],
  "Stride": [2,2],
  "Dilation": [1,1],
  "OutMaps": 128,
  "Groups": 1,
  "Weights": {"Type": "Half", "Count": 147456},
  "Bias": {"Type": "Half", "Count": 128},
  "HasSparseWeights": 0,
  "HasDynamicFilter": 0,
  "HasDynamicBias": 0,
  "HasResidual": 0,
  "ConvXAsActInputIdx": -1,
  "BiasAsActInputIdx": -1,
  "ResAsActInputIdx": -1,
  "Activation": "RELU",
  "HasBias": 1,
  "HasReLU": 1,
  "TacticName": "sm80_xmma_fprop_implicit_gemm_indexed_f16f16_f16f16_f16_nhwckrsc_nhwc_tilesize64x32x64_stage5_warpsize2x2x1_g1_tensor16x8x16",
  "TacticValue": "0xe1ff5ad20f5c6bf6"
},{
  "Name": "node_of_gpu_0/res3_0_branch1_1 + node_of_gpu_0/res3_0_branch1_bn_1",
  "LayerType": "CaskConvolution",
  "Inputs": [
  {
    "Name": "gpu_0/res2_2_branch2c_bn_3",
    "Location": "Device",
    "Dimensions": [1,256,56,56],
    "Format/Datatype": "Channel major FP16 format where channel % 8 == 0"
  }],
  "Outputs": [
  {
    "Name": "gpu_0/res3_0_branch1_bn_1",
    "Location": "Device",
    "Dimensions": [1,512,28,28],
    "Format/Datatype": "Channel major FP16 format where channel % 8 == 0"
  }],
  "ParameterType": "Convolution",
  "Kernel": [1,1],
  "PaddingMode": "kEXPLICIT_ROUND_DOWN",
  "PrePadding": [0,0],
  "PostPadding": [0,0],
  "Stride": [2,2],
  "Dilation": [1,1],
  "OutMaps": 512,
  "Groups": 1,
  "Weights": {"Type": "Half", "Count": 131072},
  "Bias": {"Type": "Half", "Count": 512},
  "HasSparseWeights": 0,
  "HasDynamicFilter": 0,
  "HasDynamicBias": 0,
  "HasResidual": 0,
  "ConvXAsActInputIdx": -1,
  "BiasAsActInputIdx": -1,
  "ResAsActInputIdx": -1,
  "Activation": "NONE",
  "HasBias": 1,
  "HasReLU": 0,
  "TacticName": "sm80_xmma_fprop_implicit_gemm_indexed_f16f16_f16f16_f16_nhwckrsc_nhwc_tilesize64x128x32_stage5_warpsize2x2x1_g1_tensor16x8x16",
  "TacticValue": "0xafd1e8bf6bd3d638"
},{
  "Name": "node_of_gpu_0/res3_0_branch2c_1 + node_of_gpu_0/res3_0_branch2c_bn_1 + node_of_gpu_0/res3_0_branch2c_bn_2 + node_of_gpu_0/res3_0_branch2c_bn_3",
  "LayerType": "CaskConvolution",
  "Inputs": [
  {
    "Name": "gpu_0/res3_0_branch2b_bn_2",
    "Location": "Device",
    "Dimensions": [1,128,28,28],
    "Format/Datatype": "Channel major FP16 format where channel % 8 == 0"
  },
  {
    "Name": "gpu_0/res3_0_branch1_bn_1",
    "Location": "Device",
    "Dimensions": [1,512,28,28],
    "Format/Datatype": "Channel major FP16 format where channel % 8 == 0"
  }],
  "Outputs": [
  {
    "Name": "gpu_0/res3_0_branch2c_bn_3",
    "Location": "Device",
    "Dimensions": [1,512,28,28],
    "Format/Datatype": "Channel major FP16 format where channel % 8 == 0"
  }],
  "ParameterType": "Convolution",
  "Kernel": [1,1],
  "PaddingMode": "kEXPLICIT_ROUND_DOWN",
  "PrePadding": [0,0],
  "PostPadding": [0,0],
  "Stride": [1,1],
  "Dilation": [1,1],
  "OutMaps": 512,
  "Groups": 1,
  "Weights": {"Type": "Half", "Count": 65536},
  "Bias": {"Type": "Half", "Count": 512},
  "HasSparseWeights": 0,
  "HasDynamicFilter": 0,
  "HasDynamicBias": 0,
  "HasResidual": 1,
  "ConvXAsActInputIdx": -1,
  "BiasAsActInputIdx": -1,
  "ResAsActInputIdx": -1,
  "Activation": "RELU",
  "HasBias": 1,
  "HasReLU": 1,
  "TacticName": "sm80_xmma_fprop_implicit_gemm_indexed_f16f16_f16f16_f16_nhwckrsc_nhwc_tilesize64x128x32_stage5_warpsize2x2x1_g1_tensor16x8x16",
  "TacticValue": "0xafd1e8bf6bd3d638"
},{
  "Name": "node_of_gpu_0/res3_1_branch2a_1 + node_of_gpu_0/res3_1_branch2a_bn_1 + node_of_gpu_0/res3_1_branch2a_bn_2",
  "LayerType": "CaskConvolution",
  "Inputs": [
  {
    "Name": "gpu_0/res3_0_branch2c_bn_3",
    "Location": "Device",
    "Dimensions": [1,512,28,28],
    "Format/Datatype": "Channel major FP16 format where channel % 8 == 0"
  }],
  "Outputs": [
  {
    "Name": "gpu_0/res3_1_branch2a_bn_2",
    "Location": "Device",
    "Dimensions": [1,128,28,28],
    "Format/Datatype": "Channel major FP16 format where channel % 8 == 0"
  }],
  "ParameterType": "Convolution",
  "Kernel": [1,1],
  "PaddingMode": "kEXPLICIT_ROUND_DOWN",
  "PrePadding": [0,0],
  "PostPadding": [0,0],
  "Stride": [1,1],
  "Dilation": [1,1],
  "OutMaps": 128,
  "Groups": 1,
  "Weights": {"Type": "Half", "Count": 65536},
  "Bias": {"Type": "Half", "Count": 128},
  "HasSparseWeights": 0,
  "HasDynamicFilter": 0,
  "HasDynamicBias": 0,
  "HasResidual": 0,
  "ConvXAsActInputIdx": -1,
  "BiasAsActInputIdx": -1,
  "ResAsActInputIdx": -1,
  "Activation": "RELU",
  "HasBias": 1,
  "HasReLU": 1,
  "TacticName": "sm80_xmma_fprop_implicit_gemm_indexed_f16f16_f16f16_f16_nhwckrsc_nhwc_tilesize64x32x64_stage5_warpsize2x2x1_g1_tensor16x8x16",
  "TacticValue": "0xe1ff5ad20f5c6bf6"
},{
  "Name": "node_of_gpu_0/res3_1_branch2b_1 + node_of_gpu_0/res3_1_branch2b_bn_1 + node_of_gpu_0/res3_1_branch2b_bn_2",
  "LayerType": "CaskConvolution",
  "Inputs": [
  {
    "Name": "gpu_0/res3_1_branch2a_bn_2",
    "Location": "Device",
    "Dimensions": [1,128,28,28],
    "Format/Datatype": "Channel major FP16 format where channel % 8 == 0"
  }],
  "Outputs": [
  {
    "Name": "gpu_0/res3_1_branch2b_bn_2",
    "Location": "Device",
    "Dimensions": [1,128,28,28],
    "Format/Datatype": "Channel major FP16 format where channel % 8 == 0"
  }],
  "ParameterType": "Convolution",
  "Kernel": [3,3],
  "PaddingMode": "kEXPLICIT_ROUND_DOWN",
  "PrePadding": [1,1],
  "PostPadding": [1,1],
  "Stride": [1,1],
  "Dilation": [1,1],
  "OutMaps": 128,
  "Groups": 1,
  "Weights": {"Type": "Half", "Count": 147456},
  "Bias": {"Type": "Half", "Count": 128},
  "HasSparseWeights": 0,
  "HasDynamicFilter": 0,
  "HasDynamicBias": 0,
  "HasResidual": 0,
  "ConvXAsActInputIdx": -1,
  "BiasAsActInputIdx": -1,
  "ResAsActInputIdx": -1,
  "Activation": "RELU",
  "HasBias": 1,
  "HasReLU": 1,
  "TacticName": "sm80_xmma_fprop_implicit_gemm_f16f16_f16f16_f16_nhwckrsc_nhwc_tilesize64x32x64_stage5_warpsize2x2x1_g1_tensor16x8x16_t1r3s3",
  "TacticValue": "0xa033e20ae9f412b2"
},{
  "Name": "node_of_gpu_0/res3_1_branch2c_1 + node_of_gpu_0/res3_1_branch2c_bn_1 + node_of_gpu_0/res3_1_branch2c_bn_2 + node_of_gpu_0/res3_1_branch2c_bn_3",
  "LayerType": "CaskConvolution",
  "Inputs": [
  {
    "Name": "gpu_0/res3_1_branch2b_bn_2",
    "Location": "Device",
    "Dimensions": [1,128,28,28],
    "Format/Datatype": "Channel major FP16 format where channel % 8 == 0"
  },
  {
    "Name": "gpu_0/res3_0_branch2c_bn_3",
    "Location": "Device",
    "Dimensions": [1,512,28,28],
    "Format/Datatype": "Channel major FP16 format where channel % 8 == 0"
  }],
  "Outputs": [
  {
    "Name": "gpu_0/res3_1_branch2c_bn_3",
    "Location": "Device",
    "Dimensions": [1,512,28,28],
    "Format/Datatype": "Channel major FP16 format where channel % 8 == 0"
  }],
  "ParameterType": "Convolution",
  "Kernel": [1,1],
  "PaddingMode": "kEXPLICIT_ROUND_DOWN",
  "PrePadding": [0,0],
  "PostPadding": [0,0],
  "Stride": [1,1],
  "Dilation": [1,1],
  "OutMaps": 512,
  "Groups": 1,
  "Weights": {"Type": "Half", "Count": 65536},
  "Bias": {"Type": "Half", "Count": 512},
  "HasSparseWeights": 0,
  "HasDynamicFilter": 0,
  "HasDynamicBias": 0,
  "HasResidual": 1,
  "ConvXAsActInputIdx": -1,
  "BiasAsActInputIdx": -1,
  "ResAsActInputIdx": -1,
  "Activation": "RELU",
  "HasBias": 1,
  "HasReLU": 1,
  "TacticName": "sm80_xmma_fprop_implicit_gemm_indexed_f16f16_f16f16_f16_nhwckrsc_nhwc_tilesize64x128x32_stage5_warpsize2x2x1_g1_tensor16x8x16",
  "TacticValue": "0xafd1e8bf6bd3d638"
},{
  "Name": "node_of_gpu_0/res3_2_branch2a_1 + node_of_gpu_0/res3_2_branch2a_bn_1 + node_of_gpu_0/res3_2_branch2a_bn_2",
  "LayerType": "CaskConvolution",
  "Inputs": [
  {
    "Name": "gpu_0/res3_1_branch2c_bn_3",
    "Location": "Device",
    "Dimensions": [1,512,28,28],
    "Format/Datatype": "Channel major FP16 format where channel % 8 == 0"
  }],
  "Outputs": [
  {
    "Name": "gpu_0/res3_2_branch2a_bn_2",
    "Location": "Device",
    "Dimensions": [1,128,28,28],
    "Format/Datatype": "Channel major FP16 format where channel % 8 == 0"
  }],
  "ParameterType": "Convolution",
  "Kernel": [1,1],
  "PaddingMode": "kEXPLICIT_ROUND_DOWN",
  "PrePadding": [0,0],
  "PostPadding": [0,0],
  "Stride": [1,1],
  "Dilation": [1,1],
  "OutMaps": 128,
  "Groups": 1,
  "Weights": {"Type": "Half", "Count": 65536},
  "Bias": {"Type": "Half", "Count": 128},
  "HasSparseWeights": 0,
  "HasDynamicFilter": 0,
  "HasDynamicBias": 0,
  "HasResidual": 0,
  "ConvXAsActInputIdx": -1,
  "BiasAsActInputIdx": -1,
  "ResAsActInputIdx": -1,
  "Activation": "RELU",
  "HasBias": 1,
  "HasReLU": 1,
  "TacticName": "sm80_xmma_fprop_implicit_gemm_indexed_f16f16_f16f16_f16_nhwckrsc_nhwc_tilesize64x32x64_stage5_warpsize2x2x1_g1_tensor16x8x16",
  "TacticValue": "0xe1ff5ad20f5c6bf6"
},{
  "Name": "node_of_gpu_0/res3_2_branch2b_1 + node_of_gpu_0/res3_2_branch2b_bn_1 + node_of_gpu_0/res3_2_branch2b_bn_2",
  "LayerType": "CaskConvolution",
  "Inputs": [
  {
    "Name": "gpu_0/res3_2_branch2a_bn_2",
    "Location": "Device",
    "Dimensions": [1,128,28,28],
    "Format/Datatype": "Channel major FP16 format where channel % 8 == 0"
  }],
  "Outputs": [
  {
    "Name": "gpu_0/res3_2_branch2b_bn_2",
    "Location": "Device",
    "Dimensions": [1,128,28,28],
    "Format/Datatype": "Channel major FP16 format where channel % 8 == 0"
  }],
  "ParameterType": "Convolution",
  "Kernel": [3,3],
  "PaddingMode": "kEXPLICIT_ROUND_DOWN",
  "PrePadding": [1,1],
  "PostPadding": [1,1],
  "Stride": [1,1],
  "Dilation": [1,1],
  "OutMaps": 128,
  "Groups": 1,
  "Weights": {"Type": "Half", "Count": 147456},
  "Bias": {"Type": "Half", "Count": 128},
  "HasSparseWeights": 0,
  "HasDynamicFilter": 0,
  "HasDynamicBias": 0,
  "HasResidual": 0,
  "ConvXAsActInputIdx": -1,
  "BiasAsActInputIdx": -1,
  "ResAsActInputIdx": -1,
  "Activation": "RELU",
  "HasBias": 1,
  "HasReLU": 1,
  "TacticName": "sm80_xmma_fprop_implicit_gemm_f16f16_f16f16_f16_nhwckrsc_nhwc_tilesize64x32x64_stage5_warpsize2x2x1_g1_tensor16x8x16_t1r3s3",
  "TacticValue": "0xa033e20ae9f412b2"
},{
  "Name": "node_of_gpu_0/res3_2_branch2c_1 + node_of_gpu_0/res3_2_branch2c_bn_1 + node_of_gpu_0/res3_2_branch2c_bn_2 + node_of_gpu_0/res3_2_branch2c_bn_3",
  "LayerType": "CaskConvolution",
  "Inputs": [
  {
    "Name": "gpu_0/res3_2_branch2b_bn_2",
    "Location": "Device",
    "Dimensions": [1,128,28,28],
    "Format/Datatype": "Channel major FP16 format where channel % 8 == 0"
  },
  {
    "Name": "gpu_0/res3_1_branch2c_bn_3",
    "Location": "Device",
    "Dimensions": [1,512,28,28],
    "Format/Datatype": "Channel major FP16 format where channel % 8 == 0"
  }],
  "Outputs": [
  {
    "Name": "gpu_0/res3_2_branch2c_bn_3",
    "Location": "Device",
    "Dimensions": [1,512,28,28],
    "Format/Datatype": "Channel major FP16 format where channel % 8 == 0"
  }],
  "ParameterType": "Convolution",
  "Kernel": [1,1],
  "PaddingMode": "kEXPLICIT_ROUND_DOWN",
  "PrePadding": [0,0],
  "PostPadding": [0,0],
  "Stride": [1,1],
  "Dilation": [1,1],
  "OutMaps": 512,
  "Groups": 1,
  "Weights": {"Type": "Half", "Count": 65536},
  "Bias": {"Type": "Half", "Count": 512},
  "HasSparseWeights": 0,
  "HasDynamicFilter": 0,
  "HasDynamicBias": 0,
  "HasResidual": 1,
  "ConvXAsActInputIdx": -1,
  "BiasAsActInputIdx": -1,
  "ResAsActInputIdx": -1,
  "Activation": "RELU",
  "HasBias": 1,
  "HasReLU": 1,
  "TacticName": "sm80_xmma_fprop_implicit_gemm_indexed_f16f16_f16f16_f16_nhwckrsc_nhwc_tilesize64x128x32_stage5_warpsize2x2x1_g1_tensor16x8x16",
  "TacticValue": "0xafd1e8bf6bd3d638"
},{
  "Name": "node_of_gpu_0/res3_3_branch2a_1 + node_of_gpu_0/res3_3_branch2a_bn_1 + node_of_gpu_0/res3_3_branch2a_bn_2",
  "LayerType": "CaskConvolution",
  "Inputs": [
  {
    "Name": "gpu_0/res3_2_branch2c_bn_3",
    "Location": "Device",
    "Dimensions": [1,512,28,28],
    "Format/Datatype": "Channel major FP16 format where channel % 8 == 0"
  }],
  "Outputs": [
  {
    "Name": "gpu_0/res3_3_branch2a_bn_2",
    "Location": "Device",
    "Dimensions": [1,128,28,28],
    "Format/Datatype": "Channel major FP16 format where channel % 8 == 0"
  }],
  "ParameterType": "Convolution",
  "Kernel": [1,1],
  "PaddingMode": "kEXPLICIT_ROUND_DOWN",
  "PrePadding": [0,0],
  "PostPadding": [0,0],
  "Stride": [1,1],
  "Dilation": [1,1],
  "OutMaps": 128,
  "Groups": 1,
  "Weights": {"Type": "Half", "Count": 65536},
  "Bias": {"Type": "Half", "Count": 128},
  "HasSparseWeights": 0,
  "HasDynamicFilter": 0,
  "HasDynamicBias": 0,
  "HasResidual": 0,
  "ConvXAsActInputIdx": -1,
  "BiasAsActInputIdx": -1,
  "ResAsActInputIdx": -1,
  "Activation": "RELU",
  "HasBias": 1,
  "HasReLU": 1,
  "TacticName": "sm80_xmma_fprop_implicit_gemm_indexed_f16f16_f16f16_f16_nhwckrsc_nhwc_tilesize64x32x64_stage5_warpsize2x2x1_g1_tensor16x8x16",
  "TacticValue": "0xe1ff5ad20f5c6bf6"
},{
  "Name": "node_of_gpu_0/res3_3_branch2b_1 + node_of_gpu_0/res3_3_branch2b_bn_1 + node_of_gpu_0/res3_3_branch2b_bn_2",
  "LayerType": "CaskConvolution",
  "Inputs": [
  {
    "Name": "gpu_0/res3_3_branch2a_bn_2",
    "Location": "Device",
    "Dimensions": [1,128,28,28],
    "Format/Datatype": "Channel major FP16 format where channel % 8 == 0"
  }],
  "Outputs": [
  {
    "Name": "gpu_0/res3_3_branch2b_bn_2",
    "Location": "Device",
    "Dimensions": [1,128,28,28],
    "Format/Datatype": "Channel major FP16 format where channel % 8 == 0"
  }],
  "ParameterType": "Convolution",
  "Kernel": [3,3],
  "PaddingMode": "kEXPLICIT_ROUND_DOWN",
  "PrePadding": [1,1],
  "PostPadding": [1,1],
  "Stride": [1,1],
  "Dilation": [1,1],
  "OutMaps": 128,
  "Groups": 1,
  "Weights": {"Type": "Half", "Count": 147456},
  "Bias": {"Type": "Half", "Count": 128},
  "HasSparseWeights": 0,
  "HasDynamicFilter": 0,
  "HasDynamicBias": 0,
  "HasResidual": 0,
  "ConvXAsActInputIdx": -1,
  "BiasAsActInputIdx": -1,
  "ResAsActInputIdx": -1,
  "Activation": "RELU",
  "HasBias": 1,
  "HasReLU": 1,
  "TacticName": "sm80_xmma_fprop_implicit_gemm_f16f16_f16f16_f16_nhwckrsc_nhwc_tilesize64x32x64_stage5_warpsize2x2x1_g1_tensor16x8x16_t1r3s3",
  "TacticValue": "0xa033e20ae9f412b2"
},{
  "Name": "node_of_gpu_0/res3_3_branch2c_1 + node_of_gpu_0/res3_3_branch2c_bn_1 + node_of_gpu_0/res3_3_branch2c_bn_2 + node_of_gpu_0/res3_3_branch2c_bn_3",
  "LayerType": "CaskConvolution",
  "Inputs": [
  {
    "Name": "gpu_0/res3_3_branch2b_bn_2",
    "Location": "Device",
    "Dimensions": [1,128,28,28],
    "Format/Datatype": "Channel major FP16 format where channel % 8 == 0"
  },
  {
    "Name": "gpu_0/res3_2_branch2c_bn_3",
    "Location": "Device",
    "Dimensions": [1,512,28,28],
    "Format/Datatype": "Channel major FP16 format where channel % 8 == 0"
  }],
  "Outputs": [
  {
    "Name": "gpu_0/res3_3_branch2c_bn_3",
    "Location": "Device",
    "Dimensions": [1,512,28,28],
    "Format/Datatype": "Channel major FP16 format where channel % 8 == 0"
  }],
  "ParameterType": "Convolution",
  "Kernel": [1,1],
  "PaddingMode": "kEXPLICIT_ROUND_DOWN",
  "PrePadding": [0,0],
  "PostPadding": [0,0],
  "Stride": [1,1],
  "Dilation": [1,1],
  "OutMaps": 512,
  "Groups": 1,
  "Weights": {"Type": "Half", "Count": 65536},
  "Bias": {"Type": "Half", "Count": 512},
  "HasSparseWeights": 0,
  "HasDynamicFilter": 0,
  "HasDynamicBias": 0,
  "HasResidual": 1,
  "ConvXAsActInputIdx": -1,
  "BiasAsActInputIdx": -1,
  "ResAsActInputIdx": -1,
  "Activation": "RELU",
  "HasBias": 1,
  "HasReLU": 1,
  "TacticName": "sm80_xmma_fprop_implicit_gemm_indexed_f16f16_f16f16_f16_nhwckrsc_nhwc_tilesize64x128x32_stage5_warpsize2x2x1_g1_tensor16x8x16",
  "TacticValue": "0xafd1e8bf6bd3d638"
},{
  "Name": "node_of_gpu_0/res4_0_branch2a_1 + node_of_gpu_0/res4_0_branch2a_bn_1 + node_of_gpu_0/res4_0_branch2a_bn_2",
  "LayerType": "CaskConvolution",
  "Inputs": [
  {
    "Name": "gpu_0/res3_3_branch2c_bn_3",
    "Location": "Device",
    "Dimensions": [1,512,28,28],
    "Format/Datatype": "Channel major FP16 format where channel % 8 == 0"
  }],
  "Outputs": [
  {
    "Name": "gpu_0/res4_0_branch2a_bn_2",
    "Location": "Device",
    "Dimensions": [1,256,28,28],
    "Format/Datatype": "Channel major FP16 format where channel % 8 == 0"
  }],
  "ParameterType": "Convolution",
  "Kernel": [1,1],
  "PaddingMode": "kEXPLICIT_ROUND_DOWN",
  "PrePadding": [0,0],
  "PostPadding": [0,0],
  "Stride": [1,1],
  "Dilation": [1,1],
  "OutMaps": 256,
  "Groups": 1,
  "Weights": {"Type": "Half", "Count": 131072},
  "Bias": {"Type": "Half", "Count": 256},
  "HasSparseWeights": 0,
  "HasDynamicFilter": 0,
  "HasDynamicBias": 0,
  "HasResidual": 0,
  "ConvXAsActInputIdx": -1,
  "BiasAsActInputIdx": -1,
  "ResAsActInputIdx": -1,
  "Activation": "RELU",
  "HasBias": 1,
  "HasReLU": 1,
  "TacticName": "sm80_xmma_fprop_implicit_gemm_indexed_f16f16_f16f16_f16_nhwckrsc_nhwc_tilesize64x64x64_stage4_warpsize2x2x1_g1_tensor16x8x16",
  "TacticValue": "0x4a81ea1e51436a30"
},{
  "Name": "node_of_gpu_0/res4_0_branch2b_1 + node_of_gpu_0/res4_0_branch2b_bn_1 + node_of_gpu_0/res4_0_branch2b_bn_2",
  "LayerType": "CaskConvolution",
  "Inputs": [
  {
    "Name": "gpu_0/res4_0_branch2a_bn_2",
    "Location": "Device",
    "Dimensions": [1,256,28,28],
    "Format/Datatype": "Channel major FP16 format where channel % 8 == 0"
  }],
  "Outputs": [
  {
    "Name": "gpu_0/res4_0_branch2b_bn_2",
    "Location": "Device",
    "Dimensions": [1,256,14,14],
    "Format/Datatype": "Channel major FP16 format where channel % 8 == 0"
  }],
  "ParameterType": "Convolution",
  "Kernel": [3,3],
  "PaddingMode": "kEXPLICIT_ROUND_DOWN",
  "PrePadding": [1,1],
  "PostPadding": [1,1],
  "Stride": [2,2],
  "Dilation": [1,1],
  "OutMaps": 256,
  "Groups": 1,
  "Weights": {"Type": "Half", "Count": 589824},
  "Bias": {"Type": "Half", "Count": 256},
  "HasSparseWeights": 0,
  "HasDynamicFilter": 0,
  "HasDynamicBias": 0,
  "HasResidual": 0,
  "ConvXAsActInputIdx": -1,
  "BiasAsActInputIdx": -1,
  "ResAsActInputIdx": -1,
  "Activation": "RELU",
  "HasBias": 1,
  "HasReLU": 1,
  "TacticName": "sm80_xmma_fprop_implicit_gemm_f16f16_f16f16_f16_nhwckrsc_nhwc_tilesize64x32x64_stage5_warpsize2x2x1_g1_tensor16x8x16_t1r3s3",
  "TacticValue": "0xa033e20ae9f412b2"
},{
  "Name": "node_of_gpu_0/res4_0_branch1_1 + node_of_gpu_0/res4_0_branch1_bn_1",
  "LayerType": "CaskConvolution",
  "Inputs": [
  {
    "Name": "gpu_0/res3_3_branch2c_bn_3",
    "Location": "Device",
    "Dimensions": [1,512,28,28],
    "Format/Datatype": "Channel major FP16 format where channel % 8 == 0"
  }],
  "Outputs": [
  {
    "Name": "gpu_0/res4_0_branch1_bn_1",
    "Location": "Device",
    "Dimensions": [1,1024,14,14],
    "Format/Datatype": "Channel major FP16 format where channel % 8 == 0"
  }],
  "ParameterType": "Convolution",
  "Kernel": [1,1],
  "PaddingMode": "kEXPLICIT_ROUND_DOWN",
  "PrePadding": [0,0],
  "PostPadding": [0,0],
  "Stride": [2,2],
  "Dilation": [1,1],
  "OutMaps": 1024,
  "Groups": 1,
  "Weights": {"Type": "Half", "Count": 524288},
  "Bias": {"Type": "Half", "Count": 1024},
  "HasSparseWeights": 0,
  "HasDynamicFilter": 0,
  "HasDynamicBias": 0,
  "HasResidual": 0,
  "ConvXAsActInputIdx": -1,
  "BiasAsActInputIdx": -1,
  "ResAsActInputIdx": -1,
  "Activation": "NONE",
  "HasBias": 1,
  "HasReLU": 0,
  "TacticName": "sm80_xmma_fprop_implicit_gemm_indexed_f16f16_f16f16_f16_nhwckrsc_nhwc_tilesize64x64x64_stage4_warpsize2x2x1_g1_tensor16x8x16",
  "TacticValue": "0x4a81ea1e51436a30"
},{
  "Name": "node_of_gpu_0/res4_0_branch2c_1 + node_of_gpu_0/res4_0_branch2c_bn_1 + node_of_gpu_0/res4_0_branch2c_bn_2 + node_of_gpu_0/res4_0_branch2c_bn_3",
  "LayerType": "CaskConvolution",
  "Inputs": [
  {
    "Name": "gpu_0/res4_0_branch2b_bn_2",
    "Location": "Device",
    "Dimensions": [1,256,14,14],
    "Format/Datatype": "Channel major FP16 format where channel % 8 == 0"
  },
  {
    "Name": "gpu_0/res4_0_branch1_bn_1",
    "Location": "Device",
    "Dimensions": [1,1024,14,14],
    "Format/Datatype": "Channel major FP16 format where channel % 8 == 0"
  }],
  "Outputs": [
  {
    "Name": "gpu_0/res4_0_branch2c_bn_3",
    "Location": "Device",
    "Dimensions": [1,1024,14,14],
    "Format/Datatype": "Channel major FP16 format where channel % 8 == 0"
  }],
  "ParameterType": "Convolution",
  "Kernel": [1,1],
  "PaddingMode": "kEXPLICIT_ROUND_DOWN",
  "PrePadding": [0,0],
  "PostPadding": [0,0],
  "Stride": [1,1],
  "Dilation": [1,1],
  "OutMaps": 1024,
  "Groups": 1,
  "Weights": {"Type": "Half", "Count": 262144},
  "Bias": {"Type": "Half", "Count": 1024},
  "HasSparseWeights": 0,
  "HasDynamicFilter": 0,
  "HasDynamicBias": 0,
  "HasResidual": 1,
  "ConvXAsActInputIdx": -1,
  "BiasAsActInputIdx": -1,
  "ResAsActInputIdx": -1,
  "Activation": "RELU",
  "HasBias": 1,
  "HasReLU": 1,
  "TacticName": "sm80_xmma_fprop_implicit_gemm_f16f16_f16f16_f16_nhwckrsc_nhwc_tilesize64x64x64_stage4_warpsize2x2x1_g1_tensor16x8x16_simple_t1r1s1",
  "TacticValue": "0x361d222e42fcb76c"
},{
  "Name": "node_of_gpu_0/res4_1_branch2a_1 + node_of_gpu_0/res4_1_branch2a_bn_1 + node_of_gpu_0/res4_1_branch2a_bn_2",
  "LayerType": "CaskConvolution",
  "Inputs": [
  {
    "Name": "gpu_0/res4_0_branch2c_bn_3",
    "Location": "Device",
    "Dimensions": [1,1024,14,14],
    "Format/Datatype": "Channel major FP16 format where channel % 8 == 0"
  }],
  "Outputs": [
  {
    "Name": "gpu_0/res4_1_branch2a_bn_2",
    "Location": "Device",
    "Dimensions": [1,256,14,14],
    "Format/Datatype": "Channel major FP16 format where channel % 8 == 0"
  }],
  "ParameterType": "Convolution",
  "Kernel": [1,1],
  "PaddingMode": "kEXPLICIT_ROUND_DOWN",
  "PrePadding": [0,0],
  "PostPadding": [0,0],
  "Stride": [1,1],
  "Dilation": [1,1],
  "OutMaps": 256,
  "Groups": 1,
  "Weights": {"Type": "Half", "Count": 262144},
  "Bias": {"Type": "Half", "Count": 256},
  "HasSparseWeights": 0,
  "HasDynamicFilter": 0,
  "HasDynamicBias": 0,
  "HasResidual": 0,
  "ConvXAsActInputIdx": -1,
  "BiasAsActInputIdx": -1,
  "ResAsActInputIdx": -1,
  "Activation": "RELU",
  "HasBias": 1,
  "HasReLU": 1,
  "TacticName": "sm80_xmma_fprop_implicit_gemm_f16f16_f16f16_f16_nhwckrsc_nhwc_tilesize64x32x64_stage5_warpsize2x2x1_g1_tensor16x8x16_simple_t1r1s1",
  "TacticValue": "0xe69f3e9fcc7b2069"
},{
  "Name": "node_of_gpu_0/res4_1_branch2b_1 + node_of_gpu_0/res4_1_branch2b_bn_1 + node_of_gpu_0/res4_1_branch2b_bn_2",
  "LayerType": "CaskConvolution",
  "Inputs": [
  {
    "Name": "gpu_0/res4_1_branch2a_bn_2",
    "Location": "Device",
    "Dimensions": [1,256,14,14],
    "Format/Datatype": "Channel major FP16 format where channel % 8 == 0"
  }],
  "Outputs": [
  {
    "Name": "gpu_0/res4_1_branch2b_bn_2",
    "Location": "Device",
    "Dimensions": [1,256,14,14],
    "Format/Datatype": "Channel major FP16 format where channel % 8 == 0"
  }],
  "ParameterType": "Convolution",
  "Kernel": [3,3],
  "PaddingMode": "kEXPLICIT_ROUND_DOWN",
  "PrePadding": [1,1],
  "PostPadding": [1,1],
  "Stride": [1,1],
  "Dilation": [1,1],
  "OutMaps": 256,
  "Groups": 1,
  "Weights": {"Type": "Half", "Count": 589824},
  "Bias": {"Type": "Half", "Count": 256},
  "HasSparseWeights": 0,
  "HasDynamicFilter": 0,
  "HasDynamicBias": 0,
  "HasResidual": 0,
  "ConvXAsActInputIdx": -1,
  "BiasAsActInputIdx": -1,
  "ResAsActInputIdx": -1,
  "Activation": "RELU",
  "HasBias": 1,
  "HasReLU": 1,
  "TacticName": "sm80_xmma_fprop_implicit_gemm_f16f16_f16f16_f16_nhwckrsc_nhwc_tilesize64x32x64_stage5_warpsize2x2x1_g1_tensor16x8x16_t1r3s3",
  "TacticValue": "0xa033e20ae9f412b2"
},{
  "Name": "node_of_gpu_0/res4_1_branch2c_1 + node_of_gpu_0/res4_1_branch2c_bn_1 + node_of_gpu_0/res4_1_branch2c_bn_2 + node_of_gpu_0/res4_1_branch2c_bn_3",
  "LayerType": "CaskConvolution",
  "Inputs": [
  {
    "Name": "gpu_0/res4_1_branch2b_bn_2",
    "Location": "Device",
    "Dimensions": [1,256,14,14],
    "Format/Datatype": "Channel major FP16 format where channel % 8 == 0"
  },
  {
    "Name": "gpu_0/res4_0_branch2c_bn_3",
    "Location": "Device",
    "Dimensions": [1,1024,14,14],
    "Format/Datatype": "Channel major FP16 format where channel % 8 == 0"
  }],
  "Outputs": [
  {
    "Name": "gpu_0/res4_1_branch2c_bn_3",
    "Location": "Device",
    "Dimensions": [1,1024,14,14],
    "Format/Datatype": "Channel major FP16 format where channel % 8 == 0"
  }],
  "ParameterType": "Convolution",
  "Kernel": [1,1],
  "PaddingMode": "kEXPLICIT_ROUND_DOWN",
  "PrePadding": [0,0],
  "PostPadding": [0,0],
  "Stride": [1,1],
  "Dilation": [1,1],
  "OutMaps": 1024,
  "Groups": 1,
  "Weights": {"Type": "Half", "Count": 262144},
  "Bias": {"Type": "Half", "Count": 1024},
  "HasSparseWeights": 0,
  "HasDynamicFilter": 0,
  "HasDynamicBias": 0,
  "HasResidual": 1,
  "ConvXAsActInputIdx": -1,
  "BiasAsActInputIdx": -1,
  "ResAsActInputIdx": -1,
  "Activation": "RELU",
  "HasBias": 1,
  "HasReLU": 1,
  "TacticName": "sm80_xmma_fprop_implicit_gemm_f16f16_f16f16_f16_nhwckrsc_nhwc_tilesize64x64x64_stage4_warpsize2x2x1_g1_tensor16x8x16_simple_t1r1s1",
  "TacticValue": "0x361d222e42fcb76c"
},{
  "Name": "node_of_gpu_0/res4_2_branch2a_1 + node_of_gpu_0/res4_2_branch2a_bn_1 + node_of_gpu_0/res4_2_branch2a_bn_2",
  "LayerType": "CaskConvolution",
  "Inputs": [
  {
    "Name": "gpu_0/res4_1_branch2c_bn_3",
    "Location": "Device",
    "Dimensions": [1,1024,14,14],
    "Format/Datatype": "Channel major FP16 format where channel % 8 == 0"
  }],
  "Outputs": [
  {
    "Name": "gpu_0/res4_2_branch2a_bn_2",
    "Location": "Device",
    "Dimensions": [1,256,14,14],
    "Format/Datatype": "Channel major FP16 format where channel % 8 == 0"
  }],
  "ParameterType": "Convolution",
  "Kernel": [1,1],
  "PaddingMode": "kEXPLICIT_ROUND_DOWN",
  "PrePadding": [0,0],
  "PostPadding": [0,0],
  "Stride": [1,1],
  "Dilation": [1,1],
  "OutMaps": 256,
  "Groups": 1,
  "Weights": {"Type": "Half", "Count": 262144},
  "Bias": {"Type": "Half", "Count": 256},
  "HasSparseWeights": 0,
  "HasDynamicFilter": 0,
  "HasDynamicBias": 0,
  "HasResidual": 0,
  "ConvXAsActInputIdx": -1,
  "BiasAsActInputIdx": -1,
  "ResAsActInputIdx": -1,
  "Activation": "RELU",
  "HasBias": 1,
  "HasReLU": 1,
  "TacticName": "sm80_xmma_fprop_implicit_gemm_f16f16_f16f16_f16_nhwckrsc_nhwc_tilesize64x32x64_stage5_warpsize2x2x1_g1_tensor16x8x16_simple_t1r1s1",
  "TacticValue": "0xe69f3e9fcc7b2069"
},{
  "Name": "node_of_gpu_0/res4_2_branch2b_1 + node_of_gpu_0/res4_2_branch2b_bn_1 + node_of_gpu_0/res4_2_branch2b_bn_2",
  "LayerType": "CaskConvolution",
  "Inputs": [
  {
    "Name": "gpu_0/res4_2_branch2a_bn_2",
    "Location": "Device",
    "Dimensions": [1,256,14,14],
    "Format/Datatype": "Channel major FP16 format where channel % 8 == 0"
  }],
  "Outputs": [
  {
    "Name": "gpu_0/res4_2_branch2b_bn_2",
    "Location": "Device",
    "Dimensions": [1,256,14,14],
    "Format/Datatype": "Channel major FP16 format where channel % 8 == 0"
  }],
  "ParameterType": "Convolution",
  "Kernel": [3,3],
  "PaddingMode": "kEXPLICIT_ROUND_DOWN",
  "PrePadding": [1,1],
  "PostPadding": [1,1],
  "Stride": [1,1],
  "Dilation": [1,1],
  "OutMaps": 256,
  "Groups": 1,
  "Weights": {"Type": "Half", "Count": 589824},
  "Bias": {"Type": "Half", "Count": 256},
  "HasSparseWeights": 0,
  "HasDynamicFilter": 0,
  "HasDynamicBias": 0,
  "HasResidual": 0,
  "ConvXAsActInputIdx": -1,
  "BiasAsActInputIdx": -1,
  "ResAsActInputIdx": -1,
  "Activation": "RELU",
  "HasBias": 1,
  "HasReLU": 1,
  "TacticName": "sm80_xmma_fprop_implicit_gemm_f16f16_f16f16_f16_nhwckrsc_nhwc_tilesize64x32x64_stage5_warpsize2x2x1_g1_tensor16x8x16_t1r3s3",
  "TacticValue": "0xa033e20ae9f412b2"
},{
  "Name": "node_of_gpu_0/res4_2_branch2c_1 + node_of_gpu_0/res4_2_branch2c_bn_1 + node_of_gpu_0/res4_2_branch2c_bn_2 + node_of_gpu_0/res4_2_branch2c_bn_3",
  "LayerType": "CaskConvolution",
  "Inputs": [
  {
    "Name": "gpu_0/res4_2_branch2b_bn_2",
    "Location": "Device",
    "Dimensions": [1,256,14,14],
    "Format/Datatype": "Channel major FP16 format where channel % 8 == 0"
  },
  {
    "Name": "gpu_0/res4_1_branch2c_bn_3",
    "Location": "Device",
    "Dimensions": [1,1024,14,14],
    "Format/Datatype": "Channel major FP16 format where channel % 8 == 0"
  }],
  "Outputs": [
  {
    "Name": "gpu_0/res4_2_branch2c_bn_3",
    "Location": "Device",
    "Dimensions": [1,1024,14,14],
    "Format/Datatype": "Channel major FP16 format where channel % 8 == 0"
  }],
  "ParameterType": "Convolution",
  "Kernel": [1,1],
  "PaddingMode": "kEXPLICIT_ROUND_DOWN",
  "PrePadding": [0,0],
  "PostPadding": [0,0],
  "Stride": [1,1],
  "Dilation": [1,1],
  "OutMaps": 1024,
  "Groups": 1,
  "Weights": {"Type": "Half", "Count": 262144},
  "Bias": {"Type": "Half", "Count": 1024},
  "HasSparseWeights": 0,
  "HasDynamicFilter": 0,
  "HasDynamicBias": 0,
  "HasResidual": 1,
  "ConvXAsActInputIdx": -1,
  "BiasAsActInputIdx": -1,
  "ResAsActInputIdx": -1,
  "Activation": "RELU",
  "HasBias": 1,
  "HasReLU": 1,
  "TacticName": "sm80_xmma_fprop_implicit_gemm_f16f16_f16f16_f16_nhwckrsc_nhwc_tilesize64x64x64_stage4_warpsize2x2x1_g1_tensor16x8x16_simple_t1r1s1",
  "TacticValue": "0x361d222e42fcb76c"
},{
  "Name": "node_of_gpu_0/res4_3_branch2a_1 + node_of_gpu_0/res4_3_branch2a_bn_1 + node_of_gpu_0/res4_3_branch2a_bn_2",
  "LayerType": "CaskConvolution",
  "Inputs": [
  {
    "Name": "gpu_0/res4_2_branch2c_bn_3",
    "Location": "Device",
    "Dimensions": [1,1024,14,14],
    "Format/Datatype": "Channel major FP16 format where channel % 8 == 0"
  }],
  "Outputs": [
  {
    "Name": "gpu_0/res4_3_branch2a_bn_2",
    "Location": "Device",
    "Dimensions": [1,256,14,14],
    "Format/Datatype": "Channel major FP16 format where channel % 8 == 0"
  }],
  "ParameterType": "Convolution",
  "Kernel": [1,1],
  "PaddingMode": "kEXPLICIT_ROUND_DOWN",
  "PrePadding": [0,0],
  "PostPadding": [0,0],
  "Stride": [1,1],
  "Dilation": [1,1],
  "OutMaps": 256,
  "Groups": 1,
  "Weights": {"Type": "Half", "Count": 262144},
  "Bias": {"Type": "Half", "Count": 256},
  "HasSparseWeights": 0,
  "HasDynamicFilter": 0,
  "HasDynamicBias": 0,
  "HasResidual": 0,
  "ConvXAsActInputIdx": -1,
  "BiasAsActInputIdx": -1,
  "ResAsActInputIdx": -1,
  "Activation": "RELU",
  "HasBias": 1,
  "HasReLU": 1,
  "TacticName": "sm80_xmma_fprop_implicit_gemm_f16f16_f16f16_f16_nhwckrsc_nhwc_tilesize64x32x64_stage5_warpsize2x2x1_g1_tensor16x8x16_simple_t1r1s1",
  "TacticValue": "0xe69f3e9fcc7b2069"
},{
  "Name": "node_of_gpu_0/res4_3_branch2b_1 + node_of_gpu_0/res4_3_branch2b_bn_1 + node_of_gpu_0/res4_3_branch2b_bn_2",
  "LayerType": "CaskConvolution",
  "Inputs": [
  {
    "Name": "gpu_0/res4_3_branch2a_bn_2",
    "Location": "Device",
    "Dimensions": [1,256,14,14],
    "Format/Datatype": "Channel major FP16 format where channel % 8 == 0"
  }],
  "Outputs": [
  {
    "Name": "gpu_0/res4_3_branch2b_bn_2",
    "Location": "Device",
    "Dimensions": [1,256,14,14],
    "Format/Datatype": "Channel major FP16 format where channel % 8 == 0"
  }],
  "ParameterType": "Convolution",
  "Kernel": [3,3],
  "PaddingMode": "kEXPLICIT_ROUND_DOWN",
  "PrePadding": [1,1],
  "PostPadding": [1,1],
  "Stride": [1,1],
  "Dilation": [1,1],
  "OutMaps": 256,
  "Groups": 1,
  "Weights": {"Type": "Half", "Count": 589824},
  "Bias": {"Type": "Half", "Count": 256},
  "HasSparseWeights": 0,
  "HasDynamicFilter": 0,
  "HasDynamicBias": 0,
  "HasResidual": 0,
  "ConvXAsActInputIdx": -1,
  "BiasAsActInputIdx": -1,
  "ResAsActInputIdx": -1,
  "Activation": "RELU",
  "HasBias": 1,
  "HasReLU": 1,
  "TacticName": "sm80_xmma_fprop_implicit_gemm_f16f16_f16f16_f16_nhwckrsc_nhwc_tilesize64x32x64_stage5_warpsize2x2x1_g1_tensor16x8x16_t1r3s3",
  "TacticValue": "0xa033e20ae9f412b2"
},{
  "Name": "node_of_gpu_0/res4_3_branch2c_1 + node_of_gpu_0/res4_3_branch2c_bn_1 + node_of_gpu_0/res4_3_branch2c_bn_2 + node_of_gpu_0/res4_3_branch2c_bn_3",
  "LayerType": "CaskConvolution",
  "Inputs": [
  {
    "Name": "gpu_0/res4_3_branch2b_bn_2",
    "Location": "Device",
    "Dimensions": [1,256,14,14],
    "Format/Datatype": "Channel major FP16 format where channel % 8 == 0"
  },
  {
    "Name": "gpu_0/res4_2_branch2c_bn_3",
    "Location": "Device",
    "Dimensions": [1,1024,14,14],
    "Format/Datatype": "Channel major FP16 format where channel % 8 == 0"
  }],
  "Outputs": [
  {
    "Name": "gpu_0/res4_3_branch2c_bn_3",
    "Location": "Device",
    "Dimensions": [1,1024,14,14],
    "Format/Datatype": "Channel major FP16 format where channel % 8 == 0"
  }],
  "ParameterType": "Convolution",
  "Kernel": [1,1],
  "PaddingMode": "kEXPLICIT_ROUND_DOWN",
  "PrePadding": [0,0],
  "PostPadding": [0,0],
  "Stride": [1,1],
  "Dilation": [1,1],
  "OutMaps": 1024,
  "Groups": 1,
  "Weights": {"Type": "Half", "Count": 262144},
  "Bias": {"Type": "Half", "Count": 1024},
  "HasSparseWeights": 0,
  "HasDynamicFilter": 0,
  "HasDynamicBias": 0,
  "HasResidual": 1,
  "ConvXAsActInputIdx": -1,
  "BiasAsActInputIdx": -1,
  "ResAsActInputIdx": -1,
  "Activation": "RELU",
  "HasBias": 1,
  "HasReLU": 1,
  "TacticName": "sm80_xmma_fprop_implicit_gemm_f16f16_f16f16_f16_nhwckrsc_nhwc_tilesize64x64x64_stage4_warpsize2x2x1_g1_tensor16x8x16_simple_t1r1s1",
  "TacticValue": "0x361d222e42fcb76c"
},{
  "Name": "node_of_gpu_0/res4_4_branch2a_1 + node_of_gpu_0/res4_4_branch2a_bn_1 + node_of_gpu_0/res4_4_branch2a_bn_2",
  "LayerType": "CaskConvolution",
  "Inputs": [
  {
    "Name": "gpu_0/res4_3_branch2c_bn_3",
    "Location": "Device",
    "Dimensions": [1,1024,14,14],
    "Format/Datatype": "Channel major FP16 format where channel % 8 == 0"
  }],
  "Outputs": [
  {
    "Name": "gpu_0/res4_4_branch2a_bn_2",
    "Location": "Device",
    "Dimensions": [1,256,14,14],
    "Format/Datatype": "Channel major FP16 format where channel % 8 == 0"
  }],
  "ParameterType": "Convolution",
  "Kernel": [1,1],
  "PaddingMode": "kEXPLICIT_ROUND_DOWN",
  "PrePadding": [0,0],
  "PostPadding": [0,0],
  "Stride": [1,1],
  "Dilation": [1,1],
  "OutMaps": 256,
  "Groups": 1,
  "Weights": {"Type": "Half", "Count": 262144},
  "Bias": {"Type": "Half", "Count": 256},
  "HasSparseWeights": 0,
  "HasDynamicFilter": 0,
  "HasDynamicBias": 0,
  "HasResidual": 0,
  "ConvXAsActInputIdx": -1,
  "BiasAsActInputIdx": -1,
  "ResAsActInputIdx": -1,
  "Activation": "RELU",
  "HasBias": 1,
  "HasReLU": 1,
  "TacticName": "sm80_xmma_fprop_implicit_gemm_f16f16_f16f16_f16_nhwckrsc_nhwc_tilesize64x32x64_stage5_warpsize2x2x1_g1_tensor16x8x16_simple_t1r1s1",
  "TacticValue": "0xe69f3e9fcc7b2069"
},{
  "Name": "node_of_gpu_0/res4_4_branch2b_1 + node_of_gpu_0/res4_4_branch2b_bn_1 + node_of_gpu_0/res4_4_branch2b_bn_2",
  "LayerType": "CaskConvolution",
  "Inputs": [
  {
    "Name": "gpu_0/res4_4_branch2a_bn_2",
    "Location": "Device",
    "Dimensions": [1,256,14,14],
    "Format/Datatype": "Channel major FP16 format where channel % 8 == 0"
  }],
  "Outputs": [
  {
    "Name": "gpu_0/res4_4_branch2b_bn_2",
    "Location": "Device",
    "Dimensions": [1,256,14,14],
    "Format/Datatype": "Channel major FP16 format where channel % 8 == 0"
  }],
  "ParameterType": "Convolution",
  "Kernel": [3,3],
  "PaddingMode": "kEXPLICIT_ROUND_DOWN",
  "PrePadding": [1,1],
  "PostPadding": [1,1],
  "Stride": [1,1],
  "Dilation": [1,1],
  "OutMaps": 256,
  "Groups": 1,
  "Weights": {"Type": "Half", "Count": 589824},
  "Bias": {"Type": "Half", "Count": 256},
  "HasSparseWeights": 0,
  "HasDynamicFilter": 0,
  "HasDynamicBias": 0,
  "HasResidual": 0,
  "ConvXAsActInputIdx": -1,
  "BiasAsActInputIdx": -1,
  "ResAsActInputIdx": -1,
  "Activation": "RELU",
  "HasBias": 1,
  "HasReLU": 1,
  "TacticName": "sm80_xmma_fprop_implicit_gemm_f16f16_f16f16_f16_nhwckrsc_nhwc_tilesize64x32x64_stage5_warpsize2x2x1_g1_tensor16x8x16_t1r3s3",
  "TacticValue": "0xa033e20ae9f412b2"
},{
  "Name": "node_of_gpu_0/res4_4_branch2c_1 + node_of_gpu_0/res4_4_branch2c_bn_1 + node_of_gpu_0/res4_4_branch2c_bn_2 + node_of_gpu_0/res4_4_branch2c_bn_3",
  "LayerType": "CaskConvolution",
  "Inputs": [
  {
    "Name": "gpu_0/res4_4_branch2b_bn_2",
    "Location": "Device",
    "Dimensions": [1,256,14,14],
    "Format/Datatype": "Channel major FP16 format where channel % 8 == 0"
  },
  {
    "Name": "gpu_0/res4_3_branch2c_bn_3",
    "Location": "Device",
    "Dimensions": [1,1024,14,14],
    "Format/Datatype": "Channel major FP16 format where channel % 8 == 0"
  }],
  "Outputs": [
  {
    "Name": "gpu_0/res4_4_branch2c_bn_3",
    "Location": "Device",
    "Dimensions": [1,1024,14,14],
    "Format/Datatype": "Channel major FP16 format where channel % 8 == 0"
  }],
  "ParameterType": "Convolution",
  "Kernel": [1,1],
  "PaddingMode": "kEXPLICIT_ROUND_DOWN",
  "PrePadding": [0,0],
  "PostPadding": [0,0],
  "Stride": [1,1],
  "Dilation": [1,1],
  "OutMaps": 1024,
  "Groups": 1,
  "Weights": {"Type": "Half", "Count": 262144},
  "Bias": {"Type": "Half", "Count": 1024},
  "HasSparseWeights": 0,
  "HasDynamicFilter": 0,
  "HasDynamicBias": 0,
  "HasResidual": 1,
  "ConvXAsActInputIdx": -1,
  "BiasAsActInputIdx": -1,
  "ResAsActInputIdx": -1,
  "Activation": "RELU",
  "HasBias": 1,
  "HasReLU": 1,
  "TacticName": "sm80_xmma_fprop_implicit_gemm_f16f16_f16f16_f16_nhwckrsc_nhwc_tilesize64x64x64_stage4_warpsize2x2x1_g1_tensor16x8x16_simple_t1r1s1",
  "TacticValue": "0x361d222e42fcb76c"
},{
  "Name": "node_of_gpu_0/res4_5_branch2a_1 + node_of_gpu_0/res4_5_branch2a_bn_1 + node_of_gpu_0/res4_5_branch2a_bn_2",
  "LayerType": "CaskConvolution",
  "Inputs": [
  {
    "Name": "gpu_0/res4_4_branch2c_bn_3",
    "Location": "Device",
    "Dimensions": [1,1024,14,14],
    "Format/Datatype": "Channel major FP16 format where channel % 8 == 0"
  }],
  "Outputs": [
  {
    "Name": "gpu_0/res4_5_branch2a_bn_2",
    "Location": "Device",
    "Dimensions": [1,256,14,14],
    "Format/Datatype": "Channel major FP16 format where channel % 8 == 0"
  }],
  "ParameterType": "Convolution",
  "Kernel": [1,1],
  "PaddingMode": "kEXPLICIT_ROUND_DOWN",
  "PrePadding": [0,0],
  "PostPadding": [0,0],
  "Stride": [1,1],
  "Dilation": [1,1],
  "OutMaps": 256,
  "Groups": 1,
  "Weights": {"Type": "Half", "Count": 262144},
  "Bias": {"Type": "Half", "Count": 256},
  "HasSparseWeights": 0,
  "HasDynamicFilter": 0,
  "HasDynamicBias": 0,
  "HasResidual": 0,
  "ConvXAsActInputIdx": -1,
  "BiasAsActInputIdx": -1,
  "ResAsActInputIdx": -1,
  "Activation": "RELU",
  "HasBias": 1,
  "HasReLU": 1,
  "TacticName": "sm80_xmma_fprop_implicit_gemm_f16f16_f16f16_f16_nhwckrsc_nhwc_tilesize64x32x64_stage5_warpsize2x2x1_g1_tensor16x8x16_simple_t1r1s1",
  "TacticValue": "0xe69f3e9fcc7b2069"
},{
  "Name": "node_of_gpu_0/res4_5_branch2b_1 + node_of_gpu_0/res4_5_branch2b_bn_1 + node_of_gpu_0/res4_5_branch2b_bn_2",
  "LayerType": "CaskConvolution",
  "Inputs": [
  {
    "Name": "gpu_0/res4_5_branch2a_bn_2",
    "Location": "Device",
    "Dimensions": [1,256,14,14],
    "Format/Datatype": "Channel major FP16 format where channel % 8 == 0"
  }],
  "Outputs": [
  {
    "Name": "gpu_0/res4_5_branch2b_bn_2",
    "Location": "Device",
    "Dimensions": [1,256,14,14],
    "Format/Datatype": "Channel major FP16 format where channel % 8 == 0"
  }],
  "ParameterType": "Convolution",
  "Kernel": [3,3],
  "PaddingMode": "kEXPLICIT_ROUND_DOWN",
  "PrePadding": [1,1],
  "PostPadding": [1,1],
  "Stride": [1,1],
  "Dilation": [1,1],
  "OutMaps": 256,
  "Groups": 1,
  "Weights": {"Type": "Half", "Count": 589824},
  "Bias": {"Type": "Half", "Count": 256},
  "HasSparseWeights": 0,
  "HasDynamicFilter": 0,
  "HasDynamicBias": 0,
  "HasResidual": 0,
  "ConvXAsActInputIdx": -1,
  "BiasAsActInputIdx": -1,
  "ResAsActInputIdx": -1,
  "Activation": "RELU",
  "HasBias": 1,
  "HasReLU": 1,
  "TacticName": "sm80_xmma_fprop_implicit_gemm_f16f16_f16f16_f16_nhwckrsc_nhwc_tilesize64x32x64_stage5_warpsize2x2x1_g1_tensor16x8x16_t1r3s3",
  "TacticValue": "0xa033e20ae9f412b2"
},{
  "Name": "node_of_gpu_0/res4_5_branch2c_1 + node_of_gpu_0/res4_5_branch2c_bn_1 + node_of_gpu_0/res4_5_branch2c_bn_2 + node_of_gpu_0/res4_5_branch2c_bn_3",
  "LayerType": "CaskConvolution",
  "Inputs": [
  {
    "Name": "gpu_0/res4_5_branch2b_bn_2",
    "Location": "Device",
    "Dimensions": [1,256,14,14],
    "Format/Datatype": "Channel major FP16 format where channel % 8 == 0"
  },
  {
    "Name": "gpu_0/res4_4_branch2c_bn_3",
    "Location": "Device",
    "Dimensions": [1,1024,14,14],
    "Format/Datatype": "Channel major FP16 format where channel % 8 == 0"
  }],
  "Outputs": [
  {
    "Name": "gpu_0/res4_5_branch2c_bn_3",
    "Location": "Device",
    "Dimensions": [1,1024,14,14],
    "Format/Datatype": "Channel major FP16 format where channel % 8 == 0"
  }],
  "ParameterType": "Convolution",
  "Kernel": [1,1],
  "PaddingMode": "kEXPLICIT_ROUND_DOWN",
  "PrePadding": [0,0],
  "PostPadding": [0,0],
  "Stride": [1,1],
  "Dilation": [1,1],
  "OutMaps": 1024,
  "Groups": 1,
  "Weights": {"Type": "Half", "Count": 262144},
  "Bias": {"Type": "Half", "Count": 1024},
  "HasSparseWeights": 0,
  "HasDynamicFilter": 0,
  "HasDynamicBias": 0,
  "HasResidual": 1,
  "ConvXAsActInputIdx": -1,
  "BiasAsActInputIdx": -1,
  "ResAsActInputIdx": -1,
  "Activation": "RELU",
  "HasBias": 1,
  "HasReLU": 1,
  "TacticName": "sm80_xmma_fprop_implicit_gemm_f16f16_f16f16_f16_nhwckrsc_nhwc_tilesize64x64x64_stage4_warpsize2x2x1_g1_tensor16x8x16_simple_t1r1s1",
  "TacticValue": "0x361d222e42fcb76c"
},{
  "Name": "node_of_gpu_0/res5_0_branch2a_1 + node_of_gpu_0/res5_0_branch2a_bn_1 + node_of_gpu_0/res5_0_branch2a_bn_2",
  "LayerType": "CaskConvolution",
  "Inputs": [
  {
    "Name": "gpu_0/res4_5_branch2c_bn_3",
    "Location": "Device",
    "Dimensions": [1,1024,14,14],
    "Format/Datatype": "Channel major FP16 format where channel % 8 == 0"
  }],
  "Outputs": [
  {
    "Name": "gpu_0/res5_0_branch2a_bn_2",
    "Location": "Device",
    "Dimensions": [1,512,14,14],
    "Format/Datatype": "Channel major FP16 format where channel % 8 == 0"
  }],
  "ParameterType": "Convolution",
  "Kernel": [1,1],
  "PaddingMode": "kEXPLICIT_ROUND_DOWN",
  "PrePadding": [0,0],
  "PostPadding": [0,0],
  "Stride": [1,1],
  "Dilation": [1,1],
  "OutMaps": 512,
  "Groups": 1,
  "Weights": {"Type": "Half", "Count": 524288},
  "Bias": {"Type": "Half", "Count": 512},
  "HasSparseWeights": 0,
  "HasDynamicFilter": 0,
  "HasDynamicBias": 0,
  "HasResidual": 0,
  "ConvXAsActInputIdx": -1,
  "BiasAsActInputIdx": -1,
  "ResAsActInputIdx": -1,
  "Activation": "RELU",
  "HasBias": 1,
  "HasReLU": 1,
  "TacticName": "sm80_xmma_fprop_implicit_gemm_indexed_f16f16_f16f16_f16_nhwckrsc_nhwc_tilesize64x32x64_stage5_warpsize2x2x1_g1_tensor16x8x16",
  "TacticValue": "0xe1ff5ad20f5c6bf6"
},{
  "Name": "node_of_gpu_0/res5_0_branch2b_1 + node_of_gpu_0/res5_0_branch2b_bn_1 + node_of_gpu_0/res5_0_branch2b_bn_2",
  "LayerType": "CaskConvolution",
  "Inputs": [
  {
    "Name": "gpu_0/res5_0_branch2a_bn_2",
    "Location": "Device",
    "Dimensions": [1,512,14,14],
    "Format/Datatype": "Channel major FP16 format where channel % 8 == 0"
  }],
  "Outputs": [
  {
    "Name": "gpu_0/res5_0_branch2b_bn_2",
    "Location": "Device",
    "Dimensions": [1,512,7,7],
    "Format/Datatype": "Channel major FP16 format where channel % 8 == 0"
  }],
  "ParameterType": "Convolution",
  "Kernel": [3,3],
  "PaddingMode": "kEXPLICIT_ROUND_DOWN",
  "PrePadding": [1,1],
  "PostPadding": [1,1],
  "Stride": [2,2],
  "Dilation": [1,1],
  "OutMaps": 512,
  "Groups": 1,
  "Weights": {"Type": "Half", "Count": 2359296},
  "Bias": {"Type": "Half", "Count": 512},
  "HasSparseWeights": 0,
  "HasDynamicFilter": 0,
  "HasDynamicBias": 0,
  "HasResidual": 0,
  "ConvXAsActInputIdx": -1,
  "BiasAsActInputIdx": -1,
  "ResAsActInputIdx": -1,
  "Activation": "RELU",
  "HasBias": 1,
  "HasReLU": 1,
  "TacticName": "sm80_xmma_fprop_implicit_gemm_f16f16_f16f16_f16_nhwckrsc_nhwc_tilesize64x32x64_stage5_warpsize2x2x1_g1_tensor16x8x16_t1r3s3",
  "TacticValue": "0xa033e20ae9f412b2"
},{
  "Name": "node_of_gpu_0/res5_0_branch1_1 + node_of_gpu_0/res5_0_branch1_bn_1",
  "LayerType": "CaskConvolution",
  "Inputs": [
  {
    "Name": "gpu_0/res4_5_branch2c_bn_3",
    "Location": "Device",
    "Dimensions": [1,1024,14,14],
    "Format/Datatype": "Channel major FP16 format where channel % 8 == 0"
  }],
  "Outputs": [
  {
    "Name": "gpu_0/res5_0_branch1_bn_1",
    "Location": "Device",
    "Dimensions": [1,2048,7,7],
    "Format/Datatype": "Channel major FP16 format where channel % 8 == 0"
  }],
  "ParameterType": "Convolution",
  "Kernel": [1,1],
  "PaddingMode": "kEXPLICIT_ROUND_DOWN",
  "PrePadding": [0,0],
  "PostPadding": [0,0],
  "Stride": [2,2],
  "Dilation": [1,1],
  "OutMaps": 2048,
  "Groups": 1,
  "Weights": {"Type": "Half", "Count": 2097152},
  "Bias": {"Type": "Half", "Count": 2048},
  "HasSparseWeights": 0,
  "HasDynamicFilter": 0,
  "HasDynamicBias": 0,
  "HasResidual": 0,
  "ConvXAsActInputIdx": -1,
  "BiasAsActInputIdx": -1,
  "ResAsActInputIdx": -1,
  "Activation": "NONE",
  "HasBias": 1,
  "HasReLU": 0,
  "TacticName": "sm80_xmma_fprop_implicit_gemm_f16f16_f16f16_f16_nhwckrsc_nhwc_tilesize64x64x64_stage4_warpsize2x2x1_g1_tensor16x8x16_t1r1s1",
  "TacticValue": "0xbb4ac900a7be8b4c"
},{
  "Name": "node_of_gpu_0/res5_0_branch2c_1 + node_of_gpu_0/res5_0_branch2c_bn_1 + node_of_gpu_0/res5_0_branch2c_bn_2 + node_of_gpu_0/res5_0_branch2c_bn_3",
  "LayerType": "CaskConvolution",
  "Inputs": [
  {
    "Name": "gpu_0/res5_0_branch2b_bn_2",
    "Location": "Device",
    "Dimensions": [1,512,7,7],
    "Format/Datatype": "Channel major FP16 format where channel % 8 == 0"
  },
  {
    "Name": "gpu_0/res5_0_branch1_bn_1",
    "Location": "Device",
    "Dimensions": [1,2048,7,7],
    "Format/Datatype": "Channel major FP16 format where channel % 8 == 0"
  }],
  "Outputs": [
  {
    "Name": "gpu_0/res5_0_branch2c_bn_3",
    "Location": "Device",
    "Dimensions": [1,2048,7,7],
    "Format/Datatype": "Channel major FP16 format where channel % 8 == 0"
  }],
  "ParameterType": "Convolution",
  "Kernel": [1,1],
  "PaddingMode": "kEXPLICIT_ROUND_DOWN",
  "PrePadding": [0,0],
  "PostPadding": [0,0],
  "Stride": [1,1],
  "Dilation": [1,1],
  "OutMaps": 2048,
  "Groups": 1,
  "Weights": {"Type": "Half", "Count": 1048576},
  "Bias": {"Type": "Half", "Count": 2048},
  "HasSparseWeights": 0,
  "HasDynamicFilter": 0,
  "HasDynamicBias": 0,
  "HasResidual": 1,
  "ConvXAsActInputIdx": -1,
  "BiasAsActInputIdx": -1,
  "ResAsActInputIdx": -1,
  "Activation": "RELU",
  "HasBias": 1,
  "HasReLU": 1,
  "TacticName": "sm80_xmma_fprop_implicit_gemm_f16f16_f16f16_f16_nhwckrsc_nhwc_tilesize64x64x64_stage4_warpsize2x2x1_g1_tensor16x8x16_simple_t1r1s1",
  "TacticValue": "0x361d222e42fcb76c"
},{
  "Name": "node_of_gpu_0/res5_1_branch2a_1 + node_of_gpu_0/res5_1_branch2a_bn_1 + node_of_gpu_0/res5_1_branch2a_bn_2",
  "LayerType": "CaskConvolution",
  "Inputs": [
  {
    "Name": "gpu_0/res5_0_branch2c_bn_3",
    "Location": "Device",
    "Dimensions": [1,2048,7,7],
    "Format/Datatype": "Channel major FP16 format where channel % 8 == 0"
  }],
  "Outputs": [
  {
    "Name": "gpu_0/res5_1_branch2a_bn_2",
    "Location": "Device",
    "Dimensions": [1,512,7,7],
    "Format/Datatype": "Channel major FP16 format where channel % 8 == 0"
  }],
  "ParameterType": "Convolution",
  "Kernel": [1,1],
  "PaddingMode": "kEXPLICIT_ROUND_DOWN",
  "PrePadding": [0,0],
  "PostPadding": [0,0],
  "Stride": [1,1],
  "Dilation": [1,1],
  "OutMaps": 512,
  "Groups": 1,
  "Weights": {"Type": "Half", "Count": 1048576},
  "Bias": {"Type": "Half", "Count": 512},
  "HasSparseWeights": 0,
  "HasDynamicFilter": 0,
  "HasDynamicBias": 0,
  "HasResidual": 0,
  "ConvXAsActInputIdx": -1,
  "BiasAsActInputIdx": -1,
  "ResAsActInputIdx": -1,
  "Activation": "RELU",
  "HasBias": 1,
  "HasReLU": 1,
  "TacticName": "sm80_xmma_fprop_implicit_gemm_f16f16_f16f16_f16_nhwckrsc_nhwc_tilesize64x32x64_stage5_warpsize2x2x1_g1_tensor16x8x16_simple_t1r1s1",
  "TacticValue": "0xe69f3e9fcc7b2069"
},{
  "Name": "node_of_gpu_0/res5_1_branch2b_1 + node_of_gpu_0/res5_1_branch2b_bn_1 + node_of_gpu_0/res5_1_branch2b_bn_2",
  "LayerType": "CaskConvolution",
  "Inputs": [
  {
    "Name": "gpu_0/res5_1_branch2a_bn_2",
    "Location": "Device",
    "Dimensions": [1,512,7,7],
    "Format/Datatype": "Channel major FP16 format where channel % 8 == 0"
  }],
  "Outputs": [
  {
    "Name": "gpu_0/res5_1_branch2b_bn_2",
    "Location": "Device",
    "Dimensions": [1,512,7,7],
    "Format/Datatype": "Channel major FP16 format where channel % 8 == 0"
  }],
  "ParameterType": "Convolution",
  "Kernel": [3,3],
  "PaddingMode": "kEXPLICIT_ROUND_DOWN",
  "PrePadding": [1,1],
  "PostPadding": [1,1],
  "Stride": [1,1],
  "Dilation": [1,1],
  "OutMaps": 512,
  "Groups": 1,
  "Weights": {"Type": "Half", "Count": 2359296},
  "Bias": {"Type": "Half", "Count": 512},
  "HasSparseWeights": 0,
  "HasDynamicFilter": 0,
  "HasDynamicBias": 0,
  "HasResidual": 0,
  "ConvXAsActInputIdx": -1,
  "BiasAsActInputIdx": -1,
  "ResAsActInputIdx": -1,
  "Activation": "RELU",
  "HasBias": 1,
  "HasReLU": 1,
  "TacticName": "sm80_xmma_fprop_implicit_gemm_f16f16_f16f16_f16_nhwckrsc_nhwc_tilesize64x32x64_stage5_warpsize2x2x1_g1_tensor16x8x16_t1r3s3",
  "TacticValue": "0xa033e20ae9f412b2"
},{
  "Name": "node_of_gpu_0/res5_1_branch2c_1 + node_of_gpu_0/res5_1_branch2c_bn_1 + node_of_gpu_0/res5_1_branch2c_bn_2 + node_of_gpu_0/res5_1_branch2c_bn_3",
  "LayerType": "CaskConvolution",
  "Inputs": [
  {
    "Name": "gpu_0/res5_1_branch2b_bn_2",
    "Location": "Device",
    "Dimensions": [1,512,7,7],
    "Format/Datatype": "Channel major FP16 format where channel % 8 == 0"
  },
  {
    "Name": "gpu_0/res5_0_branch2c_bn_3",
    "Location": "Device",
    "Dimensions": [1,2048,7,7],
    "Format/Datatype": "Channel major FP16 format where channel % 8 == 0"
  }],
  "Outputs": [
  {
    "Name": "gpu_0/res5_1_branch2c_bn_3",
    "Location": "Device",
    "Dimensions": [1,2048,7,7],
    "Format/Datatype": "Channel major FP16 format where channel % 8 == 0"
  }],
  "ParameterType": "Convolution",
  "Kernel": [1,1],
  "PaddingMode": "kEXPLICIT_ROUND_DOWN",
  "PrePadding": [0,0],
  "PostPadding": [0,0],
  "Stride": [1,1],
  "Dilation": [1,1],
  "OutMaps": 2048,
  "Groups": 1,
  "Weights": {"Type": "Half", "Count": 1048576},
  "Bias": {"Type": "Half", "Count": 2048},
  "HasSparseWeights": 0,
  "HasDynamicFilter": 0,
  "HasDynamicBias": 0,
  "HasResidual": 1,
  "ConvXAsActInputIdx": -1,
  "BiasAsActInputIdx": -1,
  "ResAsActInputIdx": -1,
  "Activation": "RELU",
  "HasBias": 1,
  "HasReLU": 1,
  "TacticName": "sm80_xmma_fprop_implicit_gemm_f16f16_f16f16_f16_nhwckrsc_nhwc_tilesize64x64x64_stage4_warpsize2x2x1_g1_tensor16x8x16_simple_t1r1s1",
  "TacticValue": "0x361d222e42fcb76c"
},{
  "Name": "node_of_gpu_0/res5_2_branch2a_1 + node_of_gpu_0/res5_2_branch2a_bn_1 + node_of_gpu_0/res5_2_branch2a_bn_2",
  "LayerType": "CaskConvolution",
  "Inputs": [
  {
    "Name": "gpu_0/res5_1_branch2c_bn_3",
    "Location": "Device",
    "Dimensions": [1,2048,7,7],
    "Format/Datatype": "Channel major FP16 format where channel % 8 == 0"
  }],
  "Outputs": [
  {
    "Name": "gpu_0/res5_2_branch2a_bn_2",
    "Location": "Device",
    "Dimensions": [1,512,7,7],
    "Format/Datatype": "Channel major FP16 format where channel % 8 == 0"
  }],
  "ParameterType": "Convolution",
  "Kernel": [1,1],
  "PaddingMode": "kEXPLICIT_ROUND_DOWN",
  "PrePadding": [0,0],
  "PostPadding": [0,0],
  "Stride": [1,1],
  "Dilation": [1,1],
  "OutMaps": 512,
  "Groups": 1,
  "Weights": {"Type": "Half", "Count": 1048576},
  "Bias": {"Type": "Half", "Count": 512},
  "HasSparseWeights": 0,
  "HasDynamicFilter": 0,
  "HasDynamicBias": 0,
  "HasResidual": 0,
  "ConvXAsActInputIdx": -1,
  "BiasAsActInputIdx": -1,
  "ResAsActInputIdx": -1,
  "Activation": "RELU",
  "HasBias": 1,
  "HasReLU": 1,
  "TacticName": "sm80_xmma_fprop_implicit_gemm_f16f16_f16f16_f16_nhwckrsc_nhwc_tilesize64x32x64_stage5_warpsize2x2x1_g1_tensor16x8x16_simple_t1r1s1",
  "TacticValue": "0xe69f3e9fcc7b2069"
},{
  "Name": "node_of_gpu_0/res5_2_branch2b_1 + node_of_gpu_0/res5_2_branch2b_bn_1 + node_of_gpu_0/res5_2_branch2b_bn_2",
  "LayerType": "CaskConvolution",
  "Inputs": [
  {
    "Name": "gpu_0/res5_2_branch2a_bn_2",
    "Location": "Device",
    "Dimensions": [1,512,7,7],
    "Format/Datatype": "Channel major FP16 format where channel % 8 == 0"
  }],
  "Outputs": [
  {
    "Name": "gpu_0/res5_2_branch2b_bn_2",
    "Location": "Device",
    "Dimensions": [1,512,7,7],
    "Format/Datatype": "Channel major FP16 format where channel % 8 == 0"
  }],
  "ParameterType": "Convolution",
  "Kernel": [3,3],
  "PaddingMode": "kEXPLICIT_ROUND_DOWN",
  "PrePadding": [1,1],
  "PostPadding": [1,1],
  "Stride": [1,1],
  "Dilation": [1,1],
  "OutMaps": 512,
  "Groups": 1,
  "Weights": {"Type": "Half", "Count": 2359296},
  "Bias": {"Type": "Half", "Count": 512},
  "HasSparseWeights": 0,
  "HasDynamicFilter": 0,
  "HasDynamicBias": 0,
  "HasResidual": 0,
  "ConvXAsActInputIdx": -1,
  "BiasAsActInputIdx": -1,
  "ResAsActInputIdx": -1,
  "Activation": "RELU",
  "HasBias": 1,
  "HasReLU": 1,
  "TacticName": "sm80_xmma_fprop_implicit_gemm_f16f16_f16f16_f16_nhwckrsc_nhwc_tilesize64x32x64_stage5_warpsize2x2x1_g1_tensor16x8x16_t1r3s3",
  "TacticValue": "0xa033e20ae9f412b2"
},{
  "Name": "node_of_gpu_0/res5_2_branch2c_1 + node_of_gpu_0/res5_2_branch2c_bn_1 + node_of_gpu_0/res5_2_branch2c_bn_2 + node_of_gpu_0/res5_2_branch2c_bn_3",
  "LayerType": "CaskConvolution",
  "Inputs": [
  {
    "Name": "gpu_0/res5_2_branch2b_bn_2",
    "Location": "Device",
    "Dimensions": [1,512,7,7],
    "Format/Datatype": "Channel major FP16 format where channel % 8 == 0"
  },
  {
    "Name": "gpu_0/res5_1_branch2c_bn_3",
    "Location": "Device",
    "Dimensions": [1,2048,7,7],
    "Format/Datatype": "Channel major FP16 format where channel % 8 == 0"
  }],
  "Outputs": [
  {
    "Name": "gpu_0/res5_2_branch2c_bn_3",
    "Location": "Device",
    "Dimensions": [1,2048,7,7],
    "Format/Datatype": "Channel major FP16 format where channel % 8 == 0"
  }],
  "ParameterType": "Convolution",
  "Kernel": [1,1],
  "PaddingMode": "kEXPLICIT_ROUND_DOWN",
  "PrePadding": [0,0],
  "PostPadding": [0,0],
  "Stride": [1,1],
  "Dilation": [1,1],
  "OutMaps": 2048,
  "Groups": 1,
  "Weights": {"Type": "Half", "Count": 1048576},
  "Bias": {"Type": "Half", "Count": 2048},
  "HasSparseWeights": 0,
  "HasDynamicFilter": 0,
  "HasDynamicBias": 0,
  "HasResidual": 1,
  "ConvXAsActInputIdx": -1,
  "BiasAsActInputIdx": -1,
  "ResAsActInputIdx": -1,
  "Activation": "RELU",
  "HasBias": 1,
  "HasReLU": 1,
  "TacticName": "sm80_xmma_fprop_implicit_gemm_f16f16_f16f16_f16_nhwckrsc_nhwc_tilesize64x64x64_stage4_warpsize2x2x1_g1_tensor16x8x16_simple_t1r1s1",
  "TacticValue": "0x361d222e42fcb76c"
},{
  "Name": "node_of_gpu_0/pool5_1",
  "LayerType": "CaskPooling",
  "Inputs": [
  {
    "Name": "gpu_0/res5_2_branch2c_bn_3",
    "Location": "Device",
    "Dimensions": [1,2048,7,7],
    "Format/Datatype": "Channel major FP16 format where channel % 8 == 0"
  }],
  "Outputs": [
  {
    "Name": "gpu_0/pool5_1",
    "Location": "Device",
    "Dimensions": [1,2048,1,1],
    "Format/Datatype": "Channel major FP16 format where channel % 8 == 0"
  }],
  "ParameterType": "Pooling",
  "PoolingType": "AVERAGE",
  "WindowSize": [7,7],
  "PaddingMode": "kEXPLICIT_ROUND_DOWN",
  "PrePadding": [0,0],
  "PostPadding": [0,0],
  "Stride": [1,1],
  "BlendFactor": 0,
  "AverageCountExcludesPadding": 1,
  "TacticName": "sm50_xmma_pooling_fw_4d_FP16FP32NHWC_Average_FastDiv_CAlign4",
  "TacticValue": "0x56d7b61f084f251e"
},{
  "Name": "Reformatting CopyNode for Input Tensor 0 to node_of_gpu_0/pred_1",
  "LayerType": "NoOp",
  "Inputs": [
  {
    "Name": "gpu_0/pool5_1",
    "Location": "Device",
    "Dimensions": [1,2048,1,1],
    "Format/Datatype": "Channel major FP16 format where channel % 8 == 0"
  }],
  "Outputs": [
  {
    "Name": "Reformatted Input Tensor 0 to node_of_gpu_0/pred_1",
    "Location": "Device",
    "Dimensions": [1,2048,1,1],
    "Format/Datatype": "Row major linear FP16 format"
  }],
  "TacticValue": "0x0000000000000000"
},{
  "Name": "node_of_gpu_0/pred_1",
  "LayerType": "CaskGemmConvolution",
  "Inputs": [
  {
    "Name": "Reformatted Input Tensor 0 to node_of_gpu_0/pred_1",
    "Location": "Device",
    "Dimensions": [1,2048,1,1],
    "Format/Datatype": "Row major linear FP16 format"
  }],
  "Outputs": [
  {
    "Name": "node_of_gpu_0/pred_1_out_tensor",
    "Location": "Device",
    "Dimensions": [1,1000,1,1],
    "Format/Datatype": "Row major linear FP16 format"
  }],
  "ParameterType": "Convolution",
  "Kernel": [1,1],
  "PaddingMode": "kEXPLICIT_ROUND_DOWN",
  "PrePadding": [0,0],
  "PostPadding": [0,0],
  "Stride": [1,1],
  "Dilation": [1,1],
  "OutMaps": 1000,
  "Groups": 1,
  "Weights": {"Type": "Half", "Count": 2048000},
  "Bias": {"Type": "Half", "Count": 1000},
  "HasSparseWeights": 0,
  "HasDynamicFilter": 0,
  "HasDynamicBias": 0,
  "HasResidual": 0,
  "ConvXAsActInputIdx": -1,
  "BiasAsActInputIdx": -1,
  "ResAsActInputIdx": -1,
  "Activation": "NONE",
  "TacticName": "sm50_xmma_cublas_gemvx_f16f16_f32_f32_tn_n_int32_unit_n_launch_param16x32x32_strided_unit_stride",
  "TacticValue": "0x00000000000203de"
},{
  "Name": "reshape_after_node_of_gpu_0/pred_1",
  "LayerType": "NoOp",
  "Inputs": [
  {
    "Name": "node_of_gpu_0/pred_1_out_tensor",
    "Location": "Device",
    "Dimensions": [1,1000,1,1],
    "Format/Datatype": "Row major linear FP16 format"
  }],
  "Outputs": [
  {
    "Name": "gpu_0/pred_1",
    "Location": "Device",
    "Dimensions": [1,1000],
    "Format/Datatype": "Row major linear FP16 format"
  }],
  "TacticValue": "0x0000000000000000"
},{
  "Name": "Reformatting CopyNode for Input Tensor 0 to (Unnamed Layer* 180) [Softmax]",
  "LayerType": "Reformat",
  "Inputs": [
  {
    "Name": "gpu_0/pred_1",
    "Location": "Device",
    "Dimensions": [1,1000],
    "Format/Datatype": "Row major linear FP16 format"
  }],
  "Outputs": [
  {
    "Name": "Reformatted Input Tensor 0 to (Unnamed Layer* 180) [Softmax]",
    "Location": "Device",
    "Dimensions": [1,1000],
    "Format/Datatype": "Row major linear FP32"
  }],
  "ParameterType": "Reformat",
  "Origin": "REFORMAT",
  "TacticValue": "0x00000000000003e8"
},{
  "Name": "(Unnamed Layer* 180) [Softmax]",
  "LayerType": "CudaSoftMax",
  "Inputs": [
  {
    "Name": "Reformatted Input Tensor 0 to (Unnamed Layer* 180) [Softmax]",
    "Location": "Device",
    "Dimensions": [1,1000],
    "Format/Datatype": "Row major linear FP32"
  }],
  "Outputs": [
  {
    "Name": "gpu_0/softmax_1",
    "Location": "Device",
    "Dimensions": [1,1000],
    "Format/Datatype": "Row major linear FP32"
  }],
  "ParameterType": "SoftMax",
  "Axes": 2,
  "HasLog": 0,
  "TacticValue": "0x00000000000003e9"
}],
"Bindings": ["gpu_0/data_0"
,"gpu_0/softmax_1"
]}
